policy_agent_trained_2025_01_31_06_10_44.pth (torch, 86168 bytes, 4 tensors)

fc1.weight f4 [128, 81]
-0.061668824 0.06664644 -0.019187849 0.056999017 0.08071199 -0.08374815 0.102204174 -0.035842977
0.04678939 0.07985744 0.0968456 0.09032038 -0.07273796 0.10335021 0.039109707 -0.017565278
-0.011349655 0.017836258 0.08597264 -0.051417183 -0.065170914 0.08753736 -0.067947246 0.05337266
0.003100896 -0.09622353 -0.01621611 -0.08350371 0.06407791 0.007061306 -0.022497421 0.03600537
0.11110704 0.062296644 0.04653236 0.011468131 0.0018584571 0.089962035 -0.043275308 0.07494988
0.15202439 0.06198323 0.036959033 0.05835141 -0.043394253 -0.0150466105 0.058474403 0.01326228
0.111594856 0.06514726 0.0146735255 0.10208773 -0.025267003 -0.05132573 -0.004905402 -0.088596955
-0.09627206 -0.10290781 -0.029107407 0.026469294 -0.06231913 0.030081127 -0.024092812 -0.07545038
-0.12217203 -0.0863232 0.030964712 0.118122086 -0.034521405 0.016350787 -0.07310311 -0.043145604
0.06421151 -0.050375246 -0.09578247 -0.10068828 0.010737106 -0.07311401 -0.042238582 -0.07700401
-0.09942874 0.04741569 0.10847312 0.044376567 -0.002857235 -0.05831147 0.020715198 0.0037005723
-0.019326756 -0.06811246 -0.06408335 -0.015632438 0.03804843 0.041280214 0.02086303 0.1122838
0.020964652 -0.088203065 -0.09724092 0.047767293 0.07229624 0.055504438 -0.08873168 0.10025132
-0.038252987 0.025866907 0.064134575 -0.06971042 -0.020522838 0.07968673 -0.06885151 -0.11364716
-0.073592484 0.03456695 0.03458583 -0.048360348 0.110978924 -0.09248107 -0.058493644 0.041680478
0.08986288 0.05115959 0.016018022 0.09622605 0.07796501 -0.05532192 0.042342562 0.042346966
0.022625186 0.06294519 -0.062510125 0.10395805 -0.09885811 -0.07407067 -0.08498264 0.06483664
0.09265362 0.0005023704 0.095608875 0.09618922 -0.046184346 -0.0097408295 -0.075096376 0.11684197
0.12531075 -0.019021088 0.0018907157 0.07631155 0.065406226 0.002922997 -0.10200329 -0.019921916
-0.09459158 -0.045413703 0.090772875 0.054478064 -0.046437636 -0.11816121 0.01627197 0.1192438
0.013912666 -0.04596782 0.08118834 0.02290911 -0.10739241 0.098265365 -0.019763 0.0350279
0.008187413 0.008259126 0.047535647 -0.0710088 -0.070709094 0.010498633 -0.12260133 -0.04528105
0.10930611 0.1082753 0.09807034 0.06876544 0.08450681 0.09476299 0.102138355 -0.021378363
-0.070167415 0.10946415 -0.08969609 0.11250243 -0.08907855 0.12053883 -0.083812445 0.034904983
0.03770969 0.066787824 0.012303087 0.08830606 0.036525466 -0.086463265 -0.013700044 -0.085448235
-0.03005174 -0.024141952 -0.07742275 -0.017834421 -0.014019224 -0.039005354 0.06389855 -0.034423552
0.11308398 -0.08121465 0.11402975 -0.107002676 -0.1025399 -0.0020365694 -0.0036227494 0.09653044
-0.07170324 0.007552678 -0.04124328 0.11188746 -0.03175009 -0.062353794 0.030046262 0.030469757
-0.074190535 0.06745831 0.076974876 -0.067138724 0.10600782 0.09350094 0.0691015 0.062653735
0.0852609 0.09598618 0.12341731 -0.10400535 0.00026948305 -0.051908158 -0.094801016 -0.01670113
-0.035855014 0.002664459 -0.075752564 -0.003156043 -0.120568566 0.017808856 -0.007878227 0.019521527
-0.056864753 0.06314869 0.010156439 -0.014366301 -0.021836959 -0.031660426 -0.08861201 0.016481062
00000000: 7398 7cbd ee7d 883d d62f 9dbc cd77 693d
00000010: 544c a53d 2684 abbd 6c50 d13d 16d0 12bd
00000020: 3ba6 3f3d 4c8c a33d fc56 c63d e4f9 b83d
00000030: a4f7 94bd 46a9 d33d 8031 203d 0fe5 8fbc
00000040: e7f3 39bc 581d 923c 6c12 b03d d39a 52bd
00000050: 5478 85bd ca46 b33d ed27 8bbd 4a9d 5a3d
00000060: 6738 4b3b d810 c5bd a6d7 84bc fe03 abbd
00000070: 473b 833d 8762 e73b 834c b8bc 5e7a 133d
00000080: 168c e33d c42a 7f3d b798 3e3d d4e4 3b3c
00000090: 7997 f33a 043e b83d 7341 31bd 537f 993d
000000a0: 48ac 1b3e 21e2 7d3d 5b62 173d e301 6f3d
000000b0: 2cbe 31bd 0f86 76bc db82 6f3d 094a 593c
000000c0: d88b e43d ed6b 853d 3a69 703c 5f13 d13d
000000d0: bffc cebc ee3a 52bd 7fbd a0bb 5272 b5bd
000000e0: 492a c5bd 54c1 d2bd a872 eebc 22d6 d83c
000000f0: 5842 7fbd b26c f63c 4a5e c5bc bb85 9abd
00000100: 5435 fabd 38ca b0bd b5a9 fd3c fee9 f13d
00000110: 5166 0dbd 16f2 853c 15b7 95bd 72b9 30bd
00000120: 5381 833d 4656 4ebd 9a29 c4bd a835 cebd
00000130: b0ea 2f3c ccbc 95bd 5d02 2dbd 47b4 9dbd
00000140: 4ca1 cbbd f436 423d 2827 de3d 34c4 353d
00000150: 7340 3bbb 02d8 6ebd ebb2 a93c 4d85 723b
00000160: 2553 9ebc 8c7e 8bbd 223e 83bd 990f 80bc
00000170: acd8 1b3d 7115 293d f2e8 aa3c 0df5 e53d
00000180: 10be ab3c cfa3 b4bd 3f26 c7bd a3a7 433d
00000190: 0d10 943d 9f58 633d f4b8 b5bd 9050 cd3d
000001a0: 2aaf 1cbd d6e6 d33c fd58 833d 56c4 8ebd
000001b0: 831f a8bc cc32 a33d 0502 8dbd d8bf e8bd
000001c0: a8b7 96bd 1396 0d3d dfa9 0d3d 8015 46bd
000001d0: eb48 e33d b766 bdbd 0897 6fbd 26b9 2a3d
000001e0: 080a b83d b88c 513d 3a38 833c 2a12 c53d
000001f0: 1fac 9f3d 3d99 62bd 656f 2d3d 0374 2d3d
00000200: 7458 b93c 68e9 803d 4f05 80bd f5e7 d43d
00000210: 1f76 cabd 5db2 97bd 610b aebd 13c9 843d
00000220: 2ec1 bd3d 82b1 033a 96ce c33d dbfe c43d
00000230: cc2b 3dbd 0098 1fbc 21cc 99bd d84a ef3d
00000240: 7651 003e 1dd2 9bbc e4d1 f73a 3b49 9c3d
00000250: b3f3 853d c18f 3f3b 1ae7 d0bd 4933 a3bc
00000260: 3bb9 c1bd b803 3abd 21e7 b93d 6424 5f3d
00000270: 6435 3ebd 81fe f1bd cb4c 853c 1836 f43d
00000280: f3f1 633c c148 3cbd 1346 a63d e3ab bb3c
00000290: 8df0 dbbd 5a3f c93d 04e6 a1bc 6a79 0f3d
000002a0: 8024 063c 4951 073c bdb4 423d 106d 91bd
000002b0: eecf 90bd 7502 2c3c 6816 fbbd 9f78 39bd
000002c0: e2db df3d 71bf dd3d 1ad9 c83d e5d4 8c3d
000002d0: e811 ad3d 1913 c23d ea2d d13d ad21 afbc
000002e0: efb3 8fbd be2e e03d 95b2 b7bd ad67 e63d
000002f0: d16e b6bd 10dd f63d dca5 abbd 87f8 0e3d
00000300: 7a75 1a3d 0ec8 883d e392 493c cfd9 b43d
00000310: ba9b 153d a713 b1bd 2676 60bc 7cff aebd
00000320: 112f f6bc 58c5 c5bc d28f 9ebd 7e19 92bc
00000330: e3b0 65bc 14c4 1fbd 3edd 823d b6ff 0cbd
00000340: 9398 e73d de53 a6bd 6e88 e93d 3824 dbbd
00000350: 7000 d2bd f777 05bb a66b 6dbb c0b1 c53d
00000360: 26d9 92bd 757c f73b b7ee 28bd 4125 e53d
00000370: 620c 02bd b166 7fbd 9423 f63c b69b f93c
00000380: 35f1 97bd 9527 8a3d 01a5 9d3d 0780 89bd
00000390: a11a d93d 6c7d bf3d 1685 8d3d 9a50 803d
000003a0: 449d ae3d 6794 c43d 37c2 fc3d c200 d5bd
000003b0: 6749 8d39 a69d 54bd 0927 c2bd cfd0 88bc
000003c0: b5dc 12bd 349e 2e3b 2924 9bbd 9dd5 4ebb
000003d0: a7ec f6bd e1e3 913c ae13 01bc 9ceb 9f3c
000003e0: 04eb 68bd 1a54 813d 3167 263c a260 6bbc
000003f0: 6ce3 b2bc 5dae 01bd 377a b5bd 4b03 873c

fc1.bias f4 [128]
0.017609052 0.05793076 0.17908923 0.001635536 0.03351633 -0.05090998 -0.084902525 -0.007483373
0.13461824 0.06999807 -0.005755552 -0.07986174 -0.09605913 0.12431614 0.088289164 -0.1104155
0.07133628 0.16670695 -0.0038666127 -0.062006682 0.1956579 0.065507084 -0.025954062 0.13835214
0.09106524 -0.005924786 0.20068944 -0.12678699 -0.09853869 0.14546543 0.23318253 0.19739956
0.16212751 0.11055929 -0.04155196 0.15959875 0.04775332 0.1299542 0.211965 0.027922343
0.2129009 0.13029522 0.16655625 -0.10712329 0.049533784 -0.032947134 0.13060936 0.024678707
-0.06945478 0.19129449 -0.08254395 -0.009086748 -0.08847809 -0.025594067 -0.07441898 0.14853403
0.008055877 -0.039065357 -0.042745862 0.0026475212 0.024897592 0.0046978295 -0.013596083 -0.11378695
-0.021659272 -0.0008511881 0.124295495 0.19724107 0.0560376 0.012344011 0.0051499894 0.2196068
-0.00046122455 -0.10903779 0.14283642 0.014769213 0.19485421 -0.05047135 0.24992199 -0.035002746
0.21137576 0.21922888 -0.013843159 0.07241239 0.14274096 -0.005025602 0.16251104 -0.068078354
0.1312812 -0.0155203175 -0.0783117 -0.08574483 0.14176495 0.01059572 -0.03404002 -0.042463813
-0.028580273 -0.031942982 -0.065469295 0.09656138 0.17643784 0.0003127635 -0.016544998 -0.09600265
-0.04855232 0.17337686 -0.0036919862 -0.040789153 -0.0026544072 -0.124468185 0.086024635 0.17881194
0.19400263 0.146079 0.17348376 0.024282757 0.18830119 -0.0034185995 -0.03247997 0.1241863
0.0030594417 0.0022974203 -0.081772454 -0.07729185 0.1819359 -0.009470609 0.0021020789 0.103866786
00000000: dc40 903c ce48 6d3d 2b63 373e 7b5f d63a
00000010: 6b48 093d fc86 50bd 60e1 adbd 1537 f5bb
00000020: 5dd9 093e 265b 8f3d 1299 bcbb 8d8e a3bd
00000030: a6ba c4bd 7699 fe3d f3d0 b43d 8621 e2bd
00000040: c118 923d 3ab5 2a3e ff66 7dbb b8fa 7dbd
00000050: 8b5a 483e 9428 863d 9d9d d4bc 2fac 0d3e
00000060: 6a80 ba3d b524 c2bb 8881 4d3e 73d4 01be
00000070: a7ce c9bd e4f4 143e 67c7 6e3e 1c23 4a3e
00000080: c104 263e e96c e23d 6332 2abd db6d 233e
00000090: fc98 433d b712 053e 5a0d 593e 66bd e43c
000000a0: b202 5a3e 1c6c 053e b98d 2a3e 7563 dbbd
000000b0: f0e3 4a3d 93f3 06bd 76be 053e 002b ca3c
000000c0: 4f3e 8ebd b4e2 433e cd0c a9bd 95e0 14bc
000000d0: 0034 b5bd a6aa d1bc fa68 98bd 4e19 183e
000000e0: ccfc 033c ff02 20bd 4916 2fbd 0982 2d3b
000000f0: 09f6 cb3c 40f0 993b 1bc2 5ebc 2209 e9bd
00000100: c96e b1bc 4422 5fba a38e fe3d 90f9 493e
00000110: af87 653d 893e 4a3c 3ec1 a83b 9be0 603e
00000120: 83d0 f1b9 344f dfbd b643 123e 92fa 713c
00000130: dd87 473e 0cbb 4ebd 8deb 7f3e 0a5f 0fbd
00000140: e372 583e 897d 603e 6bce 62bc f24c 943d
00000150: b02a 123e cead a4bb 4b69 263e aa6c 8bbd
00000160: 946e 063e ee48 7ebc e261 a0bd fc9a afbd
00000170: d52a 113e ac99 2d3c 8c6d 0bbd 89ee 2dbd
00000180: 2d21 eabc a5d6 02bd c414 86bd f9c1 c53d
00000190: 1fac 343e 68fa a339 6089 87bc 0a9d c4bd
000001a0: ccde 46bd b489 313e 40f5 71bb 8712 27bd
000001b0: 90f5 2dbb 2de9 febd af2d b03d 7a1a 373e
000001c0: a0a8 463e bc95 153e baa5 313e a2ec c63c
000001d0: 07d2 403e 950a 60bb b809 05bd 6355 fe3d
000001e0: ea80 483b 5190 163b 5178 a7bd 304b 9ebd
000001f0: 684d 3a3e 9d2a 1bbc 08c3 093b 1cb8 d43d

fc2.weight f4 [81, 128]
-0.009693222 -0.012886005 -0.117294416 -0.08945929 -0.0864362 -0.074883685 -0.037456598 -0.07494418
-0.16471715 -0.1444651 -0.10304499 -0.107682824 0.0095382845 -0.09338564 -0.1289615 -0.08343308
-0.028369281 -0.06395429 -0.11793783 -0.13969982 -0.09903623 -0.15961246 -0.121902004 -0.06979684
-0.08452088 -0.09661932 -0.04061474 -0.08753306 0.030739246 -0.03223077 -0.13588782 -0.04698077
0.0150138065 -0.042241547 -0.1281279 -0.08410242 -0.13932593 -0.1356652 -0.06419589 0.008339155
-0.09850452 -0.10684173 -0.14268896 -0.0053968094 -0.034809403 -0.13393556 -0.19563298 -0.12688632
-0.010207703 -0.06560879 -0.13846776 -0.068880215 -0.042135514 -0.017337479 -0.1583337 -0.067424275
-0.03482722 -0.09466363 0.022025784 0.030858168 0.001057004 -0.17209467 -0.008470299 -0.055150177
-0.11791347 -0.060670678 -0.06758598 -0.14027375 -0.147926 -0.13537715 -0.1813459 -0.09545059
-0.05832926 -0.06378596 -0.10205779 -0.12775692 -0.12967335 -0.02538877 -0.098836556 -0.07611403
-0.0112069035 -0.16831285 -0.0584559 -0.09036641 -0.0069702636 -0.11215945 -0.027549028 -0.1273068
-0.15705036 -0.02341376 -0.029825067 -0.029998373 -0.07062693 -0.1258124 -0.14456972 -0.06368537
-0.14623415 -0.08340632 -0.10628934 -0.05531558 -0.037316196 -0.118408695 -0.1695844 -0.03188603
0.014334589 -0.13991342 -0.11151633 0.033912957 -0.006434401 -0.00052508374 -0.09603438 -0.16086094
-0.08036163 -0.11346034 -0.18718371 -0.10379543 -0.17299494 -0.0010690346 0.062237766 -0.07896265
-0.076338425 -0.04497457 -0.06160531 -0.013344904 -0.15094246 -0.1320423 0.025264947 -0.009903065
0.03681023 -0.105695724 -0.10540184 0.015497764 -0.06963275 0.05960488 -0.03455841 -0.12550947
-0.015865313 -0.13014229 -0.15002796 -0.13193637 -0.039198756 0.014707821 -0.07578595 -0.068500005
-0.035882987 -0.090205826 -0.041055262 -0.09106576 -0.04509767 -0.12505561 0.0110760555 -0.07242691
-0.09659346 0.013956655 -0.026769042 -0.099868946 -0.024367252 -0.13980295 0.0059658284 -0.12882398
-0.1367908 -0.054228123 -0.1292727 -0.041653007 -0.041107245 -0.05836619 -0.0045256414 0.071924075
-0.03232123 0.024924928 -0.13603209 -0.080883004 -0.036024433 -0.0937782 -0.100332454 -0.078936726
-0.068035424 0.021230167 -0.19238853 -0.06449913 -0.083522364 -0.015417738 -0.063507296 0.03617747
-0.15795514 -0.10031491 0.0088148005 -0.0024909233 -0.07719465 -0.062328815 -0.08171379 -0.10069306
-0.002207212 -0.11847729 0.025918376 -0.13300227 -0.0009330924 -0.072989166 -0.13239652 -0.016143302
-0.014017246 -0.08991381 -0.013697585 -0.036972437 -0.04550208 -0.13542017 -0.060240395 0.03306043
-0.046594676 -0.10226165 -0.0042550177 -0.06519174 -0.12963268 -0.04039213 -0.037117984 -0.048305437
-0.11291431 -0.024073089 -0.16033928 -0.081070006 0.02198777 -0.030498493 -0.047794413 -0.14288734
-0.150493 -0.07948033 -0.076966986 -0.075664386 -0.08073768 -0.07059815 -0.011512114 -0.0031259146
-0.17184973 -0.012566621 0.04456586 -0.025173128 0.028851932 -0.036239516 -0.044519935 -0.031526994
-0.0054662074 -0.14288999 -0.036016744 -0.099880174 -0.07952996 -0.044383116 -0.042652782 0.016297977
-0.06843938 -0.08894075 -0.00020411049 0.0643228 -0.0044817 -0.17784205 -0.06396659 -0.14675795
00000000: 52d0 1ebc d31f 53bc 0e38 f0bd 6f36 b7bd
00000010: 7605 b1bd 9e5c 99bd 176c 19bd 567c 99bd
00000020: 9dab 28be a9ee 13be 4009 d3bd d088 dcbd
00000030: 7746 1c3c f840 bfbd 7c0e 04be f6de aabd
00000040: b266 e8bc 77fa 82bd 6489 f1bd 780d 0fbe
00000050: 82d3 cabd 7371 23be c2a7 f9bd a5f1 8ebd
00000060: 4819 adbd 5ae0 c5bd a45b 26bd 8844 b3bd
00000070: dfd0 fb3c 6904 04bd 2d26 0bbe e86e 40bd
00000080: 78fc 753c 7905 2dbd f633 03be e43d acbd
00000090: 75ab 0ebe d1eb 0abe 2379 83bd f4a0 083c
000000a0: bdbc c9bd d6cf dabd 0e1d 12be b8d7 b0bb
000000b0: 4e94 0ebd 6726 09be 0354 48be 7dee 01be
000000c0: 363e 27bc e75d 86bd 7eca 0dbe 1211 8dbd
000000d0: 4a96 2cbd 5407 8ebc 3b22 22be bd15 8abd
000000e0: fda6 0ebd 01df c1bd 6b6f b43c 45ca fc3c
000000f0: 2b8b 8a3a 9639 30be 02c7 0abc 27e5 61bd
00000100: 9e7c f1bd d181 78bd 856a 8abd eca3 0fbe
00000110: ea79 17be 4fa0 0abe bdb2 39be 997b c3bd
00000120: aaea 6ebd 37a2 82bd ad03 d1bd b6d2 02be
00000130: 17c9 04be 1cfc cfbc d26a cabd ace1 9bbd
00000140: 299d 37bc 345a 2cbe 746f 6fbd 0612 b9bd
00000150: cf66 e4bb dbb3 e5bd 80ae e1bc b75c 02be
00000160: cfd1 20be 37ce bfbc b353 f4bc 26bf f5bc
00000170: daa4 90bd f7d4 00be 160a 14be 7a6d 82bd
00000180: 68be 15be efd0 aabd 3aae d9bd 9792 62bd
00000190: ded8 18bd 4280 f2bd 88a7 2dbe ed9a 02bd
000001a0: a0db 6a3c 7745 0fbe ac62 e4bd 50e8 0a3d
000001b0: abd7 d2bb c6a5 09ba acad c4bd bbb8 24be
000001c0: a394 a4bd e55d e8bd 16ad 3fbe b392 d4bd
000001d0: 9625 31be d91e 8cba 07ed 7e3d 2bb7 a1bd
000001e0: 5257 9cbd 4137 38bd d955 7cbd 96a4 5abc
000001f0: a990 1abe 1936 07be 6ff8 ce3c 7740 22bc
00000200: 53c6 163d 0077 d8bd ebdc d7bd 55ea 7d3c
00000210: 9d9b 8ebd 3f24 743d 1f8d 0dbd 8e85 00be
00000220: f9f7 81bc 0544 05be eea0 19be 541a 07be
00000230: e08e 20bd 13f9 703c aa35 9bbd bb49 8cbd
00000240: 0afa 12bd d5bd b8bd 9029 28bd af80 babd
00000250: 56b8 38bd 940e 00be 5878 353c 8f54 94bd
00000260: cbd2 c5bd 74aa 643c c04a dbbc 1788 ccbd
00000270: d59d c7bc 8128 0fbe ff7c c33b 6fea 03be
00000280: e312 0cbe 4f1e 5ebd 1060 04be 589c 2abd
00000290: 1260 28bd 6311 6fbd d54b 94bb ee4c 933d
000002a0: 4463 04bd 5d2f cc3c ff4b 0bbe fda5 a5bd
000002b0: 5b8e 13bd c90e c0bd 1a7b cdbd 94a9 a1bd
000002c0: 2856 8bbd e3ea ad3c 8001 45be 1f18 84bd
000002d0: c60d abbd ae9a 7cbc 1d10 82bd d42e 143d
000002e0: febe 21be e771 cdbd f46b 103c c23e 23bb
000002f0: 3b18 9ebd 804c 7fbd 8f59 a7bd 2a38 cebd
00000300: dfa6 10bb 39a4 f2bd c652 d43c bf31 08be
00000310: c59a 74ba 587b 95bd f492 07be f53e 84bc
00000320: 97a8 65bc bb24 b8bd d66b 60bc 6970 17bd
00000330: 6460 3abd 96ab 0abe a2be 76bd 606a 073d
00000340: 0fda 3ebd 8e6e d1bd ad6d 8bbb 3f83 85bd
00000350: 6ebe 04be 3872 25bd 0709 18bd ecdb 45bd
00000360: 9e3f e7bd ed34 c5bc fb2f 24be 0808 a6bd
00000370: b21f b43c fad7 f9bc 13c4 43bd 0f51 12be
00000380: d61a 1abe 95c6 a2bd dea0 9dbd eef5 9abd
00000390: cc59 a5bd c395 90bd 4e9d 3cbc 25dc 4cbb
000003a0: 60f9 2fbe 3be4 4dbc b18a 363d e037 cebc
000003b0: e35a ec3c e36f 14bd 895a 36bd 7322 01bd
000003c0: df1d b3bb c151 12be 4b86 13bd fa8d ccbd
000003d0: 9be0 a2bd 12cb 35bd afb4 2ebd 5683 853c
000003e0: f229 8cbd 9126 b6bd 7e06 56b9 acbb 833d
000003f0: 39db 92bb 3a1c 36be ea00 83bd b747 16be

fc2.bias f4 [81]
-0.078283906 0.016913932 -0.12398045 -0.15347227 -0.010047183 -0.057537492 -0.0024492186 -0.006575878
-0.057363983 -0.17389749 -0.13735554 -0.14988048 -0.07850944 -0.071902916 -0.13949043 -0.12699012
-0.13638115 -0.05109806 -0.031347737 -0.07057961 -0.10306326 0.011485169 0.099623114 -0.054237857
-0.016798707 -0.0005856407 -0.14464198 -0.011958202 -0.06527085 0.019391352 0.007820976 0.015573693
-0.07669082 0.049949624 0.03152573 -0.08402494 0.008974696 -0.013216243 -0.034646552 -0.022386573
0.14998467 0.0006046168 -0.008553724 0.07765237 -0.023185031 -0.10997059 -0.005954115 0.00157147
0.073617935 0.07709979 0.039019655 -0.048581492 -0.008842897 -0.03348567 -0.026964674 -0.11662852
-0.04239027 0.02497157 0.09922074 -0.01808728 -0.080273874 -0.06938933 -0.16533194 -0.11044752
-0.12047668 -0.030800292 -0.09771575 -0.012726719 0.025050612 0.0099823065 -0.07006626 -0.13373502
-0.07190759 -0.061645664 -0.0758542 0.0084751705 -0.114101514 -0.041717585 -0.08085595 -0.08077742
-0.0758007
00000000: 5053 a0bd 168f 8a3c 76e9 fdbd d627 1dbe
00000010: f19c 24bc 6fac 6bbd 1283 20bb 767a d7bb
00000020: 7ff6 6abd 2f12 32be eea6 0cbe 457a 19be
00000030: 8fc9 a0bd d641 93bd 94d6 0ebe b309 02be
00000040: 80a7 0bbe 334c 51bd 7c66 00bd 0b8c 90bd
00000050: d512 d3bd 4a2c 3c3c 3407 cc3d 8428 5ebd
00000060: 719d 89bc af85 19ba 071d 14be 56ec 43bc
00000070: b9ac 85bd 9dda 9e3c 8d23 003c ce28 7f3c
00000080: 1410 9dbd fa97 4c3d 2021 013d 4515 acbd
00000090: 9a0a 133c f188 58bc 8be9 0dbd 0c64 b7bc
000000a0: 9595 193e 267f 1e3a eb24 0cbc 3508 9f3d
000000b0: 89ee bdbc 4338 e1bd bd1a c3bb c9f9 cd3a
000000c0: 00c5 963d 7fe6 9d3d 13d3 1f3d 63fd 46bd
000000d0: cce1 10bc 4528 09bd 05e5 dcbc efda eebd
000000e0: 6ba1 2dbd 2e91 cc3c 3e34 cb3d c72b 94bc
000000f0: a166 a4bd fe1b 8ebd c74c 29be 4f32 e2bd
00000100: 7abc f6bd e550 fcbc 321f c8bd ba83 50bc
00000110: f136 cd3c d48c 233c e67e 8fbd d5f1 08be
00000120: 4944 93bd 2a80 7cbd 7259 9bbd 71db 0a3c
00000130: 0eae e9bd 0fe0 2abd ce97 a5bd a26e a5bd
00000140: 663d 9bbd
