policy_agent_trained2025_01_31_05_16_04.pth (torch, 86160 bytes, 4 tensors)

fc1.weight f4 [128, 81]
0	0x3d25c200	0.040468216
1	0x3d4ffbc8	0.050777227
2	0xbd71980a	-0.058982886
3	0xbd033490	-0.03203255
4	0x3de57c04	0.11205295
5	0xbd703844	-0.05864741
6	0xbd04af0d	-0.032393504
7	0xbca17e0b	-0.019713422
8	0xbcbf55db	-0.023356369
9	0x3c89aa55	0.016804853
10	0xbc74e756	-0.014947733
11	0xbd006c20	-0.031353116
12	0xbde04634	-0.1095089
13	0x3d518c0f	0.05115896
14	0x3d0190b8	0.031632155
15	0x3c62b7b5	0.0138377445
16	0x3deee0f3	0.116639994
17	0x3ce4e7b3	0.027942514
18	0x3b81dc58	0.0039630346
19	0xbd844b0f	-0.06459629
20	0x3e2b30b4	0.16717798
21	0x3de0b134	0.10971299
22	0x3b7f7c22	0.00389839
23	0xbdf498e4	-0.11943224
24	0xbc3218e5	-0.010870193
25	0x3dd7b4c2	0.10532524
26	0xbcbd0dd8	-0.02307789
27	0x3dd69f16	0.10479562
28	0xb9a90a5c	-0.0003224191
29	0xbce9f2f7	-0.028558237
30	0xbe25ff29	-0.16210617
31	0xbc9dd6d8	-0.019267485
32	0x3dbf1caf	0.09331643
33	0x3b8c1211	0.0042746146
34	0x3d68f674	0.05687566
35	0xbda9acfa	-0.08284946
36	0x3d67333f	0.056445356
37	0xbd57bb23	-0.0526687
38	0x3e0f7c2a	0.14012209
39	0xbcc98791	-0.024600776
40	0x3ee4a77e	0.44659036
41	0xbe2624bd	-0.16224952
42	0xbe56792d	-0.20944662
43	0xbd30f336	-0.043200694
44	0xbd3b3643	-0.045706045
45	0xbc642553	-0.013924914
46	0x3d624285	0.05523922
47	0xbd07c29f	-0.03314459
48	0xbe041915	-0.12900193
49	0xbe05d595	-0.13069756
50	0xbe6aecc3	-0.2294188
51	0xbd20d892	-0.039269038
52	0xbe5ff798	-0.21871793
53	0xbe2a2264	-0.16614681
54	0x3d99a692	0.07502474
55	0x3c857bc1	0.016294362
56	0x3d9975d2	0.074931756
57	0x3cc0e396	0.023546021
58	0xbec4af41	-0.38414958
59	0xbf1dc4f0	-0.6162863
60	0xbf14b7f5	-0.58093196
61	0xbecb646d	-0.39725056
62	0xbe365bc0	-0.17808437
63	0x3d05f147	0.032700803
64	0x3d183cb2	0.03716726
65	0xbcaa38e5	-0.020779083
66	0xbdb5f2da	-0.08884211
67	0xbe8d20b4	-0.27564013
68	0xbeb3cbe8	-0.35116506
69	0xbe33cb84	-0.17558104
70	0xbe81f76b	-0.25384077
71	0xbe10a72f	-0.14126275
72	0xbbecd3ed	-0.007227412
73	0xbd02ee71	-0.031965677
74	0xbd941337	-0.072302274
75	0xbda51ea9	-0.080624886
76	0xbe222aab	-0.15836589
77	0xbe38585c	-0.18002456
78	0xbcb402a6	-0.02197392
79	0xbd430496	-0.047611795
80	0xbd3c2e01	-0.04594231
81	0xbbce6d8c	-0.00629968
82	0xbdd5d7e4	-0.104415685
83	0xbe943f9a	-0.28954774
84	0xbddbdc95	-0.10735432
85	0x3c678cf2	0.014132725
86	0xbe1611ae	-0.14655182
87	0xbe2b27ef	-0.16714452
88	0x3dd7b549	0.10532624
89	0xbe0c2d59	-0.13689174
90	0xbdd3e151	-0.1034571
91	0xbdc49470	-0.09598625
92	0xbe672faf	-0.22576784
93	0xbe54912f	-0.20758508
94	0xbcc65294	-0.024209298
95	0x3e1ee809	0.15518202
96	0xbde8081c	-0.11329672
97	0xbd79f994	-0.061029032
98	0xbdfd7db6	-0.12377493
99	0xbe0bce43	-0.13652901
100	0xbd1badee	-0.03800767
101	0xbe570bd5	-0.21000607
102	0x3c65785a	0.014005745
103	0x3d5270de	0.05137717
104	0x3e38da6d	0.18052073
105	0xbd890af4	-0.06691542
106	0xbd30d72e	-0.04317396
107	0x3de98438	0.11402172
108	0xbc364d55	-0.011126836
109	0x3dd16c9e	0.10225795
110	0xbe34725a	-0.17621747
111	0xbd250abc	-0.04029344
112	0xbd5b5a8c	-0.05355315
113	0x3d18d2fa	0.037310578
114	0x3e35e9e0	0.17764997
115	0x3cd97e96	0.026549619
116	0x3dda391d	0.10655425
117	0xbb3c5d28	-0.002874205
118	0x3d069272	0.032854505
119	0x3ba29843	0.0049619987
120	0x3e17cdf2	0.14824656
121	0x3ed46810	0.41485643
122	0x3d26f900	0.04076481
123	0xbd1d0b8a	-0.038341083
124	0xbd4efba3	-0.05053295
125	0xbd7f2654	-0.062292412
126	0xbe2a6a62	-0.16642144
127	0xbed87d7f	-0.42283246
128	0xbdccfc78	-0.10009092
129	0x3e13035a	0.14356747
130	0x3db95146	0.09048705
131	0x3d6d6ce2	0.057965167
132	0x3e2e6df5	0.17034133
133	0xbbd23a4b	-0.0064156405
134	0x3d30b6ef	0.04314321
135	0xbc8060ba	-0.015671123
136	0xbe5943e3	-0.21217303
137	0xbd4c0bbb	-0.049815875
138	0xbdf82e8b	-0.12118252
139	0xbdbb35f2	-0.091411486
140	0xbd8037e2	-0.06260659
141	0xbd4cbfc1	-0.04998756
142	0xbe2c4990	-0.16824937
143	0xbda89582	-0.08231641
144	0xbdd199c4	-0.102344066
145	0xbeb6ad40	-0.35679054
146	0xbeb0e649	-0.34550694
147	0xbe548537	-0.20753942
148	0xbea326d0	-0.3186555
149	0xbeecf578	-0.46281028
150	0xbed127a2	-0.4085055
151	0xbeb6838a	-0.3564723
152	0xbe6d1e0c	-0.23155993
153	0xbdc80890	-0.09767258
154	0xbdf6cb1c	-0.12050459
155	0xbcc41b55	-0.023938814
156	0xbdb668ec	-0.08906731
157	0xbd53bf4d	-0.05169611
158	0xbe853835	-0.26019445
159	0xbe6e08a4	-0.23245484
160	0xbd676b67	-0.05649891
161	0xbde451da	-0.111484244
162	0xbe14d89a	-0.14535752
163	0x3e5f07ba	0.21780291
164	0xbd95a3b1	-0.07306612
165	0x3e0dfd0e	0.13866064
166	0x3d8a18e8	0.06743032
167	0xbe0a4cd4	-0.1350587
168	0x3d37db9a	0.044887163
169	0x3e0a6268	0.13514102
170	0x3db95d4b	0.09050997
171	0xbd886852	-0.066605225
172	0xbc255d13	-0.010092991
173	0xbe9daf4e	-0.3079781
174	0x3db20a57	0.086933784
175	0xbe38c916	-0.18045458
176	0xbd850b30	-0.064962745
177	0xbe3a360b	-0.18184678
178	0x3bdf6c37	0.00681832
179	0xbde4936d	-0.11160932
180	0x3dda34d6	0.10654609
181	0x3d785f8d	0.060638
182	0x3e51f61b	0.20504038
183	0x3e7805c4	0.2422095
184	0xbe1cd419	-0.15315284
185	0xbe0f349a	-0.1398491
186	0xbe49a7fb	-0.19692986
187	0x3e5b39c5	0.21408756
188	0xbd8f9a05	-0.07011799
189	0xbc94f782	-0.018184427
190	0x3d9f0d38	0.07766193
191	0x3d4b7d56	0.049680077
192	0xbcc3baaf	-0.023892729
193	0x3e18c4a3	0.14918761
194	0x3ea745d5	0.32670465
195	0xbc86e1fb	-0.016465178
196	0x3dde8487	0.10865121
197	0xbe0030b6	-0.12518582
198	0xbe0e439b	-0.13892977
199	0x3de54808	0.111953795
200	0xbd4e2767	-0.050330546
201	0x3e08a6cf	0.13344882
202	0x3ec4aa52	0.38411194
203	0x3d8cb6ab	0.06870779
204	0xbdc646c3	-0.096814655
205	0xbd0b288e	-0.033974223
206	0x3cfcdcdd	0.030867035
207	0xbdcbfbf9	-0.09960169
208	0x3ca35329	0.019937115
209	0xbe897e4a	-0.26854163
210	0xbc44c918	-0.012010835
211	0x3e6f4087	0.23364459
212	0xbda2bee1	-0.079465635
213	0xbddab7d8	-0.10679597
214	0x3e3d1691	0.1846564
215	0x3d43501e	0.047683828
216	0x3ce03f24	0.027373858
217	0xbce93010	-0.0284653
218	0xbe42061d	-0.18947645
219	0x3c3cb2c5	0.011517231
220	0xbdc4964f	-0.095989816
221	0x3e2a9dbc	0.16661733
222	0x3cb046ca	0.02151813
223	0x3e822e1a	0.25425798
224	0xbd6e12f4	-0.058123544
225	0x3d7a6bec	0.06113808
226	0xbd87b0bf	-0.066255085
227	0xbe990607	-0.2988741
228	0x3e5301a1	0.2060609
229	0x3dd514ce	0.10404359
230	0x3d9c0649	0.07618386
231	0xbcab96f0	-0.020945996
232	0xbe576601	-0.21035005
233	0xbe36b2f3	-0.17841701
234	0x3e24f553	0.16109209
235	0xbc3cbc41	-0.011519493
236	0xbd5b1744	-0.053488985
237	0xbde115a2	-0.10990454
238	0xbd3d1738	-0.04616472
239	0xbd600e12	-0.05470092
240	0xbcf0e422	-0.029405657
241	0x3e32bd50	0.1745503
242	0xbbd50659	-0.006501001
243	0x3cc2f2cd	0.023797417
244	0xbe1e7de8	-0.15477717
245	0xbd38f8c1	-0.045159105
246	0xbe06b84c	-0.13156241
247	0xbdaf5419	-0.08560962
248	0xbd914df2	-0.07094945
249	0xbd2705f2	-0.040777154
250	0xbc31bb72	-0.010847913
251	0xbd5e98fc	-0.054345116
252	0xbcd585f3	-0.026064849
253	0xbe22e574	-0.15907842
254	0xbe34f2aa	-0.17670694
255	0xbe20aa4e	-0.15689966

fc1.bias f4 [128]
0	0x3f0db748	0.5535779
1	0x3c335c8c	0.010947358
2	0x3b6f58c0	0.0036521405
3	0x3f016895	0.50550205
4	0x3c3c0637	0.011476091
5	0x3cc67351	0.024224909
6	0x3ef79251	0.48353818
7	0x3d289f24	0.041167393
8	0x3ed7a764	0.42119896
9	0xbac586ad	-0.0015070044
10	0x3bfe2fe8	0.0077571757
11	0x3c8ea7b7	0.017413957
12	0x3c93f718	0.01806216
13	0x3eede071	0.46460298
14	0x3eeb752e	0.45987839
15	0x3f2ea0fb	0.68214387
16	0x3f0e2d6e	0.5553807
17	0x3f0a944c	0.54132533
18	0x3caa882f	0.02081689
19	0x3c8b0b49	0.016973155
20	0x3ef5cffa	0.48010236
21	0x3922aeba	0.00015514615
22	0x3cd36b3d	0.025807971
23	0xbd1e4335	-0.038638312
24	0x3d84391b	0.064562045
25	0x3eeda935	0.46418157
26	0x3f1031bd	0.56325895
27	0x3cc6ee01	0.024283411
28	0x3f18a2e0	0.5962353
29	0x3ce43a1c	0.02785974
30	0x3b0fa821	0.002192028
31	0x3eecdde7	0.46263048
32	0x3b8e3391	0.0043396433
33	0x3ed2797f	0.4110832
34	0x3d0915fb	0.033468228
35	0x3f30f0df	0.6911754
36	0x3b9c3ae1	0.004767761
37	0x3c83075a	0.015994716
38	0x3cbc8270	0.023011416
39	0x3cec8a37	0.0288745
40	0x3cd9e614	0.026598968
41	0x3ee70282	0.451191
42	0x3f07369f	0.5281772
43	0x3e20f0d4	0.15716869
44	0x3ce10a06	0.0274706
45	0x3c98d13b	0.018654456
46	0x3d135776	0.03597208
47	0x3f0f53c2	0.5598718
48	0x3c706a52	0.014673786
49	0x3ef0ce9a	0.47032624
50	0x3b8ea6cb	0.0043533794
51	0x3efea1bb	0.49732766
52	0x3edfd823	0.43719587
53	0x3ef6a630	0.48173666
54	0x3ca54856	0.020176094
55	0x3d4ed375	0.05049463
56	0x3cb2e1e1	0.021836223
57	0x3c6e8448	0.0145579055
58	0xbb058905	-0.002037586
59	0x3e921319	0.28530195
60	0x3ee79180	0.45228195
61	0x3eeaba76	0.45845383
62	0x3cfe342d	0.031030739
63	0x3e35d41e	0.17756698
64	0x3f088a16	0.533357
65	0x3f0a99b3	0.54140776
66	0x3d3f89f9	0.04676244
67	0x3ed2163c	0.41032588
68	0x3ec7cfe7	0.39025804
69	0x3f181753	0.5941059
70	0x3ef53b31	0.47896722
71	0x3ef82385	0.484646
72	0x3f3b5ae0	0.7318554
73	0x3c952080	0.018203974
74	0x3a1cbdd2	0.0005979213
75	0x3cc4f84c	0.024044178
76	0x3ede58da	0.43427163
77	0x3c1f13b7	0.00970929
78	0x3f016534	0.5054505
79	0x3cc00528	0.023439959
80	0x3ef306b8	0.47466063
81	0x3cb6fa2e	0.022336092
82	0x3c0538f9	0.008131259
83	0x3cf9a52e	0.030474272
84	0x3ec89bf3	0.3918148
85	0x3c9784e5	0.018495986
86	0x3cf3207e	0.02967858
87	0x3eda4047	0.42627165
88	0x3c84b346	0.016198765
89	0xba4f62cb	-0.00079111446
90	0x3ef31283	0.4747506
91	0x3e3b9542	0.18318656
92	0x3cd32811	0.025775941
93	0x3ed9fdc4	0.4257642
94	0x3edb39a5	0.42817417
95	0x3cbcfa8c	0.023068689
96	0x3ecfd5d4	0.40592825
97	0x3c3765ea	0.011193732
98	0x3ec10240	0.3769703
99	0x3d30c4da	0.043156482
100	0x3ed3d309	0.41371945
101	0x3cd18159	0.025574373
102	0x3f43a285	0.7641986
103	0x3ee64be0	0.44979763
104	0x3c73e91d	0.0148871215
105	0x3f040e50	0.5158434
106	0x3ee6638c	0.44997823
107	0x3f1013ba	0.562801
108	0x3ecd2cf1	0.4007335
109	0x3ef4266b	0.4768556
110	0x3cbded46	0.02318443
111	0x3ce1ab65	0.027547548
112	0x3ef8744f	0.48526236
113	0x3ac71a08	0.0015190253
114	0x3ef94ad8	0.48689914
115	0x3de17b97	0.11009901
116	0x3f26b452	0.65118897
117	0x3ccc9ad1	0.024976166
118	0x3d17da17	0.03707322
119	0x3f08b9b3	0.53408355
120	0x3caf85f8	0.021426186
121	0x3f0286ce	0.50986946
122	0xbb986a50	-0.0046513453
123	0xb93f21f4	-0.00018227828
124	0x3f2022da	0.6255318
125	0x3d077aff	0.033076283
126	0x3d0b174c	0.033957765
127	0x3e1d997b	0.1539058

fc2.weight f4 [81, 128]
0	0xbce5459c	-0.027987294
1	0xbeacf717	-0.33782265
2	0x3ddd745b	0.10813209
3	0xbe5372fb	-0.2064933
4	0x3dd68874	0.10475245
5	0xbd68d31e	-0.056841962
6	0xbf833bb1	-1.0252591
7	0x3e5ed330	0.21760249
8	0x3e542ada	0.20719472
9	0xbd1b52a9	-0.037920628
10	0x3e166bae	0.14689514
11	0xbe8b0e4b	-0.27159342
12	0x3ca0881b	0.01959615
13	0xbd98f472	-0.07468499
14	0xbe0e8623	-0.13918357
15	0xbea964bd	-0.3308467
16	0xbca1ffc6	-0.019775283
17	0x3dc5d3eb	0.09659561
18	0x3e3177ab	0.17330806
19	0xbc2f3c3e	-0.010695515
20	0xba5ef12e	-0.00085045665
21	0x3d98ab46	0.07454543
22	0xbe1ea5d7	-0.1549295
23	0x3e2e5368	0.17024004
24	0xbee75647	-0.45183012
25	0xbce91da5	-0.028456518
26	0xbf2d8583	-0.6778185
27	0xbe00d9d6	-0.12583098
28	0xbdc08e11	-0.09402097
29	0xbde74d4d	-0.11294041
30	0xbbed1b14	-0.007235894
31	0x3e0c84d5	0.13722546
32	0x3e0b6b2b	0.136151
33	0xbed89a9d	-0.4230546
34	0x3e117af4	0.14207059
35	0x3c9b6f7e	0.018974062
36	0xbdb56547	-0.08857208
37	0x3d5bbe86	0.053648494
38	0x3de778ec	0.11302361
39	0xbe0b1162	-0.1358085
40	0xbe2b7706	-0.16744623
41	0xbd3bc919	-0.04584608
42	0xbd8e5418	-0.06949633
43	0x3d3295e8	0.043599993
44	0xbe9e7e32	-0.30955654
45	0x3d70b35d	0.058764804
46	0x3d982bba	0.07430215
47	0xbf0e7c50	-0.55658436
48	0xbc602c25	-0.0136824
49	0x3dec840f	0.11548626
50	0x3dc54aaa	0.09633382
51	0xbe4e13c9	-0.20124735
52	0xbf126a62	-0.5719358
53	0xbe31903e	-0.1734018
54	0xbdce009b	-0.10058709
55	0xbec3d9c9	-0.38252094
56	0xbbbbd3d0	-0.005732037
57	0xbe7350e8	-0.23761332
58	0x3dee7cf4	0.11644927
59	0xbd5d9618	-0.05409822
60	0xbe876282	-0.26442343
61	0xbe91c5a6	-0.28471106
62	0xbe24f316	-0.16108355
63	0xbe91a792	-0.28448159
64	0xbe6a9b67	-0.22910844
65	0xbde3a16e	-0.11114775
66	0xbd326850	-0.04355651
67	0x3dfe8a5d	0.124287345
68	0xbde17a73	-0.110096835
69	0xbec90f32	-0.39269406
70	0xbdc6329f	-0.09677624
71	0xbcc10d9e	-0.023566063
72	0xbebbd21e	-0.36683744
73	0x3daa6244	0.08319524
74	0xbe19c8ca	-0.15018001
75	0xbd8177ca	-0.06321676
76	0xbe1e490f	-0.15457557
77	0x3b4192f4	0.0029537054
78	0x3def1582	0.11674024
79	0x3de02319	0.10944194
80	0xbdb6ff50	-0.08935416
81	0xbd39c717	-0.045355882
82	0x3ddd5b9f	0.10808491
83	0xbdc835f1	-0.097759135
84	0xbe1c7aa7	-0.15281163
85	0x3d41ddd1	0.04733068
86	0xbd837c05	-0.06420139
87	0xbdb716d7	-0.08939903
88	0xbdd86ced	-0.10567651
89	0x3dd0f6fd	0.10203359
90	0xbd3af57f	-0.04564428
91	0xbdc82459	-0.09772558
92	0xbd8440c1	-0.06457663
93	0xbe582ac6	-0.21110067
94	0xbc78a884	-0.015176896
95	0x3dc24de0	0.0948751
96	0xbe7d1103	-0.2471352
97	0xbd9dd0c5	-0.07705835
98	0xbd19b981	-0.037530426
99	0xbe0be5e6	-0.13661918
100	0xbd80fece	-0.062986
101	0x3e201842	0.15634254
102	0x3de54880	0.11195469
103	0xbbd6dc24	-0.0065570045
104	0xbdca59a8	-0.09880382
105	0xbda2163e	-0.079143986
106	0xbe137e19	-0.14403571
107	0xbebee2fb	-0.37282547
108	0xbe2abc27	-0.16673337
109	0xbe78f67d	-0.24312778
110	0x3dc0c2ea	0.09412177
111	0x3e0bd2fd	0.13654704
112	0xbdcbf4ff	-0.09958839
113	0xbd76ea69	-0.060282145
114	0xbda99666	-0.08280639
115	0xbe504b48	-0.20341218
116	0xbef221b0	-0.47291327
117	0xbe657f1e	-0.22411773
118	0x3d515bd0	0.05111295
119	0x3e197273	0.14985065
120	0x3d30b497	0.043140974
121	0xbe019cd7	-0.12657486
122	0xbe8f2c93	-0.27963695
123	0x3dd1a1ec	0.10235962
124	0xbe3f81a7	-0.18701802
125	0x3da5843d	0.08081863
126	0x3c481c94	0.012213845
127	0xbd589d2b	-0.052884262
128	0xbd1923aa	-0.037387528
129	0xbe971813	-0.29510555
130	0xbe63bee4	-0.22240788
131	0xbe8d9ad6	-0.27657193
132	0x3e1f2126	0.15539989
133	0x3dab5a20	0.08366799
134	0xbf88f606	-1.070008
135	0xbcd36bf5	-0.025808314
136	0x3acddc56	0.0015705924
137	0xbe0b5538	-0.13606727
138	0x3da2c2e7	0.07947331
139	0xbdd1ddc3	-0.10247376
140	0x3ccc5e3c	0.024947278
141	0xbdc84827	-0.09779387
142	0xbe776895	-0.24160989
143	0xbec0c6ca	-0.37651664
144	0xbde90ff4	-0.11379996
145	0xbd31fbec	-0.043453142
146	0x3c79f42d	0.01525597
147	0x3d8dc6f3	0.06922712
148	0x3e095c6c	0.13414162
149	0x3ccfb299	0.025353717
150	0xbdb039d8	-0.08604783
151	0x3cb25132	0.021767233
152	0xbf09f0b3	-0.538829
153	0x3dffd44f	0.124916665
154	0xbf0dea08	-0.5543523
155	0xbe07b9c2	-0.13254455
156	0xbe136878	-0.1439532
157	0xbd3916f4	-0.045187905
158	0xbd900be8	-0.07033521
159	0xbd059535	-0.032612998
160	0x3cbf1d18	0.023329303
161	0xbecbafd4	-0.39782584
162	0xbd59a9d2	-0.05314047
163	0xb83ae08a	-4.4554974e-05
164	0x3de2aee2	0.110685125
165	0x3dfd0e9c	0.12356302
166	0x3cf52dc1	0.029929044
167	0x3ceb321e	0.028710421
168	0xbe03bd4e	-0.12865183
169	0xbe2963c3	-0.16541962
170	0x3da12587	0.07868486
171	0x3da3889d	0.07985041
172	0xbebe0262	-0.37111193
173	0x3c93bafe	0.0180335
174	0x3dd7bd03	0.10534098
175	0xbe334137	-0.17505346
176	0x3d63481b	0.055488687
177	0xbd555771	-0.052085344
178	0x3d96be69	0.073605366
179	0xbe75df4d	-0.24010964
180	0xbe90fcee	-0.2831797
181	0xbe2ab3d3	-0.1667016
182	0xbd929fde	-0.071593985
183	0xbe738758	-0.23782098
184	0x3df50d85	0.11965469
185	0xbd8d8c2c	-0.06911501
186	0xbd51c25d	-0.05121075
187	0x3da521b3	0.08063068
188	0x3ca44f75	0.02005742
189	0xbeb8aa4a	-0.3606742
190	0xbe49c6c8	-0.19704735
191	0xbeedb5c3	-0.46427736
192	0xbe63cd7b	-0.22246353
193	0xbdd0deef	-0.10198771
194	0xbd8041c0	-0.06262541
195	0xbe475cd6	-0.19469008
196	0xbe3879aa	-0.18015161
197	0xbe026e18	-0.1273731
198	0xbdb7bf52	-0.08972038
199	0xbc37d4b6	-0.011220148
200	0xbf066d4a	-0.5251051
201	0x3de6df93	0.11273112
202	0xbd0b7bf8	-0.034053773
203	0x3dc7e291	0.09760011
204	0xbdb865b9	-0.09003777
205	0x3d7fb237	0.06242582
206	0x3db16206	0.086612746
207	0x3d417927	0.04723468
208	0xbe94829b	-0.29005894
209	0xbd911e55	-0.070858635
210	0x3e32232d	0.17396231
211	0xbdb8bde0	-0.09020591
212	0xbd448f19	-0.04798803
213	0x3d191510	0.037373602
214	0x3d5fc500	0.054631233
215	0xbd894f88	-0.067046225
216	0x3d85d565	0.065348424
217	0x3da7ddfa	0.081966355
218	0xbd036232	-0.03207607
219	0x3e3a1e78	0.18175685
220	0xbd23edb2	-0.040021606
221	0xbd5946f0	-0.053046167
222	0xbe2afa2d	-0.16696997
223	0x3d59c614	0.053167418
224	0xbe098e93	-0.13433294
225	0x3ca8998e	0.020581033
226	0xbd0cf401	-0.034412388
227	0xbdffe1a7	-0.12494212
228	0x3d9920fc	0.074769944
229	0x3d2dfc4d	0.04247694
230	0x3e23951c	0.1597485
231	0xbb7c2583	-0.0038474507
232	0xbcb20876	-0.02173255
233	0xbd96d78c	-0.07365331
234	0xbd790771	-0.060798112
235	0xbed48d51	-0.41514066
236	0xbeaef777	-0.34173176
237	0x3c8af353	0.01696173
238	0x3db5f562	0.08884694
239	0x3dce69bd	0.10078762
240	0xbdf93e0e	-0.12170039
241	0x3d5da0d7	0.054108467
242	0xbd98ea2f	-0.07466542
243	0xbda7b185	-0.08188156
244	0xbf6746c4	-0.90342355
245	0x3e2b8c9d	0.16752858
246	0xbe05fac5	-0.13083942
247	0x3da38bb8	0.079856336
248	0xbc14ec62	-0.009089561
249	0x3d40106e	0.04689067
250	0xbe7f3eb2	-0.2492626
251	0xbce37479	-0.0277655
252	0xbe8f4b60	-0.27987194
253	0xbd97afed	-0.07406602
254	0x3e3e4bac	0.18583554
255	0xbd821797	-0.06352156

fc2.bias f4 [81]
0	0xbd0e9184	-0.034806743
1	0xbc97cf9e	-0.018531617
2	0xbd074ba7	-0.033031132
3	0xbcf79073	-0.030220246
4	0xbd95ea75	-0.0732011
5	0x3cf66075	0.030075291
6	0xbdb2c417	-0.087288074
7	0xbd8553ae	-0.06510101
8	0xbe26b36f	-0.16279386
9	0x3d0fc1ba	0.03509686
10	0xbd7385a3	-0.059453618
11	0x3ca2e264	0.019883342
12	0xbe0880ed	-0.13330431
13	0xbd7567ec	-0.05991356
14	0xbc91b0f0	-0.017784566
15	0xbdeebaef	-0.116567485
16	0xbdc5860a	-0.096447065
17	0xbe0cd5f8	-0.13753498
18	0xbcf669f3	-0.030079817
19	0xbde71b11	-0.112844594
20	0xbd137d37	-0.036008086
21	0xbd4712e9	-0.04860202
22	0x3d03a177	0.032136407
23	0x3d756879	0.059914086
24	0x3cb35408	0.021890655
25	0xbd3e6c77	-0.04649016
26	0xbdc8f422	-0.0981219
27	0xbd9a38ee	-0.0753039
28	0xbdf12c3a	-0.11776014
29	0xbcac4f71	-0.021033974
30	0xbd1c8592	-0.03821332
31	0x3caddf5b	0.021224668
32	0x3d8df92d	0.06932292
33	0xbd46ce59	-0.048536632
34	0xbd248980	-0.040170193
35	0xbe0d0e38	-0.13774955
36	0xbd2c14ee	-0.042012148
37	0x3c84789d	0.016170794
38	0xbd7ec74c	-0.062201783
39	0x3dee0798	0.11622542
40	0x3e4d5bc9	0.20054545
41	0x3dbff2b9	0.093724675
42	0xbda9357f	-0.08262157
43	0xbdb7ee04	-0.08980945
44	0xbda4e0b6	-0.08050673
45	0xbda54771	-0.08070267
46	0xbdf21453	-0.11820283
47	0xbd4d7564	-0.05016078
48	0xbb2bcd50	-0.0026214905
49	0xbc87f168	-0.016594604
50	0x3d2901d9	0.041261528
51	0xbc4c5edc	-0.012473788
52	0xbd55d400	-0.052204132
53	0xbe1f9898	-0.15585554
54	0x3c857b2d	0.016294086
55	0x3c6e7a5b	0.014555539
56	0xbdcfb904	-0.10142711
57	0x3dad8c9d	0.084740855
58	0x3c77986c	0.015112024
59	0x3d22c380	0.039737225
60	0xbdce4ead	-0.100736
61	0xbdcf84f1	-0.101327784
62	0x3bdd6bf2	0.006757253
63	0xbd9406a9	-0.07227833
64	0xbdc4e9d2	-0.0961491
65	0xbe1f03ed	-0.15528841
66	0xbe0ee886	-0.13955888
67	0xbdca9f26	-0.098936364
68	0x3bc62652	0.0060470486
69	0xbe2267a2	-0.15859845
70	0xbd34f262	-0.044176467
71	0xbd6d18ab	-0.057884853
72	0xbd562bea	-0.052287973
73	0xbe0a3947	-0.13498412
74	0xbe0542b2	-0.13013723
75	0xbda16c6b	-0.07882007
76	0x3c7599c4	0.014990274
77	0xbda5651d	-0.080759265
78	0x3cea703c	0.02861797
79	0xbe0d66e7	-0.13808785
80	0xbddb1d0f	-0.10698902
