policy_agent_white.pth (torch, 85928 bytes, 4 tensors)

fc1.weight f4 [128, 81]
000000 88 cb 2d bb 01 03 64 ba 30 4e e9 3d 8c 49 82 3d
       -0.002651902 -0.00086979574 0.11391866 0.06361684
000010 43 bf b4 bd ca 04 e2 bb 89 aa ac 38 f5 e5 48 bd
       -0.08825543 -0.0068975436 8.233364e-05 -0.04904743
000020 b0 32 ad 3c f2 a4 d3 3c f1 e6 8c 3c 5a 41 2b bd
       0.021142334 0.025835488 0.017199965 -0.04181037
000030 5b 8e 70 3d d3 9a 4c bd 22 dc 49 3d 05 6b 46 bd
       0.05872951 -0.04995234 0.0492822 -0.048441906
000040 f2 b0 78 bd 3b d5 3b bc 3d 91 ac 3b 40 f7 06 be
       -0.060715623 -0.011464412 0.005266337 -0.13180256
000050 9a 7d 0a be b2 8e 9e 3d 06 87 63 3e d7 8e b3 3d
       -0.13524476 0.07742061 0.22219476 0.08767479
000060 d0 d6 f8 bd 40 2b 84 3c 0d 0a 16 3e 43 3b 11 3d
       -0.12150347 0.016133904 0.14652272 0.035456907
000070 bd b6 1d bd 87 1c e7 3d 73 c1 45 bd b0 31 a5 bd
       -0.03850435 0.11284738 -0.04828019 -0.08066118
000080 fe 90 8c 3c 53 18 d4 3b b4 84 d7 3c cd 84 0a 3c
       0.017158981 0.0064726262 0.026308395 0.008454514
000090 ff ee 56 3d ba f1 f8 3d f1 4d a8 3e dd 3e 12 3d
       0.05247402 0.12155481 0.32871965 0.035704482
0000a0 c6 3f 30 bd 94 50 bb 3c 9f c6 47 3e b0 9c 18 bd
       -0.04302957 0.022865571 0.19509362 -0.037258804
0000b0 83 a0 93 bd c1 6f 4f 3d 3c 1e 37 bd 03 f4 7a bd
       -0.072083496 0.050643686 -0.044706568 -0.061267864
0000c0 b1 51 0c bd 70 81 00 3e 1a dc ca bd 7a 38 15 3e
       -0.034257594 0.12549376 -0.09905262 0.14572325
0000d0 6a 6d 28 3d fb 23 d4 3d e1 7f 8a 3d b9 d4 86 bd
       0.04111997 0.10358425 0.06762672 -0.065835424
0000e0 cb 23 a1 3d 60 68 9f 3b 99 a1 b0 bc 55 75 57 bc
       0.07868155 0.0048647374 -0.02156143 -0.013150533
0000f0 a2 ea ee 3d c4 c1 0e 3d 5b 1a 0a 3e 3d f2 e7 3a
       0.116658464 0.034852758 0.13486616 0.0017696094
000100 a7 66 ac bd 8d eb 59 3d 4b 86 ce 3d 85 f3 04 3d
       -0.08418017 0.053203154 0.10084208 0.0324588
000110 c0 12 b4 bb 11 55 31 3a 6c 02 c0 3d 27 3c 8d bd
       -0.0054953992 0.000676469 0.09375462 -0.06896239
000120 be 98 6c 3c 30 16 8e 3d b5 11 f5 3d 88 67 f2 3b
       0.014440713 0.06937826 0.11966268 0.007397596
000130 29 ee 86 3d ee 8a 22 3d a2 1c f8 bd 11 7d 85 3c
       0.06588394 0.039683275 -0.12114836 0.016294988
000140 b5 8a b0 bd 5c 81 4d bc 61 0d 94 3d 85 62 ee 3d
       -0.08620206 -0.012543049 0.07229114 0.11639885
000150 4c 44 06 3e 5d c6 b9 3c 7d 63 8d bd b7 4c 03 3e
       0.1311199 0.022677595 -0.069037415 0.12822233
000160 60 e8 41 3d 5e 82 b0 3d 27 92 32 3d 5b 64 fa 3d
       0.04734075 0.086186156 0.043596413 0.122261725
000170 06 4e 93 3d 39 91 ac 3d 76 5c 4b 3d 84 01 ad 3c
       0.07192616 0.084261365 0.049648724 0.021118887
000180 60 30 e2 bd 42 b3 4a bb 95 d1 18 be 5b 20 12 3e
       -0.11044383 -0.00309296 -0.14923699 0.14270155
000190 54 92 08 bb d2 5f 8a 3d 42 7a f4 3d 83 8a 45 3d
       -0.0020839171 0.067565575 0.11937381 0.0482278
0001a0 9e b5 ef bd 5c a0 1b 3e a0 89 72 3d d5 97 03 bd
       -0.117045626 0.15197891 0.05921328 -0.03212722
0001b0 34 59 de bc 41 c4 81 3a 70 30 83 bd e6 78 55 3d
       -0.027142145 0.0009900407 -0.06405723 0.05211725
0001c0 c4 c8 90 3c d6 f8 c7 bd 40 86 28 bd 98 ea 8b bc
       0.017673858 -0.097642586 -0.041143656 -0.017079636
0001d0 37 16 5e 3c 3d 78 bd 3d 20 6e 00 be bd 32 81 bd
       0.013555101 0.09251449 -0.1254201 -0.06308506
0001e0 aa bf 0f 3e b5 01 84 3c c8 a8 81 bd fd f0 1d 3e
       0.14037958 0.016114095 -0.063310206 0.15423961
0001f0 a6 ca 9e 3d 09 f6 54 3d dc 94 98 bd a0 2c 2a be
       0.07753496 0.05199245 -0.07450268 -0.16618586
000200 76 48 06 3f 55 a8 9c 3d 74 aa 82 bd ca 60 bc bd
       0.52454317 0.07649294 -0.063801676 -0.091981485
000210 e6 99 bc 3d 1c 54 f5 3d b9 cf c4 bd cf 20 71 3d
       0.09209041 0.11978933 -0.096099325 0.05886918
000220 d1 98 cd bc 49 02 0a 3e 47 3a ac 3d fe 74 92 3d
       -0.025097283 0.13477434 0.08409553 0.07151221
000230 3b 81 f7 bc a5 31 b3 3d 97 4f b6 bd 6d 37 b9 3d
       -0.03021299 0.08749703 -0.08901899 0.09043775
000240 3c 53 b7 3d 0f 6a b1 3d 77 bf ce 3c 83 66 29 3d
       0.089514226 0.08662807 0.025237782 0.04135753
000250 f9 52 e0 3a aa e7 5b bc 62 7c 60 bd 50 f2 83 bc
       0.0017114572 -0.013421932 -0.05480612 -0.016106755
000260 45 43 87 bd e0 59 52 bd 81 d8 7e 3d 1d 7b 5c bd
       -0.066046275 -0.051355243 0.062218193 -0.053828347
000270 fd 2f f3 3c d8 8a aa bd a0 28 a1 3d 83 f6 6a 3d
       0.029685969 -0.083272636 0.07869077 0.057364
000280 4d cc 93 bd 59 26 6b bd 93 08 8c bd c6 b3 96 bd
       -0.07216702 -0.057409618 -0.06837573 -0.07358508
000290 3d f4 6d 3d ef 10 68 bd 69 24 fa 3d 33 71 8e bd
       0.058094252 -0.056656774 0.12213976 -0.06955185
0002a0 ba f4 6a 3d 9d 23 50 bd 58 56 24 bd 75 05 64 3d
       0.057362296 -0.050815213 -0.040121406 0.055669267
0002b0 e7 8b 9f 3c 4a 16 6b bc 2d 66 a8 bc 52 c5 58 3d
       0.01947589 -0.014348576 -0.020556534 0.052922554
0002c0 5c d6 8f 3d 75 bd 9c 3c 31 07 43 be 69 d8 0c 3d
       0.07023308 0.019133309 -0.19045712 0.034386072
0002d0 9f 35 b9 bb 65 72 6e bd 63 1f d9 3d 7b 12 1f 3d
       -0.005652144 -0.058214564 0.1060169 0.038835984
0002e0 12 94 04 3e 52 76 35 3e 14 e4 ca bc 8d 7a f8 bc
       0.1294711 0.17720917 -0.02476696 -0.030331874
0002f0 56 a4 db bd 39 f8 6c 3d 46 f1 8d bd fb d7 cd 3e
       -0.10724704 0.05785391 -0.06930785 0.40203843
000300 e2 b1 ca 3d 2c c5 04 3d 6e 35 f2 3b ae 1b ed bc
       0.0989721 0.0324146 0.007391623 -0.028943863
000310 4c b5 8d 3d 8f 32 f7 3d 7a 8a 3b bd 2a b6 bd 3d
       0.06919345 0.1207019 -0.04578636 0.09263261
000320 a3 99 c0 be a6 14 83 3d a2 91 d6 bd dd 17 72 3e
       -0.37617216 0.06400423 -0.10476996 0.23641916
000330 13 7e 1b 3e 71 07 cb bc a8 fe 6e 3c 1f 63 76 3c
       0.15184812 -0.024783822 0.014587082 0.015038281
000340 3a b7 8f 3d bb cf 47 3e db e0 ad 3d 3b de f2 3d
       0.070173696 0.19512837 0.084901534 0.11858793
000350 dd 18 29 3d 1a 83 4f be 81 24 93 3d 5a 24 c0 bd
       0.041283477 -0.20264855 0.07184697 -0.093819335
000360 c2 cb 0e 3c 21 e9 21 3e f0 ed 5a 3c f7 86 ef 3d
       0.008715572 0.15811588 0.013362393 0.116956644
000370 c7 e5 c3 3d 53 68 e0 3d 72 0c 07 3d cc 8e c0 3c
       0.09565311 0.10957398 0.032970853 0.02350559
000380 56 71 9f bd fd 17 de bd 9f c8 34 3e 68 c1 8b bb
       -0.07785289 -0.10844419 0.17654656 -0.004264999
000390 14 7a 08 3e f8 48 c4 3d d8 68 8e 3d 2a 7c 84 3c
       0.13327819 0.0958423 0.06953591 0.016172487
0003a0 6b f7 5f bc 3d 35 93 3d 10 41 c2 3d 4c 43 dc 3d
       -0.013669829 0.07187889 0.09485066 0.10755023
0003b0 94 65 01 bc f1 92 93 3b d9 b4 d1 3c c8 34 49 3d
       -0.007897753 0.0045036008 0.02559893 0.0491226
0003c0 80 a9 59 bd e1 c6 91 bc b6 81 04 3e a8 05 9a 3d
       -0.053140163 -0.017795028 0.12940106 0.0752061
0003d0 8a eb ab bd 1f 10 d2 3d e0 02 d7 3d 0d 83 b1 3d
       -0.08394535 0.10256981 0.10498595 0.08667574
0003e0 e0 be f4 3c ad 5e 91 3d be 86 2d bc 0d 11 9e 3d
       0.029876173 0.07098136 -0.010591207 0.07718096
0003f0 58 d7 f7 bd b1 cc 98 bd 1d 19 3a 3e 77 3e 25 3c
       -0.121016204 -0.07460917 0.18173642 0.010085694

fc1.bias f4 [128]
000000 5d be 15 3c 81 aa 82 3d 03 f4 05 3e c3 ae af 3d
       0.009139624 0.06380177 0.13081364 0.08578255
000010 f2 88 29 3d 3d 26 9f 3e 38 c9 cf 3e 95 74 97 3e
       0.041390367 0.3108386 0.40583205 0.29581133
000020 cf d2 7e 3e fc 32 ee 3e cc b3 8f 3e a3 90 98 3e
       0.24885105 0.46523273 0.28066862 0.2979785
000030 54 93 23 bd f5 8e 95 bc 8f e9 b0 3e 61 da 83 3e
       -0.039935425 -0.018256644 0.3455319 0.25752547
000040 5f 83 46 3e 6d 95 dc 3e 00 44 00 be d2 b8 bc 3d
       0.19386052 0.43082753 -0.1252594 0.09214939
000050 f7 e0 cd 3e bd 34 81 3e d2 ca a7 3e 6b 5b af 3e
       0.40210697 0.2523555 0.32771927 0.34249434
000060 fc b8 52 3e f0 02 23 be 84 ab a0 3e 4b cd f8 ba
       0.20578378 -0.1591909 0.31380856 -0.001898208
000070 5d a9 fb 3d 10 33 94 3e f7 1d c5 bb b7 72 9e 3e
       0.12288163 0.28945208 -0.006015535 0.30946895
000080 f8 55 a1 3e a7 1e c0 3d f2 b6 18 3d 5b b4 a0 3d
       0.315109 0.093808465 0.037283845 0.078469
000090 92 4a e4 3e 64 12 c9 3e 72 47 05 3e 36 94 ee bd
       0.44588143 0.39271843 0.13015535 -0.11649363
0000a0 61 67 fd 3c 55 22 cb 3d 20 95 27 3e 43 cd 94 3e
       0.030933084 0.09918658 0.1636548 0.29062852
0000b0 9c 46 4d 3e 08 2f eb 3e 97 e2 e9 3e ce 97 28 bd
       0.20046467 0.4593432 0.45680687 -0.041160397
0000c0 b8 fe a9 3d 27 b6 38 3d 67 c2 7d 3d bc d6 07 3e
       0.08300537 0.04509559 0.061952975 0.13265508
0000d0 f0 d3 e3 3d 48 ac 00 3d a1 a3 5e bd b3 84 66 3e
       0.11124408 0.0314143 -0.054355267 0.22511558
0000e0 ca 51 f7 3d a1 9f e8 3d 20 33 23 3e 9e 24 a3 3e
       0.12076147 0.11358572 0.15937471 0.31863874
0000f0 0c e2 46 3b 74 bb ad 3a 2b e2 d7 3e 21 79 b9 3d
       0.0030347137 0.0013254718 0.4216474 0.09056307
000100 9c d1 a4 3e cd 39 2d 3e 9a f4 8a 3e 80 d8 9c 3e
       0.3219117 0.1691658 0.2713974 0.30633926
000110 c6 2d cb 3d dd 68 0b 3e e2 f3 ed 3e de 94 de 3e
       0.0992084 0.13614221 0.4647513 0.43472952
000120 a9 b5 57 bd 95 c2 88 3e 59 9f b1 3e be 85 be 3e
       -0.05266348 0.26710954 0.34691885 0.37211412
000130 9a 4a 45 bc d5 6e cd 3e 1b ca bb 3e a7 b8 a3 3e
       -0.012041712 0.4012362 0.36677632 0.31976816
000140 eb bc e3 3d 67 99 8a 3d 92 67 06 3d d8 c6 96 3e
       0.111200176 0.067675404 0.032813616 0.2944858
000150 c9 e3 ee 3d 61 78 ab 3e a3 2e a6 3e b5 02 69 3e
       0.1166454 0.3349028 0.32457456 0.22754939
000160 86 39 0a 3e 3f c2 0b 3e 76 2d 3b 3d 81 1c da 3d
       0.13498506 0.13648318 0.04569765 0.10649968
000170 62 73 94 3e f2 94 92 3e 14 c9 81 bd 6a 99 9f 3e
       0.2899428 0.2862926 -0.06337181 0.31171733
000180 30 8f a7 3e 06 b3 d2 3e 55 88 aa 3e 12 a0 73 3e
       0.3272643 0.4115221 0.33307138 0.2379153
000190 d5 d4 ed 3d 47 ec b8 3e 5d 43 a8 3e c3 58 5e 3e
       0.1161286 0.36117765 0.32863894 0.21713547
0001a0 06 b9 a6 3d c0 e4 97 3e 37 c3 7d bc 0d e4 b6 3d
       0.08140759 0.2966671 -0.015488437 0.08930216
0001b0 f4 56 c4 3d 12 1f 33 3e be 8d 29 3e 87 d8 4d 3e
       0.095868975 0.17492321 0.16557977 0.2010213
0001c0 8e 76 35 3e 88 8d af 3e be 6b 0c 3e 09 44 c5 3e
       0.17721006 0.34287667 0.13712975 0.3852847
0001d0 f1 46 28 3e c9 6b a1 3e 54 8b 9a 3c 8d a2 a9 3e
       0.16433312 0.31527546 0.018865265 0.3313183
0001e0 62 c9 18 3e 98 26 d1 bd 96 e8 a0 3e bd 31 92 bc
       0.14920571 -0.10212439 0.3142745 -0.017845983
0001f0 dd f6 80 3e 21 e6 ae 3d da 87 70 3e c6 82 ba 3e
       0.25188342 0.08539987 0.23489323 0.36427897

fc2.weight f4 [81, 128]
000000 13 b4 6d bc c3 26 95 bc ce 92 4a 3d f9 85 af bd
       -0.014508265 -0.01820696 0.04945641 -0.08570475
000010 40 16 1e bc e6 1d 69 bd af 55 4d 3d 94 fb c7 bb
       -0.0096488595 -0.05691328 0.050130542 -0.0061029885
000020 92 bf 19 bc d2 b5 de bd 6b c4 31 bc 44 52 13 b9
       -0.009384053 -0.10874523 -0.010850052 -0.00014049659
000030 07 2e 22 be 16 a0 92 bd 86 d2 0b be 2a 6d a9 3c
       -0.1583787 -0.0715944 -0.13654527 0.020681936
000040 02 31 00 be c3 ac b8 bd 72 dc f1 bc fe e4 36 bc
       -0.12518695 -0.09017327 -0.029524062 -0.011162994
000050 9e 68 c2 bd d2 f0 3d be 6d c7 ef ba dc ba 08 be
       -0.094926104 -0.18548897 -0.0018293686 -0.13352531
000060 d3 3d de 3d 11 ce c5 bd f0 04 45 3d a8 e4 e4 bc
       0.10851636 -0.09658445 0.048100412 -0.027941063
000070 0e ec b8 bd 2a f5 93 3d 17 ec 9e bc 35 da 8b bd
       -0.09029399 0.07224496 -0.019399686 -0.06828729
000080 57 90 9c bd 8b b2 fc 3c c4 2c 9a bc 41 3f 96 bd
       -0.07644718 0.030846855 -0.018820174 -0.073362835
000090 32 74 cd bc 99 a1 8a 3b db 7a bb 3d 36 04 ae bd
       -0.02507982 0.0042306897 0.09154292 -0.08496897
0000a0 af 60 d4 bd d3 1d af 3a 24 a9 f5 bc 62 9d 14 be
       -0.103700034 0.0013360329 -0.02998788 -0.14513162
0000b0 9e 15 19 3d 34 7d 16 3c cd 1a 89 bb 46 14 3e 3c
       0.03737413 0.009185124 -0.004184103 0.011601513
0000c0 38 ab 9a 3d f6 5e 8d 3b 57 07 4b 3b 78 2a e6 3d
       0.07552189 0.0043142987 0.0030979717 0.11238569
0000d0 7f 65 bd bd 86 80 ce bb 51 0a 10 3d 26 81 dc 3b
       -0.092478745 -0.0063019423 0.03516609 0.006729263
0000e0 0a 48 72 be f4 bc 35 bd df 79 22 be 50 ff 60 3d
       -0.23660293 -0.044369653 -0.15866803 0.054930985
0000f0 fc 21 52 3d fa 69 c0 bb 09 7b 1e 3d e2 97 ff 3b
       0.05130194 -0.0058720084 0.038691554 0.0078000883
000100 6d e5 8b 3c d5 1a 6e bd 0a 9e 14 bd ad f3 f3 bd
       0.017077172 -0.058131058 -0.03628353 -0.11911712
000110 f4 da 2c be 10 11 0c 3b fd 1d c2 bd d1 06 8f bd
       -0.16880399 0.0021372475 -0.09478376 -0.06983722
000120 17 ea 70 3d cb 7f b4 3c 7a 7f df bd f0 81 10 be
       0.058816995 0.022033593 -0.10912986 -0.14112067
000130 a2 29 7f bd 38 8d f2 bd 7c 7b f9 3c ed 4d dd bd
       -0.062295564 -0.118433416 0.03045439 -0.10805879
000140 10 03 4a bd 94 b0 87 bd c1 ae f5 3d a4 43 60 3c
       -0.049319327 -0.066254765 0.11996222 0.013688002
000150 5c c4 6d bd 10 76 bd bd 34 db c2 bd 1b 4f 8a 3d
       -0.05804859 -0.09251034 -0.09514466 0.067533694
000160 55 ce 1d bd 8e a1 e4 bd 01 3a 3a 3c c9 ef f7 bc
       -0.03852685 -0.111636266 0.011366368 -0.030265706
000170 0e cb ac bd 78 31 96 39 65 2b fe bc 2a 3b 8d bd
       -0.08437167 0.00028647087 -0.031026551 -0.0689605
000180 f3 cb c9 bd 3b 9e ce 3b 91 bf 29 3d 31 f7 a9 bb
       -0.09853353 0.0063054836 0.041442458 -0.005186938
000190 bb 94 e6 bc 4d 01 2b be 91 69 63 3d 2d 7c d3 3d
       -0.028147092 -0.16699715 0.055520598 0.10326419
0001a0 09 77 ab bd fb a5 26 be e6 c5 3f bd 5d cb 19 bd
       -0.083723135 -0.16274254 -0.04681959 -0.037547458
0001b0 f8 92 92 bd 38 48 05 be 72 43 a2 3d b1 a9 b9 ba
       -0.07156938 -0.1301583 0.079230204 -0.0014164952
0001c0 81 51 12 bd f5 01 f4 bd c0 a3 82 3b 01 2e 2e be
       -0.03572226 -0.11914436 0.0039868057 -0.17009737
0001d0 61 b6 d3 bd 94 00 ab bc 82 88 ba bd db 65 2d 3c
       -0.103375204 -0.0208743 -0.09108068 0.010583366
0001e0 04 41 6b bd d7 3e 43 bd 60 b2 97 3d 1c 71 f0 bb
       -0.05743505 -0.04766735 0.07407069 -0.0073377024
0001f0 64 34 68 3d 3a b5 92 3d ee 87 86 bd a3 c3 44 3d
       0.05669059 0.071634725 -0.06568895 0.048038136
000200 19 20 19 bd af ca f5 bd dd 7e da bd e3 1e cb bd
       -0.037384126 -0.120015495 -0.106687285 -0.099180005
000210 01 3e 9a bd 72 ad 00 bb a6 fe b9 bd a3 5b 6c bb
       -0.075313576 -0.0019634631 -0.090817735 -0.0036065362
000220 69 e2 16 be ea 6e 8c 3c 6b d9 aa bd 18 7c 07 bd
       -0.14734806 0.017142732 -0.083422504 -0.03307733
000230 00 d5 e6 bd dd 38 4a bd 6a e5 c9 bc 19 00 4b bc
       -0.11271095 -0.049370635 -0.024645526 -0.01239016
000240 9a ac 91 bd 30 22 fc 3c f3 e6 39 bb 28 19 a6 bd
       -0.07112999 0.03077802 -0.0028366416 -0.08110267
000250 5a 9d ac 3b 8f 06 f1 bd 7f 5d bf 3d 75 c6 9a bd
       0.005267781 -0.11768829 0.09344005 -0.07557384
000260 28 34 ed bd 3c 4a ab bd f0 e6 9b 3c 06 c1 a6 3b
       -0.11582214 -0.083637685 0.019031018 0.005088928
000270 37 2c f8 bd 78 fb d9 3b fb 8e c2 bd dc b4 1e 3b
       -0.12117808 0.006652292 -0.094999276 0.0024216687
000280 30 d6 06 be f1 21 13 bd 81 df ec 3c 60 7d 40 bd
       -0.13167644 -0.03592104 0.028915169 -0.046994567
000290 17 3b 6d bd 24 f7 d5 39 7a 78 fd bd e2 bb b1 bd
       -0.05791768 0.0004081066 -0.12376495 -0.08678414
0002a0 f6 2d 98 bc 35 4c 21 be 77 a4 c9 bd 85 ba 80 bc
       -0.018576603 -0.15751727 -0.09845822 -0.01571394
0002b0 ff 15 9b bd 04 32 81 bd c5 3b 58 bd b0 08 ba 3b
       -0.07572555 -0.06308368 -0.052791376 0.005677305
0002c0 5c d6 d3 bd 73 4a bd bc 89 fd 1b be 16 cc 23 bd
       -0.1034362 -0.02310679 -0.15233435 -0.039989553
0002d0 22 78 0d be 8e a8 84 3c 6c d1 73 3d 28 7b a0 bc
       -0.13815358 0.016193654 0.059525892 -0.019589975
0002e0 9b df 23 bd a1 8a 93 3d 4c 5c d5 bc a0 ad e8 3d
       -0.04000817 0.07204176 -0.026044987 0.11361241
0002f0 2a b4 92 bd 20 7b d2 bd e6 94 19 bd ba dc 38 be
       -0.0716327 -0.102773905 -0.037495516 -0.1805295
000300 92 8d 8e bd 42 ff 53 3d 44 aa 84 bd df e5 16 be
       -0.06960596 0.051757105 -0.06477788 -0.14736126
000310 a9 32 36 bd 56 8b ec 3c f2 ac 16 be 2c ac 5a 3d
       -0.044481907 0.028875034 -0.14714411 0.053386852
000320 bd 84 94 bd 18 ff 2c bc 8f c6 73 bc 7c 81 b5 3a
       -0.0725188 -0.010558866 -0.014878883 0.0013847793
000330 2b d5 29 bd ec ae 0e bd 40 aa ba bd 4c a4 ad bd
       -0.04146306 -0.034834787 -0.09114504 -0.08478603
000340 f5 8b d6 bd df 1d 1d 3d 20 05 c7 bc 9d 9e 82 3c
       -0.104759134 0.038358565 -0.024294436 0.015944773
000350 df 44 92 bd 85 a2 46 bd 1e ea 13 be 1d 1f 08 bd
       -0.07142042 -0.048494834 -0.14444777 -0.033232797
000360 a4 7b 57 bc 97 e1 35 be 0b 9d 22 be 74 ef c3 bc
       -0.013152037 -0.17761837 -0.1588022 -0.023917891
000370 96 7c 7c be 98 ca 97 bd fa 80 dc bd 43 8d 93 bb
       -0.24656901 -0.074116886 -0.10766788 -0.0045029237
000380 e7 2d e4 bc 79 3f 74 bd 26 0d 84 bd ff bf 35 bd
       -0.02785392 -0.059630845 -0.0644782 -0.044372555
000390 9d dc d1 bd ec c0 d6 bd 0a 68 c0 bd 71 e7 05 be
       -0.10247157 -0.10486016 -0.09394844 -0.13076569
0003a0 24 fa 39 3d 1f fd 82 3c 68 b2 ad bd 45 07 40 bd
       0.04540457 0.015989838 -0.08481294 -0.046881933
0003b0 c0 fe 60 bd 25 11 8a bd 6a 56 53 3b cd 46 9b bd
       -0.05493045 -0.06741551 0.0032247552 -0.075818636
0003c0 2f e9 d9 bb 98 51 45 be 75 4d 29 3d 08 10 4e 3d
       -0.006650112 -0.19269407 0.041333634 0.050308257
0003d0 b8 af 9d bd 39 75 d6 bc 54 56 17 bc 31 10 14 bd
       -0.07699531 -0.026178943 -0.009236891 -0.036148254
0003e0 a5 8c 13 bc 5b 44 98 3c 79 33 58 3d a0 78 7e bd
       -0.0090057 0.018587282 0.052783463 -0.062126756
0003f0 c8 46 a1 bd 59 7c 07 3c 4b 59 2c be 09 44 17 3c
       -0.078748286 0.008269393 -0.16830938 0.009232529

fc2.bias f4 [81]
000000 53 25 0b bd 52 b3 3d bd 19 93 e5 3c d3 1e d4 bd
       -0.033971142 -0.04631359 0.028024243 -0.10357442
000010 34 86 14 be 9a 6a f0 bd 11 b2 fd 3b dd 0d 34 3b
       -0.1450432 -0.11739083 0.0077421744 0.0027474083
000020 a6 4b d7 bd 19 18 b0 bd 76 e3 3a bd 26 c7 3a bd
       -0.10512476 -0.08598346 -0.04562708 -0.04560008
000030 ab aa b3 bd 40 06 76 3d dc b3 92 3c 7e 0b 49 bd
       -0.08772787 0.060064554 0.01790803 -0.049083225
000040 6d 07 0b 3d 2c f2 88 bd 91 20 82 bd 07 c6 cc bc
       0.03394263 -0.066868156 -0.06353868 -0.02499677
000050 ca 7c 2e 3e 7a be a8 bc 38 3f f6 3d c9 ad a9 3c
       0.17039791 -0.020598639 0.12023777 0.02071275
000060 d2 96 fd 3d 37 b7 cb bc ad 95 05 bd 28 f9 bc bc
       0.12382282 -0.024867637 -0.032613445 -0.023068026
000070 87 6e f7 bd 97 93 4f 3d e7 8e 50 bc 11 a1 98 3d
       -0.12081628 0.050677862 -0.012729383 0.07452596
000080 d3 a0 97 bd dd a4 11 bd 6e b0 81 bc 95 d9 1d be
       -0.07403722 -0.035557617 -0.015831199 -0.15415032
000090 4f 2a 3f 3d df 7a 28 bd ce 75 58 3e 18 55 17 3d
       0.046671208 -0.041132804 0.21138689 0.036946386
0000a0 7d d7 8f 3d 77 ec 5c 3d 29 b5 d2 bc 60 80 5f bc
       0.07023523 0.053936448 -0.02572115 -0.013641447
0000b0 11 13 c4 bd 06 a4 15 bd 79 f0 74 bd 7f ea b9 3e
       -0.09573949 -0.036533378 -0.059799645 0.3631172
0000c0 44 f5 2c 3d 7e 86 cd bd e2 d4 83 3d 23 32 a5 3d
       0.04222609 -0.10035418 0.064370885 0.080662034
0000d0 ad 0a cc bd ad 05 61 bc 5f 73 ac 3c d9 17 a5 bc
       -0.09962974 -0.013734263 0.021051107 -0.020152973
0000e0 91 40 89 3d 89 9b 46 3d f9 6f 8f bc 7d fd 4b bd
       0.06701768 0.048488174 -0.017509447 -0.049802292
0000f0 06 ef fc bd 73 50 dd bc a2 72 a7 bd 78 c2 08 bd
       -0.123502776 -0.0270159 -0.08176161 -0.033388585
000100 e9 0b 54 bd d4 1f 28 3d 4f 90 d6 bc 70 2d 65 3b
       -0.05176917 0.04104598 -0.026191859 0.003496971
000110 12 0b b3 bc 83 9c 83 bd 59 11 77 bd 40 c1 0d be
       -0.021855865 -0.064263366 -0.06031928 -0.1384325
000120 90 11 83 ba d1 c1 97 bd 91 4f 2d bd ae b7 ef bd
       -0.0009999741 -0.074100144 -0.04231221 -0.11704956
000130 6b 43 0f 3b e6 58 a3 bd 87 1d 04 be bd ce 94 bd
       0.0021860253 -0.079759404 -0.12901889 -0.07265995
000140 b1 e6 13 bd
       -0.036108676
