q_agent_white.pth (torch, 85888 bytes, 4 tensors)

fc1.weight f4 [128, 81]
0	0x417e93c6	15.9110775
1	0x417a7ac9	15.654977
2	0x417f5092	15.9571705
3	0x417dc843	15.861392
4	0x4169410f	14.578383
5	0x417ec9ea	15.924295
6	0x4159201a	13.570337
7	0x41809811	16.074251
8	0x417f7066	15.964941
9	0x416713d6	14.442343
10	0x417b20ba	15.69549
11	0x417b9f6d	15.726422
12	0x417dbd6b	15.858745
13	0x417df269	15.871682
14	0x4142ac2c	12.167034
15	0x41537ec2	13.218447
16	0x417eaf63	15.917819
17	0x418039de	16.028255
18	0x41632f00	14.198975
19	0x417d953e	15.848936
20	0x4175b068	15.355568
21	0x41740f77	15.253776
22	0x417fb1fe	15.980955
23	0x413b4364	11.703953
24	0x417cd67f	15.802367
25	0x417f315c	15.949551
26	0x4160baa9	14.045571
27	0x417dabd0	15.854446
28	0x41801c7e	16.013912
29	0x417d2b51	15.823075
30	0x417345ab	15.204509
31	0x4126f5db	10.435023
32	0x41806cbb	16.053091
33	0x417173ae	15.090742
34	0x417d297a	15.822626
35	0x417c8d54	15.784504
36	0x4178eecc	15.5583
37	0x414b029b	12.688136
38	0x413a3e77	11.64025
39	0x417c83b8	15.782158
40	0x41801ce0	16.0141
41	0x4175f9d2	15.373491
42	0x417fd676	15.989859
43	0x4175bafc	15.3581505
44	0x415970b7	13.590018
45	0x417f44ba	15.954279
46	0x415aff60	13.687347
47	0x417fe641	15.993714
48	0x41476b76	12.463736
49	0x41700aa4	15.002598
50	0x4164a962	14.291353
51	0x417dc156	15.859701
52	0x41645f16	14.273214
53	0x41503953	13.013995
54	0x417e7f2f	15.906051
55	0x417fe125	15.992467
56	0x417f7ba6	15.967688
57	0x41697b55	14.59261
58	0x417d5ae4	15.83469
59	0x417dd52c	15.864544
60	0x417b1d06	15.694586
61	0x417d10e2	15.816622
62	0x417d1a56	15.81893
63	0x417d220b	15.820811
64	0x417d8630	15.845261
65	0x41800555	16.002604
66	0x417449f0	15.268051
67	0x417e79ef	15.904769
68	0x417b2a71	15.697862
69	0x417ff70a	15.997812
70	0x415a73c8	13.653267
71	0x4149fe14	12.624531
72	0x4171b76d	15.107282
73	0x417f67b8	15.962822
74	0x417c1041	15.753968
75	0x41802c96	16.02177
76	0x417c2e6d	15.761334
77	0x417cc9ba	15.79925
78	0x4176d94d	15.428052
79	0x417ef3e1	15.934541
80	0x4178b525	15.544225
81	0x417ffcda	15.999231
82	0x417afba9	15.68644
83	0x417fb3d6	15.981405
84	0x417bc720	15.7361145
85	0x41679d4c	14.475903
86	0x417de3ff	15.868163
87	0x41591a3b	13.568904
88	0x417e9352	15.910967
89	0x4180750b	16.05715
90	0x4168cd68	14.550148
91	0x417a0201	15.625489
92	0x417ba83f	15.728576
93	0x417f0366	15.93833
94	0x4180160c	16.010765
95	0x41439374	12.223499
96	0x4153dc38	13.241264
97	0x418012d8	16.009201
98	0x417eb0c9	15.91816
99	0x4164dfd7	14.304648
100	0x417f11d8	15.941856
101	0x41785ceb	15.522685
102	0x4174116c	15.254253
103	0x417d2200	15.820801
104	0x413b1053	11.691485
105	0x417d9939	15.849908
106	0x417d4e3f	15.831603
107	0x4162d118	14.176048
108	0x417dce99	15.862939
109	0x41801f82	16.015385
110	0x417d771d	15.84158
111	0x41744bc7	15.2685
112	0x4127645a	10.462
113	0x41803b53	16.028967
114	0x4172c14c	15.172192
115	0x417db9c0	15.857849
116	0x417eb7ab	15.919841
117	0x417949e4	15.58054
118	0x414a1160	12.629242
119	0x4138b12b	11.543254
120	0x417af37a	15.6844425
121	0x41804315	16.032755
122	0x417420f3	15.258044
123	0x41803641	16.026491
124	0x417656fa	15.3962345
125	0x4158affd	13.542966
126	0x417f0bfa	15.940424
127	0x415b28c8	13.697456
128	0x417ff1c2	15.996523
129	0x4147578b	12.458873
130	0x416f7dd6	14.968222
131	0x416445ab	14.267009
132	0x4180bfbd	16.093622
133	0x41654bee	14.3310375
134	0x4151f70d	13.122815
135	0x417df749	15.872872
136	0x417f5365	15.95786
137	0x41806e7d	16.05395
138	0x416aaf6e	14.6678295
139	0x417d33d1	15.8251505
140	0x41800cf6	16.006329
141	0x4179bd3b	15.608699
142	0x41800259	16.001146
143	0x417f4385	15.953984
144	0x417f3d5f	15.952483
145	0x417c2a19	15.760278
146	0x417da473	15.852649
147	0x4178467a	15.517206
148	0x41800519	16.00249
149	0x41796f9e	15.58975
150	0x41801132	16.008396
151	0x4157ab30	13.479294
152	0x414a750f	12.653579
153	0x41742e23	15.261264
154	0x41805199	16.039843
155	0x417be905	15.74439
156	0x417fc6e8	15.986061
157	0x417cac06	15.791998
158	0x417d3400	15.825195
159	0x4176edbb	15.43304
160	0x417e9a2f	15.9126425
161	0x417af46d	15.684674
162	0x417dd984	15.865604
163	0x417b4225	15.703649
164	0x417e2adc	15.885464
165	0x417bec7f	15.745238
166	0x4168da22	14.553255
167	0x417d18a6	15.818518
168	0x4159c2a5	13.610021
169	0x418075c9	16.057512
170	0x4180394a	16.027973
171	0x41691700	14.568115
172	0x417c4d34	15.768848
173	0x417bca14	15.7368355
174	0x417e0414	15.875996
175	0x417d4a3b	15.830623
176	0x41435595	12.208394
177	0x41563a01	13.389161
178	0x41804d48	16.037735
179	0x417f1552	15.942705
180	0x41638273	14.219348
181	0x417e5af4	15.897205
182	0x41793519	15.575463
183	0x41733825	15.201207
184	0x417ddb5e	15.866056
185	0x413a5985	11.646855
186	0x417d86ef	15.845443
187	0x41803280	16.024658
188	0x41643ea0	14.265289
189	0x417ce1e8	15.805153
190	0x4180745c	16.056816
191	0x417ffc6a	15.999125
192	0x4175fda7	15.374427
193	0x41277b33	10.467578
194	0x417e920b	15.910655
195	0x41741211	15.254411
196	0x417ffcd2	15.999224
197	0x417cf1cc	15.809032
198	0x4179243c	15.571346
199	0x414b0a8c	12.690075
200	0x4138942c	11.536175
201	0x417c090d	15.75221
202	0x418063d5	16.048746
203	0x41766dc6	15.4018
204	0x417f88c6	15.970892
205	0x4174fa76	15.311148
206	0x4159f347	13.621894
207	0x417f68b0	15.963058
208	0x415a22eb	13.633525
209	0x417d81f5	15.844228
210	0x414a308c	12.636852
211	0x416f309f	14.94937
212	0x4162fc5e	14.186613
213	0x41804321	16.032778
214	0x4166230f	14.383559
215	0x4150f2d5	13.059285
216	0x417c43d7	15.766562
217	0x417da58f	15.85292
218	0x417f9be2	15.975557
219	0x4169dfc8	14.617134
220	0x417ec65c	15.923428
221	0x417df24f	15.871657
222	0x4179bc47	15.608466
223	0x417f746e	15.965925
224	0x417e4822	15.892611
225	0x417ef2df	15.934295
226	0x417d7c7b	15.842891
227	0x417f9967	15.974952
228	0x4176f9b3	15.435962
229	0x417fee6e	15.99571
230	0x41788b9f	15.534087
231	0x417db63e	15.856993
232	0x415abdb5	13.671315
233	0x414b8782	12.720583
234	0x4172fa8d	15.18617
235	0x417fdb28	15.991005
236	0x417c84c8	15.782417
237	0x417e808e	15.906385
238	0x417c4328	15.766396
239	0x417e3ee9	15.890359
240	0x4176dd38	15.4290085
241	0x417e9c31	15.913133
242	0x417a8da9	15.659585
243	0x417e478f	15.89247
244	0x417ba51d	15.727811
245	0x417eae28	15.917519
246	0x417e47b1	15.892503
247	0x416c2591	14.7591715
248	0x417d18a5	15.818517
249	0x415a40a4	13.640781
250	0x417eb393	15.918841
251	0x41809919	16.074755
252	0x416675bb	14.403743
253	0x417a45e3	15.642062
254	0x417e11b8	15.879326
255	0x417f7297	15.965476

fc1.bias f4 [128]
0	0x417f20f3	15.945544
1	0x417eddbb	15.929133
2	0x418120cf	16.14102
3	0x41803654	16.026527
4	0x417fe12a	15.992472
5	0x4180ad9c	16.08477
6	0x417f0722	15.939241
7	0x417f221a	15.945826
8	0x418048b7	16.035505
9	0x417ec116	15.92214
10	0x418017a6	16.011547
11	0x41808803	16.066412
12	0x41809c8e	16.076443
13	0x417f7667	15.966407
14	0x417ede4e	15.929274
15	0x417f69dd	15.963346
16	0x417eeb97	15.932517
17	0x4180945f	16.072447
18	0x417ff57d	15.997434
19	0x417f495a	15.955408
20	0x417eb7b8	15.919853
21	0x417e4f11	15.894303
22	0x41804cdf	16.037535
23	0x417ff565	15.997411
24	0x417f3ac2	15.951845
25	0x417f8313	15.969501
26	0x417e90c6	15.910345
27	0x417f1a08	15.943855
28	0x418087ef	16.066374
29	0x41811693	16.136023
30	0x4180bedc	16.093193
31	0x417fde96	15.991842
32	0x417fda06	15.990728
33	0x4180f9c2	16.121952
34	0x418036bd	16.026728
35	0x417a368d	15.638318
36	0x417ee299	15.930322
37	0x417ed98f	15.928115
38	0x4180cf63	16.101263
39	0x4180875f	16.0661
40	0x4180280f	16.01956
41	0x41809674	16.073463
42	0x4180007e	16.00024
43	0x417f7d98	15.968163
44	0x41802163	16.016302
45	0x417e6ed2	15.902056
46	0x417f3332	15.949999
47	0x417eec17	15.932639
48	0x417f4863	15.955173
49	0x417f5659	15.958581
50	0x417ff2a1	15.996736
51	0x417e8ba4	15.909092
52	0x417e97a8	15.912025
53	0x4180756c	16.057335
54	0x41804828	16.035233
55	0x41807980	16.059326
56	0x41804d78	16.037827
57	0x41806361	16.048525
58	0x4180610d	16.047388
59	0x41802356	16.017254
60	0x417ea7b9	15.915948
61	0x417eb36c	15.918804
62	0x417ead11	15.917253
63	0x41801010	16.007843
64	0x417ebdc8	15.921333
65	0x417f8473	15.969836
66	0x417ecf63	15.9256315
67	0x417fbdba	15.98382
68	0x418096a7	16.07356
69	0x41802d1b	16.022024
70	0x41808d1a	16.068897
71	0x41808a52	16.06754
72	0x4180ee8b	16.116476
73	0x41807df5	16.061502
74	0x417ff3cb	15.99702
75	0x4180682f	16.05087
76	0x417f7eea	15.968485
77	0x417f618f	15.961318
78	0x417eda44	15.9282875
79	0x41807df7	16.061506
80	0x417ec957	15.924155
81	0x418043bd	16.033075
82	0x417ff49b	15.997218
83	0x41804c56	16.037273
84	0x4180c12c	16.094322
85	0x417e7a4c	15.904858
86	0x4180f423	16.119207
87	0x41802b90	16.02127
88	0x417e92a6	15.910803
89	0x418026f9	16.01903
90	0x41806444	16.048958
91	0x417fa592	15.977922
92	0x41802367	16.017286
93	0x417e7c05	15.905278
94	0x417ee0a4	15.929844
95	0x4180f103	16.117682
96	0x417f4d2c	15.956341
97	0x417eb7cb	15.919871
98	0x417edbb0	15.928635
99	0x417efd12	15.936785
100	0x417f234f	15.94612
101	0x417f9c54	15.975666
102	0x417fed61	15.995454
103	0x417fc73f	15.986144
104	0x417f6d8b	15.964244
105	0x4180ac36	16.084087
106	0x41809a02	16.0752
107	0x4180c456	16.095867
108	0x417f6776	15.962759
109	0x41804bde	16.037045
110	0x4180d238	16.102646
111	0x417fbca4	15.983555
112	0x418070e8	16.05513
113	0x4180719a	16.05547
114	0x417fd55f	15.989593
115	0x41808600	16.06543
116	0x4180c90b	16.098166
117	0x4181122f	16.133879
118	0x417f742f	15.965865
119	0x41810068	16.125198
120	0x41805a22	16.04401
121	0x417e70c0	15.902527
122	0x418107b2	16.128757
123	0x417ffdc2	15.999453
124	0x417fb429	15.981484
125	0x417f8558	15.970055
126	0x4180ff5c	16.124687
127	0x418060e6	16.047314

fc2.weight f4 [81, 128]
0	0x414b9dec	12.726055
1	0x414b4db1	12.706468
2	0x414acc51	12.674882
3	0x414a43d8	12.641563
4	0x414af8b0	12.685715
5	0x414beed3	12.745807
6	0x414b80be	12.718931
7	0x414b7062	12.714937
8	0x414c7154	12.777668
9	0x414b6da7	12.714271
10	0x414c34d2	12.762896
11	0x414b0c28	12.690468
12	0x414b06b1	12.689134
13	0x414c2211	12.758317
14	0x414d0cca	12.815622
15	0x414bbf9e	12.734282
16	0x414c84dc	12.782436
17	0x414c97e4	12.787083
18	0x414b3374	12.700062
19	0x414a6d18	12.651634
20	0x414bce5f	12.737884
21	0x414cbc0a	12.795908
22	0x414bf81b	12.748073
23	0x414ce2bc	12.805355
24	0x414c4d4b	12.76887
25	0x414b59da	12.709436
26	0x414b4251	12.703691
27	0x414cc633	12.7983885
28	0x414c5b76	12.772329
29	0x414bc7c3	12.73627
30	0x414ada25	12.678258
31	0x414c5f16	12.773214
32	0x414a941c	12.6611595
33	0x414ae130	12.679977
34	0x414be0da	12.742395
35	0x41462e89	12.386361
36	0x414d101c	12.816433
37	0x414b1090	12.691544
38	0x414afaaf	12.686202
39	0x414bd84f	12.74031
40	0x414b3b92	12.702044
41	0x414c7b59	12.780114
42	0x414cb190	12.79335
43	0x414ab71f	12.669707
44	0x414a691a	12.65066
45	0x4149e553	12.618487
46	0x414b0327	12.68827
47	0x414b4e8f	12.706679
48	0x414ad9a5	12.678136
49	0x414b232e	12.696089
50	0x414c1dbe	12.757261
51	0x4149e85f	12.619231
52	0x414bf783	12.747928
53	0x414bc659	12.735925
54	0x414b488d	12.705213
55	0x414cbbc8	12.795845
56	0x414bc30e	12.735121
57	0x414c3dd6	12.765097
58	0x414b8182	12.719118
59	0x414cf34a	12.809397
60	0x414a8b18	12.658958
61	0x414b3998	12.701561
62	0x414c02ff	12.750731
63	0x414c3a8d	12.764295
64	0x414c0b2a	12.752726
65	0x414a7f88	12.656136
66	0x414c509c	12.76968
67	0x414ad032	12.675829
68	0x414ba1b1	12.726975
69	0x414c2802	12.759768
70	0x414a7844	12.654362
71	0x414a7a73	12.654895
72	0x414ce34f	12.805495
73	0x414c35ac	12.7631035
74	0x414c7490	12.778458
75	0x414adab0	12.6783905
76	0x414b567e	12.708616
77	0x414aef9d	12.683499
78	0x414a5eba	12.648127
79	0x414b2166	12.695654
80	0x414c147a	12.754999
81	0x414bb7fc	12.732418
82	0x414cfa1e	12.811064
83	0x414bcdb4	12.7377205
84	0x414ba6bf	12.7282095
85	0x414bf9ea	12.748514
86	0x414c3182	12.762087
87	0x414c31f8	12.762199
88	0x4149f44b	12.622142
89	0x414b35e4	12.700657
90	0x414a4b3f	12.643371
91	0x414caef6	12.792715
92	0x414b137d	12.692258
93	0x414a9750	12.661942
94	0x414a517b	12.644893
95	0x414c36cf	12.763381
96	0x414cea0a	12.807138
97	0x414a23f4	12.633778
98	0x414a51ae	12.644941
99	0x414ba034	12.726612
100	0x414b04e1	12.688691
101	0x414c92b0	12.785812
102	0x414a5a95	12.647115
103	0x414b59d4	12.709431
104	0x414baa84	12.72913
105	0x414ba603	12.72803
106	0x414a20d6	12.633017
107	0x414cb6ab	12.794597
108	0x414c79d9	12.779748
109	0x414cbbf2	12.795885
110	0x414cf289	12.809213
111	0x414cbfee	12.796858
112	0x414c2a93	12.760394
113	0x414c04f4	12.751209
114	0x414ad580	12.677124
115	0x414b5519	12.708276
116	0x414a6f7f	12.652221
117	0x414c1982	12.7562275
118	0x414b36b9	12.70086
119	0x414b9b52	12.72542
120	0x414b3d11	12.702409
121	0x414a15b5	12.6303
122	0x414c3924	12.76395
123	0x414c1046	12.753973
124	0x414c00e3	12.7502165
125	0x414cbb85	12.795781
126	0x414c78dd	12.779508
127	0x414b09e1	12.689912
128	0x406840e2	3.6289601
129	0x4065edd1	3.5926402
130	0x40692cf6	3.6433692
131	0x40678f15	3.618108
132	0x4065ea1e	3.5924144
133	0x406a006c	3.6562757
134	0x40654220	3.582161
135	0x40688650	3.6331978
136	0x4069e72c	3.6547346
137	0x4063f68e	3.5619235
138	0x406dc3df	3.71508
139	0x406efde2	3.7342458
140	0x406c15aa	3.6888223
141	0x40663c79	3.597441
142	0x40697f5b	3.6483982
143	0x4069d2a4	3.6534815
144	0x40653771	3.5815089
145	0x406959e9	3.6461127
146	0x406dd2c5	3.7159894
147	0x4067c661	3.621483
148	0x4068257a	3.6272874
149	0x4069e1b7	3.6544015
150	0x406814a5	3.62626
151	0x406da039	3.7129042
152	0x4065a4dd	3.5881875
153	0x40647c8f	3.5701025
154	0x40646381	3.5685732
155	0x406b64b0	3.6780205
156	0x406e64ee	3.7249103
157	0x406d460d	3.7074006
158	0x4065f812	3.593266
159	0x4063f643	3.5619056
160	0x40647ab5	3.5699894
161	0x40674df9	3.614134
162	0x406d9a9f	3.7125623
163	0x40637f02	3.554627
164	0x406d2321	3.705269
165	0x4064c87b	3.5747364
166	0x406ba1e6	3.6817565
167	0x40645dcc	3.568225
168	0x406885d5	3.6331685
169	0x40676dde	3.6160808
170	0x406afd02	3.6716924
171	0x4066437e	3.5978694
172	0x406ab297	3.6671503
173	0x4066e445	3.6076825
174	0x40690c80	3.641388
175	0x406b509c	3.676795
176	0x406a1ad3	3.6578872
177	0x40696327	3.6466768
178	0x40676faf	3.6161916
179	0x4064dfb3	3.5761535
180	0x4068832d	3.6330063
181	0x4064e65b	3.5765598
182	0x406cc60b	3.6995876
183	0x4066d756	3.606893
184	0x4063a72d	3.5570786
185	0x40663340	3.596878
186	0x40652e24	3.5809412
187	0x406b2427	3.6740816
188	0x406868b8	3.6313915
189	0x4068732e	3.63203
190	0x4069ff6b	3.6562145
191	0x406742fa	3.613463
192	0x4062b8c4	3.5425272
193	0x4069178f	3.642063
194	0x406e176d	3.7201798
195	0x40683af4	3.6285982
196	0x40669bba	3.6032548
197	0x4066d253	3.6065872
198	0x406c2192	3.689549
199	0x406e30b9	3.7217238
200	0x406b2765	3.6742795
201	0x4068d1f6	3.637815
202	0x4069ce11	3.6532023
203	0x4068cf5b	3.637656
204	0x406c9822	3.6967854
205	0x406a39db	3.6597812
206	0x406b1b2f	3.6735342
207	0x40649853	3.5717971
208	0x406b804c	3.6797056
209	0x4069b52c	3.6516829
210	0x4065aac7	3.5885484
211	0x406b7ba3	3.6794212
212	0x4069591c	3.6460638
213	0x406943ad	3.6447556
214	0x40668a5a	3.6021943
215	0x4068aa47	3.635393
216	0x4063fc77	3.5622842
217	0x406bb430	3.6828728
218	0x406cd7b1	3.7006648
219	0x406ffc62	3.7497792
220	0x40691b19	3.642279
221	0x406e0f41	3.719681
222	0x4065601a	3.5839906
223	0x406995ac	3.6497602
224	0x406a324e	3.6593204
225	0x4065fe37	3.593641
226	0x406c972a	3.6967263
227	0x40667c87	3.6013505
228	0x40689d47	3.6345994
229	0x40696b7d	3.6471856
230	0x40658710	3.5863686
231	0x40686efc	3.631774
232	0x4069edf6	3.655149
233	0x406cadc9	3.698107
234	0x406ae9c6	3.6705184
235	0x4065c7c8	3.5903187
236	0x4064d6a5	3.5756009
237	0x40671598	3.610693
238	0x406776f0	3.6166344
239	0x4065c3f3	3.5900848
240	0x406a6b8a	3.6628137
241	0x406d114d	3.704181
242	0x40678358	3.6173916
243	0x40695deb	3.6463573
244	0x406ef49e	3.7336802
245	0x4064564b	3.567767
246	0x40697a31	3.648083
247	0x406df1de	3.7178874
248	0x406d66ee	3.7094073
249	0x406b703f	3.678726
250	0x40652d79	3.5809004
251	0x406d158c	3.70444
252	0x40643f07	3.566347
253	0x406598fe	3.587463
254	0x40648223	3.570443
255	0x40699545	3.6497357

fc2.bias f4 [81]
0	0x41369174	11.410511
1	0x406eb7e6	3.7299743
2	0x41360dc3	11.37836
3	0x4130af18	11.0427475
4	0x405ae289	3.4200766
5	0x413548c4	11.330265
6	0x410bb454	8.731525
7	0x413c7334	11.778126
8	0x4138eb2f	11.557418
9	0x408f8353	4.484781
10	0x412dc86f	10.861434
11	0x400c731e	2.1945262
12	0x3fcccf62	1.6000788
13	0x3ff08ea4	1.879353
14	0x40c65b29	6.198628
15	0x40bd6b3e	5.919341
16	0x3fc63570	1.5485058
17	0x413c7cfb	11.780513
18	0x411a120f	9.629409
19	0x400deb07	2.21747
20	0x412ac015	10.671895
21	0x408471d5	4.1388955
22	0x4134f5dc	11.310024
23	0x407cdd7e	3.9510188
24	0x40661ab1	3.595379
25	0x40160636	2.344129
26	0x411d3d0f	9.827407
27	0x40282bfe	2.627685
28	0x400361e0	2.0528488
29	0x3fecabde	1.848995
30	0x4123bf99	10.234277
31	0x407d2397	3.9552972
32	0x413e4328	11.891396
33	0x40996352	4.793374
34	0x413425f8	11.25927
35	0x4074345a	3.8156953
36	0x412d0ac7	10.815131
37	0x4101426d	8.078717
38	0x40811e64	4.03496
39	0x412fab58	10.979332
40	0x3a9dbd00	0.0012034476
41	0x41215e0f	10.085464
42	0x4010944a	2.2590508
43	0x406a28d6	3.6587424
44	0x40b0ea5e	5.5286093
45	0x413c7af6	11.78002
46	0x409b98cc	4.862402
47	0x4135bab2	11.35808
48	0x40bce65f	5.9031215
49	0x411e2c12	9.885759
50	0x40a407f2	5.12597
51	0x413fc4fd	11.985593
52	0x41155b29	9.334756
53	0x40a8cc2a	5.2749224
54	0x4133d3df	11.239226
55	0x40060dc5	2.0945904
56	0x4139572c	11.583782
57	0x409294a8	4.5806465
58	0x3fe7d618	1.8112211
59	0x4005defb	2.0917346
60	0x4062662f	3.5374868
61	0x4138a7c2	11.5409565
62	0x41365a0c	11.396984
63	0x3fef0fcd	1.8676697
64	0x41302cad	11.010907
65	0x401c59bd	2.4429772
66	0x4126fcd2	10.436724
67	0x413afdba	11.686945
68	0x404cc5e1	3.1995776
69	0x3fe73f7b	1.8066248
70	0x410712cc	8.442089
71	0x40fc4fd1	7.884743
72	0x411fa798	9.978416
73	0x3feac608	1.8341684
74	0x40644791	3.566868
75	0x4139ee29	11.620645
76	0x405ad9ff	3.4195554
77	0x41323dfd	11.140134
78	0x40806871	4.012749
79	0x3ffb009c	1.9609561
80	0x412f6343	10.961734
