models/policy_agent_black.pth (torch, 85928 bytes, 4 tensors)

fc1.weight f4 [128, 81]
0.01817864 -0.05279624 0.014875151 -0.019657247 -0.034735736 -0.089085154 -0.022714162 0.0632156
-0.051560845 0.08290477 -0.05254058 0.003360896 0.030673109 -0.09349317 -0.05889688 -0.093825646
0.08208399 -0.06446471 0.09435737 0.048514765 -0.14116395 -0.015772805 -0.08605665 0.07069679
0.06769803 0.07883964 -0.11441027 0.08742882 0.06165591 -0.35445246 0.042696826 -0.09843909
-0.00823635 0.036359463 -0.011405461 -0.10187426 0.05660307 -0.077096835 0.2607514 -0.013987253
-0.07326403 -0.16260327 0.0864641 -0.08030564 0.036016244 0.041694388 -0.10226249 0.038900148
-0.06986427 -0.1043953 0.10085242 0.011974074 0.038945835 0.083053514 -0.122468896 -0.019705188
-0.084243804 0.3522584 -0.06176818 0.05630647 -0.0780762 0.019996136 0.07163614 0.100546494
-0.025535982 -0.12847057 0.006729491 -0.044901457 -0.01139379 -0.0033044089 0.08491911 0.051056497
-0.021353178 -0.09097424 0.021411015 -0.019894686 0.051680002 0.049646046 -0.06996969 -0.07556909
-0.12935854 0.04277325 -0.13891171 0.03261734 -0.006901335 -0.124254234 0.068668135 -0.075144425
0.057869907 -0.002112753 0.1024597 -0.05910532 0.026402177 0.0011829251 -0.01842452 -0.006309496
0.0475997 -0.09688619 -0.0115582105 0.14186394 -0.05442691 0.24084449 -0.09703614 -0.030096386
0.010463124 0.08380053 0.031589754 -0.0011153591 0.11406634 0.045699764 0.27281022 0.060107265
0.08708163 -0.04960583 -0.14668825 0.05854935 -0.013871138 0.030634599 0.060257424 -0.009530219
0.021695947 0.058442045 0.2464137 0.088248886 0.06347954 0.06701835 0.083611764 -0.05153405
-0.084654994 0.07360472 -0.23713534 0.17818946 -0.015504615 0.06212812 0.13167915 0.09694539
0.072693035 0.0793261 0.097712845 0.017955273 0.009824784 0.080429144 0.029573297 0.101944
0.12393996 0.03243262 0.42776588 0.08019371 0.07765305 -0.07940757 0.14318694 0.024271237
0.018532282 -0.13832274 -0.31352338 -0.0043589934 0.10226317 -0.0251465 0.0059237164 -0.072157316
0.101642065 -0.088051274 0.07227883 0.093831584 0.05897122 0.034542024 0.06344637 -0.04309895
0.03833663 -0.15297972 -0.0443494 -0.025234956 0.0070411875 0.107431054 0.023360973 0.040838867
0.039996356 -0.07506635 0.058612682 -0.11406062 -0.040867932 0.08206112 -0.08415057 0.05867073
-0.00840305 0.075922 -0.034637466 -0.0070970426 0.039818708 -0.03403951 0.002323937 -0.0019231562
0.048237935 0.0041348473 0.028954301 0.09933649 0.14106724 -0.04637325 -0.04486194 0.050235845
-0.1581477 -0.028463716 0.05029256 0.110026024 0.040632203 0.052915175 -0.044457342 0.044698607
0.035892565 0.11595006 -0.13438204 0.20938592 -0.04074781 0.16453099 -0.08447762 -0.076817766
-0.0038511162 0.047984175 0.057809386 -0.56293136 0.15170841 0.07531508 0.04795868 -0.008881627
0.023195423 0.07363196 0.037026882 0.23828329 0.022708002 -0.060423963 -0.16017601 0.15496978
0.12921038 -0.084455356 0.11350131 0.12356399 -0.0961469 0.03877049 0.06671409 0.06725323
0.09285461 0.005482777 0.06657331 -0.0172762 0.06989815 0.083862334 -0.01184974 0.015478273
0.0334619 0.083681494 0.020631948 0.14313115 0.11896252 0.001708953 -0.10111333 0.05057502
00000000: 5feb 943c df40 58bd e8b6 733c 3c08 a1bc
00000010: 0f47 0ebd 4772 b6bd 0d13 babc 2e77 813d
00000020: 7731 53bd fac9 a93d cb34 57bd 7a42 5c3b
00000030: 2c46 fb3c 5979 bfbd db3d 71bd a927 c0bd
00000040: a71b a83d 1306 84bd 703e c13d 6bb7 463d
00000050: 488d 10be f835 81bc 783e b0bd 7bc9 903d
00000060: 44a5 8a3d ad76 a13d ee4f eabd e20d b33d
00000070: e88a 7c3d cb7a b5be dee2 2e3d 6f9a c9bd
00000080: c1f1 06bc a9ed 143d f8dd 3abc 74a3 d0bd
00000090: 9fd8 673d f2e4 9dbd 3581 853e cb2a 65bc
000000a0: 740b 96bd 7981 26be 1714 b13d 4977 a4bd
000000b0: c585 133d bcc7 2a3d ff6e d1bd c355 1f3d
000000c0: 0015 8fbd 34cd d5bd b78b ce3d e82e 443c
000000d0: ab85 1f3d f617 aa3d f9d0 fabd c66c a1bc
000000e0: 0488 acbd 375b b43e a200 7dbd 9da1 663d
000000f0: 6ae6 9fbd f0ce a33c f8b5 923d 52eb cd3d
00000100: d630 d1bc ca8d 03be 1083 dc3b 97ea 37bd
00000110: 05ad 3abc c88e 58bb 12ea ad3d 9e20 513d
00000120: dcec aebc b450 babd 2766 af3c 2efa a2bc
00000130: 69ae 533d a759 4b3d 454c 8fbd f8c3 9abd
00000140: 9176 04be 0133 2f3d df3e 0ebe c399 053d
00000150: 9824 e2bb 0179 febd e1a1 8c3d 52e5 99bd
00000160: ff08 6d3d 1d76 0abb 64d6 d13d 6c18 72bd
00000170: 6149 d83c 610c 9b3a 05ef 96bc e3bf cebb
00000180: e7f7 423d 446c c6bd a65e 3dbc c844 113e
00000190: c0ee 5ebd f09f 763e e2ba c6bd b28c f6bc
000001a0: 866d 2b3c 9d9f ab3d 4264 013d 3e31 92ba
000001b0: 9d9b e93d ad2f 3b3d c8ad 8b3e 0933 763d
000001c0: db57 b23d 7c2f 4bbd 7235 16be 71d1 6f3d
000001d0: c543 63bc 69f5 fa3c 7dd0 763d a324 1cbc
000001e0: b3bb b13c ed60 6f3d df53 7c3e d5bb b43d
000001f0: 9001 823d eb40 893d a53c ab3d 5e15 53bd
00000200: 995f adbd 12be 963d 9bd3 72be 4c77 363e
00000210: 1207 7ebc 0e7a 7e3d e6d6 063e 4e8b c63d
00000220: 16e0 943d b975 a23d ac1d c83d f016 933c
00000230: 21f8 203c 09b8 a43d b343 f23c 04c8 d03d
00000240: 3cd4 fd3d 11d8 043d 2104 db3e 9a3c a43d
00000250: 9008 9f3d 70a0 a2bd 999f 123e 79d4 c63c
00000260: 03d1 973c 7aa4 0dbe 2386 a0be e3d5 8ebb
00000270: 5a6f d13d 0800 cebc bc1b c23b 37c7 93bd
00000280: b729 d03d 3a54 b4bd ec06 943d c62a c03d
00000290: ce8b 713d f07b 0d3d 2cf0 813d 8688 30bd
000002a0: df06 1d3d b7a6 1cbe b7a7 35bd 8ab9 cebc
000002b0: c3b9 e63b d004 dc3d 835f bf3c a846 273d
000002c0: 38d3 233d 63bc 99bd da13 703d 9d98 e9bd
000002d0: 2265 27bd a90f a83d 2257 acbd b850 703d
000002e0: f2ac 09bc fe7c 9b3d 04e0 0dbd 4f8e e8bb
000002f0: f118 233d 036d 0bbd 314d 183b 6a12 fcba
00000300: 2495 453d 9d7d 873b 9231 ed3c ee70 cb3d
00000310: ee73 103e e1f1 3dbd 27c1 37bd 1ac4 4d3d
00000320: 78f1 21be bd2c e9bc 92ff 4d3d 5355 e13d
00000330: f46d 263d 95bd 583d e718 36bd e315 373d
00000340: 1504 133d 3a77 ed3d 729b 09be 4369 563e
00000350: 2de7 26bd d07a 283e 9a02 adbd a252 9dbd
00000360: 0263 7cbb 0e8b 443d 89c9 6c3d 451c 10bf
00000370: 7359 1b3e cb3e 9a3d 5270 443d 3e84 11bc
00000380: 5404 be3c 5acc 963d 80a9 173d 8900 743e
00000390: 2206 ba3c 1e7f 77bd 2e05 24be 66b0 1e3e
000003a0: ba4f 043e eef6 acbd 6073 e83d 1e0f fd3d
000003b0: aae8 c4bd cecd 1e3d 66a1 883d 10bc 893d
000003c0: 8f2a be3d dea8 b33b 9657 883d d186 8dbc
000003d0: c326 8f3d 04c0 ab3d 6925 42bc 9598 7d3c
000003e0: 580f 093d 3461 ab3d 5504 a93c f990 123e
000003f0: 9fa2 f33d f2fe df3a 8114 cfbd c127 4f3d

fc1.bias f4 [128]
0.43511742 0.3277965 0.43794128 0.14647506 0.41764957 -0.060015302 0.43382716 0.050401073
-0.10343797 0.25171027 0.08931671 0.5210566 0.30615497 -6.92531e-07 0.05077243 0.561478
0.510305 0.4451872 0.1810164 0.61926234 0.5041431 0.06742258 -0.07565144 0.4021402
0.42497194 0.6018542 0.15139453 0.37862408 0.37948957 0.30926102 0.5933856 0.509895
0.26441085 -0.06686359 0.61932266 0.19764672 -0.019680953 0.5113782 0.37420207 0.6652172
0.560005 0.343943 0.50574905 0.080738045 0.24909246 0.17819743 0.12789948 2.1770024e-06
0.4595026 0.3685551 -0.036733195 1.2942835e-06 -0.012418885 0.15345858 -0.074722104 0.28576016
0.5287443 0.585627 0.5510497 0.27752882 0.5547231 -0.031083705 -0.022452602 -0.07857767
0.2322176 0.44228506 0.42798975 1.5734529e-06 2.5683858e-07 0.093358286 0.48298663 0.35483345
0.3524609 0.22134222 0.6252921 -9.660923e-07 -0.108944856 0.36427695 0.38602722 0.2667525
0.18829054 0.38524368 0.27704313 0.43212754 0.24522631 0.5422727 -2.4917083e-06 0.5121083
1.31621e-06 -0.03352484 0.25010955 -0.002734307 -9.860267e-07 0.3190573 -0.11312196 0.34190923
0.4757525 0.014411108 0.1453549 0.38396287 -0.05980604 -2.3605764e-07 0.5570828 0.38296145
0.23442845 0.09463949 0.23180485 -2.4860788e-07 0.025918517 0.5451654 0.44779226 0.48791698
0.43564445 0.5342424 0.32534203 -0.024887074 0.29404417 0.6513391 -6.2465375e-08 0.3584263
0.3705272 0.36040154 0.15523916 0.2909212 0.048769645 0.2581944 -0.007567447 -2.897881e-06
00000000: b6c7 de3e f1d4 a73e d739 e03e 8ffd 153e
00000010: 2ad6 d53e 9bd2 75bd 981e de3e 5b71 4e3d
00000020: 49d7 d3bd 2be0 803e aeeb b63d f763 053f
00000030: 58c0 9c3e 5ee6 39b5 c0f6 4f3d 06bd 0f3f
00000040: 59a3 023f 94ef e33e 5d5c 393e fa87 1e3f
00000050: 860f 013f da14 8a3d 24ef 9abd 52e5 cd3e
00000060: ec95 d93e 1e13 1a3f 2b07 1b3e 04db c13e
00000070: 754c c23e 7657 9e3e 1ee8 173f 7b88 023f
00000080: dc60 873e c7ef 88bd ee8b 1e3f e763 4a3e
00000090: f339 a1bc afe9 023f 6a97 bf3e ad4b 2a3f
000000a0: 7d5c 0f3f 4c19 b03e c578 013f fd59 a53d
000000b0: 1812 7f3e 6379 363e 15f8 023e 9e18 1236
000000c0: ed43 eb3e 41b3 bc3e 8c75 16bd 3eb7 ad35
000000d0: 9478 4bbc 3f24 1d3e e707 99bd 284f 923e
000000e0: c95b 073f a7eb 153f 9811 0d3f 4218 8e3e
000000f0: 5502 0e3f 41a3 febc 85ee b7bc 54ed a0bd
00000100: 73ca 6d3e 3073 e23e 7921 db3e 6e2f d335
00000110: a0e3 8934 a132 bf3d 064a f73e bbac b53e
00000120: c175 b43e 89a7 623e 2513 203f aeaa 81b5
00000130: 7b1e dfbd 8282 ba3e 5ca5 c53e c993 883e
00000140: 3ccf 403e a93e c53e 99d8 8d3e d23f dd3e
00000150: 9b1c 7b3e 62d2 0a3f 3937 27b6 8819 033f
00000160: a2a8 b035 5851 09bd 5c0e 803e 0f32 33bb
00000170: 9f57 84b5 7a5b a33e 7cac e7bd ba0e af3e
00000180: d595 f33e 911c 6c3c ead7 143e c896 c43e
00000190: 2ef7 74bd 0877 7db4 fa9c 0e3f 8613 c43e
000001a0: 030e 703e 59d2 c13d 405e 6d3e 6878 85b4
000001b0: 1253 d43c f68f 0b3f 0745 e53e 41d0 f93e
000001c0: ca0c df3e 1cc4 083f 3b93 a63e fadf cbbc
000001d0: f58c 963e 29be 263f b424 86b3 a783 b73e
000001e0: beb5 bd3e 8d86 b83e 04f7 1e3e a0f3 943e
000001f0: aec2 473d 0e32 843e 59f8 f7bb 3779 42b6

fc2.weight f4 [81, 128]
-0.019223547 -0.0497387 -0.09955843 -0.15338734 -0.056148227 -0.0028942109 0.0012999319 -0.1312095
-0.036885787 0.015559734 -0.02079748 -0.12902014 -0.0438948 -0.04569815 -0.06312363 0.024431828
-0.028075628 -0.057223383 -0.011284142 -0.10461566 -0.12015466 -0.107711814 0.08231171 -0.04067309
-0.16110608 0.061510425 -0.089787416 -0.021468965 -0.087662004 -0.089811035 -0.019761065 -0.07307579
-0.03660939 0.014333525 -0.025833538 -0.082537696 -0.020544754 0.0466585 -0.06633095 -0.016206149
-0.17048314 -0.007347114 -0.13531953 -0.092591405 -0.014526245 -0.09858127 -0.020878969 -0.043731667
-0.08802538 -0.040834714 0.009844597 -0.11105887 -0.0037390033 -0.13017167 -0.14152099 0.00019702599
0.022475716 0.012576634 -0.005490073 -0.119018614 -0.02137977 -0.06642077 -0.076733135 0.0036793638
-0.008780272 -0.11339451 -0.094096586 -0.05740926 0.009577084 0.03582688 0.0007696876 -0.101892665
-0.119508184 -0.02033425 -0.07014494 0.013292616 0.026999902 -0.073669 -0.13097507 0.02421964
-0.12984157 -0.121133 -0.062427588 -0.1754715 -0.06061757 -0.068949066 -0.06739496 0.040644083
-0.10634013 0.06556969 0.05773552 -0.10928296 -0.08661898 -0.07072647 -0.06768234 0.0066644177
0.012830258 -0.0525602 -0.074014895 -0.0887378 0.05527573 0.0024756147 0.025573058 0.042904854
0.012387756 -0.01917187 -0.034177236 -0.035202082 -0.039767224 -0.09449082 -0.22122288 0.028512567
-0.061679643 -0.07662547 -0.02799437 -0.016900003 0.020450579 -0.08480286 -0.1995341 -0.1162006
-0.058626533 -0.23860557 -0.09379096 -0.07830795 -0.052401263 0.005506454 0.04929523 -0.13804692
0.031162677 0.076847374 -0.034761168 -0.027655214 -0.015277976 0.011417328 0.058165222 -0.09042138
-0.044936936 -0.023396531 0.0024844108 0.015972525 0.037955187 -0.05511396 -0.040868077 -0.114355735
-0.08254691 -0.14232951 -0.071374536 -0.11070754 -0.06332962 -0.04182518 0.0647799 -0.06153757
-0.108874254 0.011360305 0.018711228 -0.017515635 -0.027470332 0.011490228 -0.014154437 -0.0561834
0.086372115 0.035424504 -0.03232202 -0.01667087 -0.05476661 0.048998754 -0.064950064 -0.020858044
-0.018864725 -0.12031314 -0.07859686 0.022728682 0.00066994893 0.021612257 -0.01392955 -0.06373449
-0.11212143 -0.06911357 -0.085409045 0.012019454 -0.092104234 0.003521573 0.025111198 0.06182592
-0.0677197 -0.13071077 -0.11517575 -0.049154386 -0.101969756 0.009860498 0.035114147 0.031207468
-0.059308264 -0.03888273 0.05318807 -0.017657356 0.061427906 -0.0661669 0.09366359 -0.056540906
-0.010402606 0.046578467 -0.1016847 0.06846444 -0.00995318 0.040315084 0.04172532 -0.06896674
-0.12942478 -0.040207755 0.06009424 -0.022588002 -0.03648372 0.030176604 -0.018097986 0.028062265
-0.06690693 0.05301764 -0.005314842 -0.028516449 0.075036064 -0.112933874 -0.0660496 0.012351211
-0.12932962 -0.012124684 -0.12262785 -0.10632092 -0.024862986 0.040660907 -0.02712358 -0.017663538
-0.027113698 -0.10055668 -0.0707214 -0.17491853 -0.041112002 -0.023938354 -0.041846905 -0.0434559
0.02872047 0.025898393 -0.04549054 -0.015281456 0.09065215 -0.08274941 -0.07348461 -0.0698611
-0.05810381 -0.07636762 -0.072178066 0.06264206 -0.17568903 -0.07723386 0.074698634 0.054291803
00000000: b37a 9dbc cfba 4bbd 4ae5 cbbd 9211 1dbe
00000010: affb 65bd cdac 3dbb 7a62 aa3a c85b 06be
00000020: 8d15 17bd 41ee 7e3c 7a5f aabc db1d 04be
00000030: 09cb 33bd fc2d 3bbd f646 81bd 4225 c83c
00000040: dcfe e5bc 1163 6abd 1fe1 38bc bc40 d6bd
00000050: a513 f6bd 0398 dcbd 0b93 a83d d398 26bd
00000060: fef8 24be 5bf2 7b3d 77e2 b7bd afdf afbc
00000070: 2388 b3bd d9ee b7bd f5e1 a1bc c3a8 95bd
00000080: baf3 15bd 29d7 6a3c dba0 d3bc 8609 a9bd
00000090: 794d a8bc fc1c 3f3d 85d8 87bd c2c2 84bc
000000a0: 2293 2ebe 0fc0 f0bb 3491 0abe 90a0 bdbd
000000b0: 7dff 6dbc fae4 c9bd 5f0a abbc fa1f 33bd
000000c0: a746 b4bd 4d42 27bd 3c4b 213c d572 e3bd
000000d0: 110a 75bb b94b 05be e1ea 10be c398 4e39
000000e0: fe1e b83c 3a0e 4e3c 12e6 b3bb 08c0 f3bd
000000f0: a124 afbc 9d07 88bd 4326 9dbd 7b21 713b
00000100: 21db 0fbc 613b e8bd b6b5 c0bd f925 6bbd
00000110: 34e9 1c3c 35bf 123d dcc4 493a 1aad d0bd
00000120: b5c0 f4bd 0394 a6bc 26a8 8fbd 46c9 593c
00000130: e62e dd3c c6df 96bd 541e 06be 4468 c63c
00000140: 30f5 04be 9414 f8bd 12b4 7fbd cdae 33be
00000150: 214a 78bd 2b35 8dbd 5e06 8abd 697a 263d
00000160: dbc8 d9bd 6749 863d 157c 6c3d bfcf dfbd
00000170: 4b65 b1bd 0ad9 90bd 0a9d 8abd 3061 da3b
00000180: 0136 523c 5d49 57bd 1f95 97bd 2abc b5bd
00000190: ce68 623d ec3d 223b 977e d13c 00bd 2f3d
000001a0: 04f6 4a3c 530e 9dbc 6efd 0bbd 0f30 10bd
000001b0: f5e2 22bd 6784 c1bd 4088 62be 3093 e93c
000001c0: cba3 7cbd d0ed 9cbd 7354 e5bc e071 8abc
000001d0: f987 a73c 1fad adbd ab52 4cbe 95fa edbd
000001e0: 6022 70bd 0555 74be 7a15 c0bd eb5f a0bd
000001f0: b5a2 56bd 7c6f b43b cce9 493d 2c5c 0dbe
00000200: df48 ff3c 2862 9d3d ba61 0ebd 308d e2bc
00000210: 7a50 7abc bf0f 3b3c a83e 6e3d d82e b9bd
00000220: cb0f 38bd 15aa bfbc 7fd1 223b d0d8 823c
00000230: e676 1b3d 2dbf 61bd 4965 27bd 5733 eabd
00000240: 5b0e a9bd d4be 11be d02c 92bd a2ba e2bd
00000250: f6b2 81bd e150 2bbd 53ab 843d d20e 7cbd
00000260: 77f9 debd 9320 3a3c 4a48 993c f37c 8fbc
00000270: 7609 e1bc 8241 3c3c 03e8 67bc 9120 66bd
00000280: dde3 b03d 4919 113d 1864 04bd 5991 88bc
00000290: f452 60bd ebb2 483d 8a04 85bd 7dde aabc
000002a0: 328a 9abc bc66 f6bd 64f7 a0bd 8031 ba3c
000002b0: 839f 2f3a 300c b13c c438 64bc 3a87 82bd
000002c0: ec9f e5bd 6a8b 8dbd f0ea aebd 3eed 443c
000002d0: 25a1 bcbd 31ca 663b 00b6 cd3c 2d3d 7d3d
000002e0: a0b0 8abd 0bd9 05be 43e1 ebbd 1c56 49bd
000002f0: 85d5 d0bd ed8d 213c dad3 0f3d cea6 ff3c
00000300: 39ed 72bd 7f43 1fbd bcdb 593d 29a6 90bc
00000310: d49b 7b3d 8382 87bd b2d2 bf3d 7097 67bd
00000320: b16f 2abc 10c9 3e3d 1140 d0bd 1637 8c3d
00000330: aa12 23bc 6e21 253d 2be8 2a3d 6f3e 8dbd
00000340: ee87 04be e3b0 24bd 6125 763d 790a b9bc
00000350: f46f 15bd ed34 f73c 3a42 94bc d6e2 e53c
00000360: 8006 89bd 0629 593d 2028 aebb 549b e9bc
00000370: 82ac 993d e049 e7bd 0345 87bd bc5c 4a3c
00000380: fc6e 04be 9ca6 46bc 4f24 fbbd c8be d9bd
00000390: 76ad cbbc 0d8c 263d 4532 debc 20b3 90bc
000003a0: 8c1d debc a9f0 cdbd 62d6 90bd d81d 33be
000003b0: 0f65 28bd 5e1a c4bc a967 2bbd d0fe 31bd
000003c0: 3147 eb3c de28 d43c 4a54 3abd 125f 7abc
000003d0: d6a7 b93d 8678 a9bd 197f 96bd 5613 8fbd
000003e0: 43fe 6dbd a066 9cbd 18d2 93bd 7b4a 803d
000003f0: d3e7 33be c92c 9ebd 99fb 983d 1561 5e3d

fc2.bias f4 [81]
-0.14484306 -0.008217268 -0.02023324 -0.011630333 -0.0033246595 -0.0068045063 0.07341018 -0.07640007
0.048308965 0.058125667 -0.099429965 -0.095119655 -0.073573664 -0.07977532 -0.03822077 -0.069900714
-0.058117375 -0.019133292 -0.11912158 -0.06851283 -0.10593827 -0.07617273 -0.0696472 -0.1200881
0.02940617 -0.0047917836 0.027961375 -0.023023197 -0.009926189 -0.062979884 -0.058011293 -0.061429318
-0.04515596 -0.07635402 0.02444588 -0.0012200809 -0.13610557 -0.07194654 -0.034763988 -0.09040199
-0.041346718 0.17130508 0.0385175 -0.030282723 -0.05590893 -0.119522244 0.011168638 -0.03307741
-0.008019699 0.48080894 -0.013612378 0.028276281 -0.051107172 -0.13644058 -0.1136708 -0.11285158
-0.046236664 0.16287269 0.029681198 0.020380858 -0.07805255 0.010875722 -0.059218764 -0.096196465
-0.11862217 0.22438271 0.06794289 -0.019103173 0.08184273 0.018874003 -0.057066444 -0.007492023
-0.03211091 -0.015670981 -0.04603245 -0.057338398 0.03298768 -0.087524936 -0.017544083 0.052221727
-0.094182864
00000000: bd51 14be b8a1 06bc 2ec0 a5bc 278d 3ebc
00000010: 88e2 59bb 56f8 debb 1458 963d a477 9cbd
00000020: 9fdf 453d 2e15 6e3d f0a1 cbbd 18ce c2bd
00000030: caad 96bd 3e61 a3bd 628d 1cbd 1b28 8fbd
00000040: 7c0c 6ebd 6cbd 9cbc 04f6 f3bd 7450 8cbd
00000050: 2af6 d8bd 7300 9cbd 31a3 8ebd c0f0 f5bd
00000060: 35e5 f03c 6504 9dbb 410f e53c 259b bcbc
00000070: 74a1 22bc 99fb 80bd 409d 6dbd 4f9d 7bbd
00000080: 75f5 38bd 7f5f 9cbd ba42 c83c 1feb 9fba
00000090: 425f 0bbe b558 93bd af64 0ebd ae24 b9bd
000000a0: 2d5b 29bd 996a 2f3e 87c4 1d3d 7913 f8bc
000000b0: c300 65bd 14c8 f4bd aafc 363c 2e7c 07bd
000000c0: 0e65 03bc 972c f63e 7406 5fbc a9a3 e73c
000000d0: c155 51bd 14b7 0bbe 3dcc e8bd bb1e e7bd
000000e0: a862 3dbd 19c8 263e fc25 f33c c2f5 a63c
000000f0: 04da 9fbd 1630 323c 608f 72bd a702 c5bd
00000100: 2ef0 f2bd 95c4 653e a425 8b3d 427e 9cbc
00000110: 299d a73d a79d 9a3c 81be 69bd a57f f5bb
00000120: bb86 03bd 6e60 80bc 868c 3cbd abdb 6abd
00000130: 171e 073d 4640 b3bd 9cb8 8fbc 73e6 553d
00000140: f2e2 c0bd
