models/policy_white.pth (torch, 85880 bytes, 4 tensors)

fc1.weight f4 [128, 81]
0	0xbb83aea0	-0.0040186197
1	0x3d947200	0.07248306
2	0x3e103c5d	0.14085527
3	0x3dac4715	0.08411995
4	0x3a6a375e	0.0008934642
5	0x3cf0a09e	0.029373463
6	0x3de69c95	0.112603344
7	0xbca7b44a	-0.02047171
8	0xbd97b0c7	-0.074067645
9	0xbdba8f4d	-0.09109364
10	0xbd20bff2	-0.039245553
11	0x3c613163	0.013744685
12	0xbd4c4d20	-0.04987824
13	0x3dac9710	0.084272504
14	0x3c8908f6	0.016727906
15	0x3b61cb02	0.0034453277
16	0xbdca76cc	-0.0988594
17	0xbd486f1c	-0.048934087
18	0xbd02356f	-0.03178924
19	0xbdaa0c5c	-0.083031386
20	0x3c0fd780	0.008779407
21	0xbdc2e5a9	-0.095164604
22	0x3dea9c3a	0.11455579
23	0x3ba67934	0.0050803665
24	0x3eb0ba2f	0.34517047
25	0x3d114c5a	0.035473205
26	0x3dee509a	0.11636467
27	0x3de1d878	0.11027616
28	0xbca48d11	-0.020086797
29	0x3defcef4	0.11709395
30	0x3e06e9bd	0.13175102
31	0x3cc665ce	0.024218466
32	0x3df5dbda	0.12004824
33	0x3e1cdb54	0.15318042
34	0x3dfab245	0.122410335
35	0x3d70e5ec	0.05881302
36	0x3d828943	0.06373837
37	0x3e5696ae	0.20955917
38	0x3e11803a	0.14209071
39	0x3e0acc40	0.13554478
40	0x3d0f6479	0.035007928
41	0x3b9aba4d	0.004721916
42	0x3d8131a2	0.06308295
43	0xbdbd150e	-0.092325315
44	0xbba3cfc8	-0.0049991347
45	0x3cee8f3d	0.029121036
46	0x3d3e0b1d	0.046397317
47	0xbd177319	-0.036975
48	0xbd9bee2a	-0.076137856
49	0xbd11feb3	-0.03564329
50	0x3dad905c	0.084748
51	0xbd1869a8	-0.037210137
52	0xbdbab0d2	-0.09115757
53	0xbcfe6912	-0.03105596
54	0xbdedb49b	-0.116067134
55	0xbdc4d79c	-0.09611437
56	0x3d7ded63	0.061993968
57	0x3e3cc8de	0.18436
58	0x3b8469d5	0.0040409365
59	0x3c81776d	0.015804017
60	0x3e61a155	0.220342
61	0x3e0f253b	0.13979046
62	0x3d6202c1	0.055178408
63	0x3d649e51	0.055815045
64	0xbd792cbb	-0.060833674
65	0x3e27980a	0.16366592
66	0xbc87d651	-0.016581686
67	0x3da1d55b	0.079020225
68	0x3cc59477	0.024118645
69	0x3d13ff01	0.036131863
70	0xbd8da9c1	-0.069171436
71	0xbd844cd7	-0.064599685
72	0x3d68a968	0.056802183
73	0x3da9b90b	0.08287247
74	0xbcab9b41	-0.020948054
75	0xbd35524a	-0.04426793
76	0x3df306ef	0.11866557
77	0x3c492820	0.012277633
78	0x3d33927d	0.043840874
79	0xbdffc0a4	-0.12487915
80	0xbcf6561c	-0.030070357
81	0x3dd1a141	0.10235835
82	0x3d1b3b22	0.03789819
83	0xbde13751	-0.10996879
84	0x3d89539b	0.067053996
85	0xbdbf7da9	-0.0935014
86	0x3d2ed3eb	0.04268257
87	0x3c55d506	0.013051277
88	0xbda89610	-0.08231747
89	0x3c92d224	0.017922468
90	0xbc93dae1	-0.018048706
91	0x3d9b0f1b	0.075712405
92	0xbd1a85bb	-0.03772519
93	0xbcec3348	-0.028833047
94	0xbc82271c	-0.01588779
95	0xbd43bb0f	-0.047785815
96	0xbe12699b	-0.14298098
97	0xbe005084	-0.12530714
98	0xbd989675	-0.074505724
99	0x3d13d598	0.03609237
100	0xbd21dfb1	-0.03951997
101	0x3dcdb568	0.10044366
102	0x3cb45935	0.022015193
103	0x3d9bbe0d	0.07604609
104	0xbe542d0d	-0.2072031
105	0xbc67f3d6	-0.014157256
106	0x3cf4df82	0.029891733
107	0x3d096a50	0.033548653
108	0xbce22234	-0.0276042
109	0xbe3a6284	-0.18201643
110	0xbdc2dd34	-0.095148474
111	0x3ca733c9	0.020410435
112	0x3c93e7e6	0.018054914
113	0x3d836218	0.06415194
114	0x3d9fc33c	0.0780091
115	0xbb57b4a8	-0.0032914076
116	0xbd90270f	-0.070387
117	0xbde53cc4	-0.11193231
118	0x3d708fc2	0.058730848
119	0xbdccad22	-0.0999396
120	0xbdf9a46d	-0.12189565
121	0xbc24a694	-0.010049481
122	0x3dbcc8a4	0.09217957
123	0xbe386624	-0.18007714
124	0xbd990a12	-0.07472624
125	0xbd4d244a	-0.050083436
126	0x3a9d1cdc	0.001198675
127	0x3c349793	0.011022466
128	0x3cd6d966	0.02622671
129	0xbd96484d	-0.07338009
130	0xbd8f2539	-0.069895215
131	0xbe230b49	-0.15922274
132	0xbd822c97	-0.06356161
133	0xbd7d3c3d	-0.061825026
134	0xbde01842	-0.10942127
135	0x3dc35ea3	0.09539535
136	0x3b2fc30e	0.0026819143
137	0x3ba9585e	0.005168005
138	0x3d9a69c7	0.07539707
139	0x3c8b3ff6	0.016998272
140	0xbe79092e	-0.24319908
141	0x3c93ffea	0.018066365
142	0xbcecea6b	-0.028920373
143	0xbd927e18	-0.07152957
144	0x3cc1f2b6	0.023675304
145	0xbdef2040	-0.11676073
146	0xbd2f2756	-0.042762123
147	0xbd8f93f5	-0.070106424
148	0xbdb4ee39	-0.088345
149	0x3d4bf251	0.049791638
150	0x3d593f01	0.0530386
151	0xba22a945	-0.00062050327
152	0xbde7b032	-0.113129035
153	0x3c2ef8e0	0.010679454
154	0xbdde1d0d	-0.10845385
155	0x3d774648	0.06036976
156	0x3bed63dc	0.00724457
157	0xbc2843a5	-0.010270034
158	0x3ddc3a0b	0.10753258
159	0xbd74c585	-0.05975868
160	0x3cbdd678	0.023173556
161	0x3caf1a7a	0.02137493
162	0xbda278ca	-0.07933195
163	0x3d021c0a	0.03176502
164	0xbcc37fa5	-0.023864577
165	0x3d96957f	0.07352733
166	0xbd9c8e42	-0.07644321
167	0xbe127a11	-0.14304377
168	0x3de9796b	0.11400112
169	0xbdf02400	-0.117256165
170	0x3c297a38	0.010344081
171	0xbdbb2f36	-0.09139864
172	0xbdacb999	-0.084338374
173	0xbdcf7a70	-0.10130775
174	0x3dd859c0	0.105639935
175	0xbd8d9b3e	-0.06914376
176	0x3e0acf7f	0.13555716
177	0x3bf0e7ca	0.00735185
178	0xba56d764	-0.0008195548
179	0x3d8e0bcf	0.06935846
180	0xbdc18595	-0.09449307
181	0x3e21d323	0.15803199
182	0xbd2acb19	-0.041697595
183	0x3da639dd	0.08116505
184	0x3df8d3da	0.121497825
185	0x3debf00e	0.11520396
186	0x3dcf54d5	0.10123602
187	0xbe072878	-0.13199031
188	0xbde8816c	-0.1135281
189	0x3d9bb7ee	0.07603441
190	0xbd812441	-0.06305743
191	0xbde439c0	-0.111438274
192	0x3e2b1b99	0.16709746
193	0x3d95753a	0.0729775
194	0xbddeeabd	-0.108846165
195	0x3e16438f	0.14674209
196	0xbd1c262a	-0.038122334
197	0xbd8bf8fd	-0.068346
198	0x3e0a9afa	0.13535681
199	0xbd8bda66	-0.068287656
200	0xbe3b3716	-0.18282732
201	0x3d8161ae	0.06317459
202	0x3d7c54e4	0.061604396
203	0xbdc0fea5	-0.094235696
204	0xbd72bbc5	-0.059261102
205	0xbd0a6d6b	-0.033795755
206	0x3c6b4f9f	0.014362245
207	0xbd844d91	-0.06460107
208	0xbce7e3e8	-0.028306916
209	0x3d76fe09	0.06030086
210	0xbdaa0f66	-0.08303718
211	0xbd88c83c	-0.06678817
212	0x3de6a1dc	0.11261341
213	0xbdd6c1ea	-0.10486205
214	0xbdda9585	-0.1067305
215	0x3dccbc5b	0.099968635
216	0x3d6aa419	0.057285402
217	0xbd13e145	-0.036103506
218	0x3d3be377	0.045871224
219	0xbc480c63	-0.0122099845
220	0x3d551f1c	0.05203162
221	0x3dce0729	0.100599594
222	0xbe316610	-0.1732409
223	0xbcfd9ce2	-0.030958597
224	0xbde80c69	-0.11330492
225	0xbd46cfbc	-0.048537955
226	0x3dd60750	0.104506135
227	0x3d4d0d0d	0.050061274
228	0xbcbe18fa	-0.02320527
229	0x3d02f999	0.031976316
230	0x3d6e8dbd	0.05824064
231	0x3da90dcc	0.08254585
232	0xbbe22859	-0.0069017825
233	0xbd60b5ee	-0.054861
234	0x3e05787a	0.1303424
235	0x3dbd6e36	0.09249537
236	0xbdc3631c	-0.09540388
237	0x3dd6e567	0.10492974
238	0xbc286db2	-0.01028006
239	0x3e005d06	0.12535486
240	0xbd0d5623	-0.034505975
241	0x3db1e664	0.08686522
242	0x3cf487d8	0.029849932
243	0x3d2f6c50	0.042827904
244	0x3c591652	0.0132499505
245	0x3d9224e5	0.07135943
246	0x3e0eb060	0.13934469
247	0x3d5be03d	0.053680647
248	0x3d868a0a	0.065692976
249	0x3e356c3a	0.17717066
250	0x3ddff034	0.10934487
251	0xbc9d13c4	-0.019174464
252	0x3e09d162	0.1345878
253	0xbdb34358	-0.08753079
254	0xbd670966	-0.056405447
255	0x3de440f6	0.11145203

fc1.bias f4 [128]
0	0x3e445e0b	0.191765
1	0xbde2dcba	-0.110772565
2	0xbd8eff57	-0.06982296
3	0x3d99dbf0	0.07512653
4	0x3eeafecb	0.45897517
5	0x3e4b2e1f	0.19841813
6	0x3eb1e8ea	0.34748012
7	0x3ef4cf43	0.47814378
8	0x3e647a42	0.22312263
9	0x3efd2ec9	0.49449757
10	0x3ed2c7d7	0.4116809
11	0x3ee3915e	0.44446844
12	0x3ef1160c	0.47087133
13	0x3eb7c539	0.35892656
14	0x3f03bbfc	0.51458716
15	0x3f0d1667	0.5511231
16	0x3ea5700f	0.32312056
17	0x3edf7cf4	0.4365002
18	0x3f0708b0	0.5274763
19	0x3f078839	0.52942234
20	0x3f12ec56	0.5739187
21	0x3ebeea63	0.37288198
22	0x3e604ff5	0.21905501
23	0xbdc09a47	-0.09404426
24	0x3ec81960	0.3908186
25	0xbd115c88	-0.035488635
26	0x3ec5287e	0.38507456
27	0x3f031320	0.5120106
28	0x3eb36333	0.3503662
29	0x3e8cd7cf	0.275084
30	0x3f01c459	0.5069023
31	0x3f002557	0.50056976
32	0x3f1eafce	0.61987007
33	0x3edc99aa	0.43085986
34	0xbe1a2d09	-0.15056242
35	0x3ec95421	0.39321998
36	0x3e7c382b	0.24630801
37	0x3f2cc1b6	0.6748308
38	0x3f018890	0.50599
39	0x3f03d411	0.5149546
40	0x3ef92157	0.4865825
41	0x3e9bf84f	0.30462882
42	0x3f002f1c	0.50071883
43	0x3ee3f2d0	0.4452119
44	0x3e641174	0.22272283
45	0xbe0d1aec	-0.13779801
46	0x3eccadd3	0.39976367
47	0x3ee59d7d	0.44846717
48	0x3e35fe2a	0.17772737
49	0x3ee08c22	0.43856913
50	0x3ee221cd	0.44166413
51	0x3e91f5e2	0.28507906
52	0x3ed9d405	0.4254457
53	0x3ebcc462	0.36868578
54	0x3ed2fb17	0.4120719
55	0x3e9a078d	0.30083886
56	0x3ed12908	0.40851617
57	0x3e78e32a	0.24305406
58	0x3f14283c	0.5787389
59	0x3ee9aac9	0.4563811
60	0x3eca2235	0.39479223
61	0x3f0a7956	0.54091394
62	0x3d41054c	0.047124192
63	0xbd8082bd	-0.06274936
64	0x3e86a80f	0.26300094
65	0x3f019dfd	0.50631696
66	0xbcfff7f8	-0.03124617
67	0xbe04736d	-0.12934656
68	0x3ef095b9	0.4698923
69	0x3e9a1727	0.3009579
70	0x3ec486af	0.38384005
71	0x3ed8dd18	0.4235618
72	0x3edc3460	0.4300871
73	0x3d909407	0.07059484
74	0x3f0e72ce	0.5564393
75	0x3e6fcfb5	0.23419078
76	0x3ec2abd8	0.3802173
77	0x3da8fff2	0.08251943
78	0x3efcf65e	0.49406713
79	0xbc26c529	-0.010178843
80	0x3f156d6a	0.5837008
81	0x3ec91fa1	0.39281943
82	0x3ec1538f	0.37759063
83	0x3f02e3a7	0.5112862
84	0x3e90d2a0	0.28285694
85	0x3eca0cd6	0.39462918
86	0x3d9017dd	0.070358016
87	0x3eca4697	0.3950698
88	0x3f03d2c1	0.5149346
89	0x3e889ffb	0.26684555
90	0x3ea7a271	0.3274112
91	0x3ebd5691	0.36980107
92	0xbcb29f74	-0.021804549
93	0x3ef8e556	0.4861247
94	0x3f0551a7	0.52077717
95	0x3f04e2ca	0.5190855
96	0x3ef2d6b1	0.47429422
97	0x3e86ccb9	0.26328066
98	0x3f1b55b7	0.60677665
99	0x3ec4a810	0.38409472
100	0x3eae0059	0.3398464
101	0x3ecb5b58	0.39718127
102	0x3ee1fa28	0.44136167
103	0x3ef99f4a	0.4875434
104	0x3ebe233e	0.37136263
105	0x3f1d3d96	0.614221
106	0x3eb173a0	0.34658527
107	0x3ef7d096	0.48401326
108	0x3e51d8d8	0.20492876
109	0xbde12cf9	-0.10994906
110	0x3ebace49	0.36485508
111	0x3eaf8e75	0.34288374
112	0x3ecad159	0.39612845
113	0x3ef7896b	0.4834703
114	0x3ecd4da5	0.400983
115	0x3ecb247b	0.3967627
116	0x3f2968f7	0.6617579
117	0x3e943e74	0.28953898
118	0x3eb290ab	0.34875998
119	0x3ea6ab03	0.32552347
120	0x3efd0ee4	0.49425423
121	0x3e1ea704	0.15493399
122	0x3e703716	0.23458514
123	0x3ee27d18	0.44236064
124	0x3eb5afdb	0.3548573
125	0x3edc0302	0.42971045
126	0x3ef559f9	0.47920206
127	0x3e563441	0.20918371

fc2.weight f4 [81, 128]
0	0xbdeec410	-0.1165849
1	0x3cf5ae84	0.029990442
2	0x3c892708	0.016742244
3	0x3b0cbd38	0.0021475088
4	0xbe37f411	-0.17964198
5	0xbdc89e44	-0.09795812
6	0xbd0016c9	-0.03127173
7	0x3c77f34d	0.015133691
8	0xbd9bbfe8	-0.076049626
9	0xbd116703	-0.03549863
10	0xbdd168ea	-0.10225089
11	0xbd1e10a0	-0.038590074
12	0x3c4aa6db	0.012368883
13	0xbdc2a9e3	-0.095050596
14	0xbe01dc42	-0.12681678
15	0xbdb3b3da	-0.08774538
16	0x3d5f8f10	0.054579794
17	0xbdb7dfa2	-0.089782014
18	0xbdc0493c	-0.09388968
19	0x3b856534	0.0040709022
20	0xbdd48afb	-0.10378071
21	0xbdcfe8cf	-0.101518266
22	0xbce41b18	-0.02784495
23	0xbd07ef1c	-0.033187017
24	0xbd89bd3a	-0.06725545
25	0xbde43ba8	-0.11144191
26	0xbd8e6714	-0.06953254
27	0xbe36beb3	-0.17846183
28	0xbd35660b	-0.04428677
29	0xbdb7eaf3	-0.0898036
30	0xbd5887d0	-0.052863896
31	0xbdc58259	-0.096440025
32	0xbd5c044b	-0.05371503
33	0xbe106a94	-0.14103156
34	0xbd005d5a	-0.031339027
35	0x3c649904	0.013952497
36	0x3c9629c7	0.018330468
37	0xbdc85f7b	-0.097838365
38	0xbca782c3	-0.020448094
39	0xbda0d644	-0.07853368
40	0x3b954552	0.0045553828
41	0xbc4fe885	-0.012689714
42	0xbe33c920	-0.17557192
43	0xbd0e4bb6	-0.034740172
44	0xbd42e5cf	-0.047582444
45	0xbc76c8ad	-0.015062493
46	0xbdccd086	-0.1000071
47	0xbc9dba54	-0.019253887
48	0x3d078892	0.033089228
49	0xbe1ee9c6	-0.15518865
50	0xbe0e033b	-0.1386842
51	0xbd9d739b	-0.076880656
52	0xbdadef48	-0.08492905
53	0x3c2b0d20	0.010440141
54	0xbd8a41ad	-0.06750808
55	0xbd591b1f	-0.05300438
56	0x3cefd31b	0.029275468
57	0xbd835296	-0.064122364
58	0xbd85b8db	-0.06529399
59	0x3d6511d1	0.055925194
60	0xbdaa54c0	-0.08316946
61	0xbde22787	-0.110426955
62	0xbd79d46a	-0.06099359
63	0x3cd551c5	0.026039967
64	0xbdb1f64d	-0.08689556
65	0xbd23497a	-0.039864995
66	0x3d8e9105	0.06961254
67	0x3da0c993	0.07850947
68	0x3cb1d6c7	0.02170886
69	0xbdc746e3	-0.097303174
70	0xbcc316e6	-0.02381463
71	0xbd13885f	-0.036018725
72	0xbddc32e8	-0.10751897
73	0xbbc642ee	-0.006050459
74	0xbd097fbf	-0.033569094
75	0xbd1d6971	-0.038430635
76	0xbd08305b	-0.03324924
77	0x3be7d7c8	0.0070752837
78	0xbe05e77a	-0.13076583
79	0x3ca1a30a	0.019731063
80	0xbcc2a1a2	-0.023758713
81	0xbd7e6f42	-0.062117822
82	0xbd0e3dcb	-0.0347269
83	0xbd9704bd	-0.07373951
84	0xbd03c126	-0.032166623
85	0x3cfe0d01	0.03101206
86	0x3d749d34	0.059720233
87	0xbd1ba9fd	-0.03800391
88	0xbc73800b	-0.014862071
89	0xbe0ccd58	-0.13750207
90	0xbdd6adee	-0.10482393
91	0x3d2b5034	0.041824535
92	0x3cbe0489	0.023195522
93	0xbde0d34a	-0.109778
94	0xbe11046f	-0.14161848
95	0xbcf2877f	-0.029605625
96	0xbdb9139d	-0.09036944
97	0x3c539411	0.01291372
98	0xbe2f4a48	-0.1711818
99	0xbd28494e	-0.041085534
100	0xbdf4d57d	-0.11954782
101	0x3cd0e3a7	0.025499178
102	0xbe13c67d	-0.14431186
103	0xbdbc0648	-0.091808856
104	0xbcc2648f	-0.02372959
105	0xbcfceb94	-0.030874051
106	0xbc2671fd	-0.010159013
107	0xbcf49f5b	-0.029861143
108	0xbce78a7f	-0.028264282
109	0xbcf3535f	-0.02970284
110	0xbcd4b7a9	-0.025966482
111	0x3b46cbbd	0.003033384
112	0xbc1a0fd0	-0.009403184
113	0xbd38929f	-0.045061704
114	0xbdb51b9c	-0.08843157
115	0x3c7cb99b	0.015425111
116	0xbc8fd874	-0.017559268
117	0xbde6bab6	-0.11266081
118	0x3cc29c05	0.023756037
119	0xbc6c9f9f	-0.0144423535
120	0xbd572759	-0.05252776
121	0xbd792e7c	-0.060835347
122	0xbde6b762	-0.11265446
123	0x3d52dd19	0.051480386
124	0xbd23531b	-0.039874177
125	0xbe335638	-0.17513359
126	0xbe1a7c3b	-0.15086453
127	0xbd549c80	-0.051907063
128	0xbdae3d9b	-0.08507844
129	0xbb713cea	-0.003680999
130	0xbe107c4e	-0.14109918
131	0xbd6571f8	-0.056016892
132	0x3b79da5b	0.0038124535
133	0xbc2c7565	-0.010526036
134	0x3d0aa174	0.03384538
135	0x3d638269	0.05554429
136	0x3d2c384a	0.04204587
137	0xbdc0f52c	-0.09421763
138	0xbe3ac120	-0.18237734
139	0x3d70039f	0.058597203
140	0x3beda933	0.007252836
141	0xbde26702	-0.110548034
142	0xbd94b5d9	-0.07261247
143	0xbd827a41	-0.06370974
144	0xbcd92412	-0.026506457
145	0xbb666f36	-0.0035161502
146	0xbd8f0abc	-0.06984469
147	0xbde9fe30	-0.114254355
148	0xbd1aecb2	-0.037823386
149	0xbd242b29	-0.040080223
150	0xbcdbc32c	-0.026826464
151	0xbd89926e	-0.06717382
152	0x3ccb3f5e	0.02481049
153	0xbde35f51	-0.111021645
154	0xbce0d97e	-0.027447458
155	0x3d832af4	0.06404677
156	0xbd5f9f38	-0.054595202
157	0xbd1feeb5	-0.03904601
158	0xbd2fb6e9	-0.042899046
159	0x3cc46658	0.023974583
160	0xbd4cb878	-0.04998061
161	0xbe263136	-0.1622971
162	0x3c1ec6ce	0.009690953
163	0xbd2c050d	-0.041997004
164	0x3d57b4b3	0.052662563
165	0xbddcf7d5	-0.10789458
166	0x3d0cfc56	0.034420334
167	0xbd103fb8	-0.035217017
168	0xbd13061e	-0.035894506
169	0x3d2378bb	0.03991006
170	0xbcf51b81	-0.029920341
171	0xbd4ec9d6	-0.050485454
172	0xbded27c8	-0.11579853
173	0x3d327cf5	0.0435762
174	0x3d2621d2	0.040559597
175	0xbd104dd0	-0.035230458
176	0xbd036c69	-0.03208581
177	0xbb431944	-0.0029769698
178	0x3cf685f0	0.030093163
179	0x39e4a193	0.0004360793
180	0xbc7792d1	-0.015110687
181	0xbdcafdd7	-0.09911697
182	0xbd397d5e	-0.045285575
183	0x3d2046f5	0.03913017
184	0xbdfe96b5	-0.12431089
185	0xbd165173	-0.03669877
186	0xbe2ce51c	-0.16884273
187	0x3b86ebf1	0.004117482
188	0xbc85e47c	-0.016344301
189	0xbda6ede2	-0.08150841
190	0xbdb48364	-0.08814123
191	0xbde465ed	-0.11152253
192	0x3cd411ae	0.025887337
193	0x3d4ce52b	0.05002324
194	0xbd89e75e	-0.06733583
195	0xbd86cddf	-0.065822355
196	0x3cc355c2	0.023844603
197	0xbc5ed4ab	-0.013600509
198	0xbe146aa9	-0.14493813
199	0x3cfbf506	0.030756485
200	0x3b9e6017	0.004833232
201	0x3c6da0df	0.014503687
202	0xbd9743bb	-0.073859654
203	0xbce62559	-0.02809398
204	0x3c19a4ec	0.009377699
205	0xbd88a24f	-0.06671583
206	0xbd1789e5	-0.03699674
207	0xbd96c400	-0.07361603
208	0xbd7372dc	-0.05943571
209	0xbe0ab907	-0.13547145
210	0xbd4d243a	-0.050083376
211	0x3a0d2263	0.0005383847
212	0xbdb76644	-0.089550525
213	0x3cfbf92f	0.030758468
214	0xbc065214	-0.00819828
215	0xbd219263	-0.039446246
216	0xbda3ff60	-0.08007693
217	0xbe00dbdf	-0.12583874
218	0xbdf1b065	-0.11801223
219	0xbca68c82	-0.020330671
220	0xbd5923b6	-0.053012572
221	0x3c9de657	0.019274874
222	0xbc5f94d1	-0.01364632
223	0x3c82f419	0.015985535
224	0xbd7c0853	-0.061531376
225	0xbcc07eba	-0.023497928
226	0xbd91a0a4	-0.07110718
227	0xbdc573a0	-0.09641194
228	0xbe210101	-0.15723039
229	0x3d1e6bc0	0.038676977
230	0xbd984e25	-0.0743678
231	0xbd8eee62	-0.06979062
232	0x3d60375f	0.054740306
233	0xbd25e0c4	-0.040497556
234	0xbd8d7fa8	-0.06909114
235	0xbddd4728	-0.108045876
236	0xbcddde9d	-0.02708369
237	0x3c3dd443	0.011586252
238	0x3cbeb076	0.023277503
239	0x3d584455	0.05279954
240	0xbb152bbd	-0.0022761666
241	0x3d4381a0	0.047731042
242	0xbddf8a7b	-0.10915085
243	0xbde825ac	-0.1133531
244	0xbe144a39	-0.14481439
245	0x3c91850d	0.017763639
246	0xbe25c842	-0.16189674
247	0xbd9c6117	-0.07635706
248	0xbdde3e47	-0.10851722
249	0x3dae44e8	0.085092366
250	0xbdd108c9	-0.10206754
251	0xbadf1813	-0.0017020724
252	0xbdd8b00a	-0.10580452
253	0xbda167bb	-0.07881113
254	0xbd7a815a	-0.061158516
255	0xbde26179	-0.11053748

fc2.bias f4 [81]
0	0xbdd616ef	-0.10453593
1	0xbdc287cb	-0.09498557
2	0x3c9255e5	0.017863223
3	0xbd95364e	-0.072857484
4	0xbdee5981	-0.11638165
5	0xbe071819	-0.13192786
6	0xbd8a30eb	-0.067476116
7	0xbda8f9ca	-0.082507685
8	0xbdbda246	-0.09259467
9	0x3ce61360	0.02808541
10	0xbc963b6b	-0.01833888
11	0xbd861ca5	-0.06548432
12	0xbdc71c8d	-0.097222425
13	0xbb2fffbf	-0.0026855317
14	0x3d842182	0.064517036
15	0x3cf1719b	0.029473117
16	0xbd68923a	-0.056780078
17	0xbb4cb2f1	-0.0031234587
18	0xbbf4e7e1	-0.007473931
19	0xbd19c928	-0.037545353
20	0xbb8b3053	-0.004247704
21	0xbd82b562	-0.06382252
22	0x3d98ce75	0.074612536
23	0x3c4cbba0	0.012495905
24	0x3ebb3df6	0.3657071
25	0xbd486aaf	-0.048929866
26	0x3d486b16	0.04893025
27	0xbd34d2fc	-0.044146523
28	0xbdd87322	-0.10568835
29	0x3d15d7bf	0.036582705
30	0x3d1f08b5	0.038826663
31	0x3cbaf9f0	0.022824258
32	0x3c469fd9	0.012123072
33	0x3dab028e	0.08350097
34	0x3d9d4122	0.07678439
35	0x3d7cee46	0.061750673
36	0xbe04902d	-0.12945624
37	0x3d9bb052	0.0760199
38	0xbc0847d4	-0.008317906
39	0x3dbb6bb2	0.091514006
40	0xbca2d781	-0.01987815
41	0x3de20955	0.11036936
42	0xbd9d3a2e	-0.076771125
43	0x3d22f7e1	0.039787177
44	0xbcd48a18	-0.025944754
45	0xbdb1280c	-0.086502165
46	0x3d076f22	0.03306497
47	0xbb19e550	-0.0023482628
48	0x3d98e8b3	0.07466259
49	0x3da4e983	0.08052351
50	0x3c7bd5ba	0.015370781
51	0x3db100f0	0.08642757
52	0xbdd33af2	-0.10313977
53	0xbdc028fb	-0.093828164
54	0x3b9b2841	0.0047350232
55	0xbd8d0b38	-0.068869054
56	0xbd57a909	-0.05265144
57	0x3c60bb0e	0.013716472
58	0xbc746c21	-0.014918358
59	0x3cf9bc19	0.0304852
60	0xbda07422	-0.078346506
61	0xbd83939d	-0.064246394
62	0xbdd70a35	-0.10499994
63	0xbdf82be7	-0.12117749
64	0xbcadf1f3	-0.021233534
65	0x3d36a61b	0.044592004
66	0x3ac70289	0.0015183251
67	0x3da37bfd	0.07982633
68	0xbdc4dd8e	-0.09612571
69	0x3d283be0	0.041072726
70	0xbcb9b524	-0.022669382
71	0xbdc25be5	-0.09490184
72	0x3d3e57bb	0.046470385
73	0x3cbcae21	0.02303225
74	0x3ce274de	0.027643617
75	0xbcd86c08	-0.0264187
76	0xbdfe30d8	-0.1241166
77	0xbd9e1350	-0.07718527
78	0xbd84ed23	-0.06490543
79	0xbca04ff1	-0.019569369
80	0x3d2a9955	0.041650135
