models/policy_agent_trained_2025_01_31_06_31_59.pth (torch, 53272 bytes, 4 tensors)

fc1.weight f4 [128, 49]
00000000: 5748 80bd db0a 5fbc d0d1 523d 5f5a 31bd
00000010: 873d c23d 4d6e 8f3d 5f70 bc3d 2e40 2fbe
00000020: dd22 bfba 01e5 503e cb79 13bd 73b2 dcbd
00000030: 0159 c53d 6830 b83b ea13 6a3d 1153 2c3e
00000040: acd9 9ebd f672 1a3e 01b4 ec3d 9e5f 44be
00000050: d27a e4bd 1348 b83d 1d2f aebd cc91 053e
00000060: 12a3 0f3e 99ae 1a3c a81c 3fbe ddaa 1fbe
00000070: 3167 123e 2ede 39bd 31b4 e2bc 6e77 1bbe
00000080: 52b6 48be c724 2fbe 5cf3 5cbc 9b0e d23d
00000090: 8f7e b6bd 2185 553c e80f b5bd 02ea e3bd
000000a0: 7319 46be 2b3e a4bc d480 58be c421 16bd
000000b0: 1694 84bd 0e2a 1bbe 33ad efbc b483 303d
000000c0: f525 0f3e 8cf4 4f3d 5d6a d1bc 7aca f1bd
000000d0: 07a5 923d ca17 27bd bdca b8bd 7f27 2dbe
000000e0: 7e9e 05be 315e d6bd 350f 9ebd 7848 36be
000000f0: 562a d2bd c5c2 3dbe 5500 cfbd 658d 1ebd
00000100: 4ae4 123d 1366 f0bd 1c79 63be c111 373e
00000110: afae 0fbe 06ee 4ebd 8e46 01bd 223d f03c
00000120: 2845 e4bd 4b5a 653e 4f90 8ebc 92bc 46bd
00000130: e982 053c 4e6e 00be 764d 5a3d 935a d03b
00000140: 56fd 1abe f9f2 80bd 2dcf 2fbe ecb5 febc
00000150: 2854 5cbd f040 4f3d 5ab4 88bd 343d 4abe
00000160: 8cc9 a73d 23f4 79bd 43ea 51be 8251 94bd
00000170: 9694 aebd 4a9f b13d c3ad e63c 1dce c43d
00000180: de0e 0fbe 5981 893d 3949 e9bd bb8e b8bd
00000190: 1890 083d d7f5 8b3d fd43 d9bd 9f18 56bd
000001a0: 4093 10bd 28de 26be 2f17 f4bd 81e6 70be
000001b0: e468 ecbd d4db 273e 62b4 2e3e 90c2 e23d
000001c0: 351a 5ebe 43ef 2dbe 4d09 07be 424a b33c
000001d0: 001a 42bd 83f4 dfbd 0147 663d 174c 23bd
000001e0: e05f 2cbe 6587 1e3e 976a 51bd b367 24bd
000001f0: 2c4f 623e 8b57 efbd 32bb 9e3d ba17 103e
00000200: 5d3a 123e 34ff 863d 7d2b 2f3d c1d5 62bd
00000210: 01da 963c 2d0b bbbd 5ef7 dfbd 12a3 3e3d
00000220: 6b6b 333d fcda e23c 2858 68be 1a0a 463d
00000230: cd25 9d3d 0231 ed3d e056 04be a8a5 ec3d
00000240: fb18 93bd 2565 173c 44d3 f8bc 6976 263b
00000250: fd55 cebd 78ca 223d 1400 c7bd e02c 01be
00000260: 89e0 2dbe 2c42 0bbe 7e09 22bd d863 8bbd
00000270: 40d6 8ebd 910f 25be d9fa 55bd 3c71 1bbe
00000280: 7127 97bd 425f acbd aaf6 9ebd e1f7 f9bd
00000290: 8aac 2a3e 26d7 25be 2bf7 1cbd 748a 0bbe
000002a0: aa6e 40be c4d8 80be 5b6b 84bc 9b6f cd3d
000002b0: 90b8 e73c 583f e9bd e306 86bd f84e 01bd
000002c0: 53c3 0cbe ca30 27bc 983b a9bd 3124 133e
000002d0: b439 cdbd a9fc 1e3d eda9 9fbd 6ee9 483b
000002e0: b2c1 373b 29b9 d13d 6bb3 12be aae1 76be
000002f0: 7a1e 96bd 68a9 87bd 0147 073e 4544 9dbd
00000300: cd3b 9a3c 96c6 823d 0904 b13a fe5d 66bd
00000310: 4a0f 6d3e c0f4 e2bc 3f4f af3d 7f13 393d
00000320: a0d4 75bc 52f1 0f3d ccf5 af3d 972d 0fbe
00000330: cdf6 073d 7748 49ba aac9 25be 2ba4 e1bb
00000340: 0d2a 743c f573 e03d 469f a03d c11e 38bb
00000350: 53aa 02be 9608 923d 5c6b 833d 9adb 253d
00000360: 5e04 1a3e e929 c0bd 15c6 fa3c b7f8 9abe
00000370: 4c06 90bd f09c ddbd 06f1 d13d 5e48 c9bd
00000380: 8255 c73d 9dc4 93bc 8880 38be 666f 77bd
00000390: e519 aebd d910 b6bc fb97 d6bd 2591 d93d
000003a0: a9c3 80bd 13d4 a2bd 4501 31be f848 d83d
000003b0: af11 95be 89cf 49bd 77a7 283e 3f3b f93d
000003c0: 2785 c6bd afe3 86be c7c5 1bbe 40d5 a9bc
000003d0: ce35 b2bd a9b8 943c b061 8f3d a68c b83d
000003e0: 2afe 563d aeb5 1dbe 55cc 1e3d ea1a 2cbe
000003f0: bef2 29bc 5eff 2ebd cada b2bd 8632 dfbd
-0.06263798 -0.013613428 0.051469624 -0.043299075 0.09484392 0.0700346 0.092011206 -0.17114326
-0.0014582534 0.20399858 -0.036004823 -0.10776224 0.09636117 0.005621005 0.057147898 0.16828562
-0.07756361 0.15082917 0.115577705 -0.191771 -0.111562386 0.08998122 -0.0850508 0.13043898
0.1402705 0.009441041 -0.18663275 -0.15592523 0.14297177 -0.045377903 -0.027673813 -0.15182278
-0.196008 -0.17103873 -0.013485756 0.10256692 -0.08910858 0.013032229 -0.088409245 -0.11128618
-0.19345646 -0.020049175 -0.21142894 -0.036653295 -0.06473558 -0.15152761 -0.029257393 0.043094352
0.13979323 0.050770327 -0.025563413 -0.118061975 0.07160383 -0.04079417 -0.09023044 -0.16909598
-0.13048741 -0.10467184 -0.07717744 -0.17801082 -0.10261981 -0.1853133 -0.10107485 -0.038709063
0.035862245 -0.11738219 -0.22214168 0.17877866 -0.1403148 -0.050519966 -0.031561427 0.029326025
-0.11146003 0.22397725 -0.017402796 -0.04851968 0.008148887 -0.12542078 0.05329653 0.0063584535
-0.15135702 -0.06296343 -0.17168875 -0.031092606 -0.053791195 0.05059904 -0.06675024 -0.1974991
0.08192739 -0.061023843 -0.2049952 -0.07242109 -0.08524434 0.0867296 0.028159028 0.096096255
-0.13970515 0.06714124 -0.11390919 -0.09011599 0.033340544 0.068339996 -0.10608671 -0.052269574
-0.03529668 -0.16295683 -0.119184844 -0.2352543 -0.11543444 0.16392452 0.17060998 0.11072266
-0.21689685 -0.16985802 -0.13187142 0.021885995 -0.047388077 -0.10935309 0.05622006 -0.039867487
-0.16833448 0.15481336 -0.051127043 -0.040137958 0.22100514 -0.11686619 0.077505484 0.14071551
0.14280076 0.06591645 0.042766083 -0.055379633 0.0184145 -0.09132991 -0.109358534 0.046542235
0.043803614 0.02769231 -0.22689879 0.048349477 0.076732256 0.11581613 -0.12923765 0.11555034
-0.07182499 0.009240423 -0.030374177 0.0025400168 -0.10074995 0.03974387 -0.09716812 -0.12614775
-0.16980185 -0.13599461 -0.039559834 -0.06806153 -0.06974459 -0.1611922 -0.05224118 -0.15179914
-0.0738057 -0.084166065 -0.07761891 -0.12205482 0.16667381 -0.16195354 -0.038321655 -0.13627034
-0.18792215 -0.2516538 -0.016164472 0.10031053 0.028286248 -0.11389035 -0.06544282 -0.03156945
-0.13746385 -0.010204503 -0.0826332 0.14369275 -0.100207716 0.038815174 -0.07796083 0.0030656713
0.0028039035 0.102403946 -0.14326255 -0.24109522 -0.07330032 -0.066241086 0.1321068 -0.07679037
0.018827343 0.063855335 0.0013505231 -0.05624198 0.23150364 -0.027704597 0.08560037 0.04518461
-0.015004307 0.03514225 0.08591804 -0.13982235 0.033194352 -0.00076783396 -0.1619021 -0.0068860254
0.014902604 0.10959617 0.07842879 -0.0028094503 -0.12760286 0.07130544 0.064169616 0.04049263
0.15040728 -0.09382994 0.030612031 -0.3026788 -0.07032451 -0.10820949 0.1025105 -0.09828256
0.09733106 -0.018038088 -0.18017781 -0.060408972 -0.08501033 -0.02222483 -0.10478207 0.10623387
-0.06287319 -0.07950606 -0.1728564 0.10560793 -0.29115054 -0.049270187 0.16470133 0.121695034
-0.096933655 -0.26345584 -0.15212165 -0.020731568 -0.08701669 0.01815446 0.07001054 0.090112016
0.052488483 -0.15401337 0.038769085 -0.16807142 -0.010372816 -0.042724006 -0.08733137 -0.108983085

fc1.bias f4 [128]
00000000: 1cb0 513a 2b2a 9c3e aa7c 0ebc 6f99 043f
00000010: 72ad 0a3f efeb ad3c 4739 8a3e 5b05 0fbe
00000020: 2f11 4e3b 192a 013d 8715 573e 98ff 183d
00000030: a3c7 8a3d e931 d83e a4d9 dc3e 505a 233d
00000040: 4999 2e3d 3c00 053f f183 f03e 96c5 22be
00000050: e19f 223f 71b3 73bd cb64 d7bc 1852 d5bc
00000060: 3734 6b3c 7c67 ccbc d4ef ecbd 6d07 c63b
00000070: b0cb 313d 1407 a93d a130 babd 4f34 1bbe
00000080: 1998 e63e 8507 1e3c 6671 d43e 5c3a c33e
00000090: de59 823c 4e08 a2bd 05a7 d33e 8922 ee3e
000000a0: cc98 403d ce06 063f 0d37 a23e 7212 ad3c
000000b0: aada e73a 820d ff3e e338 46bc b9ae f73c
000000c0: 8311 d03e 9de2 3f3d 5745 52bc 9bce 0d3f
000000d0: fd77 dc3e c89c c63d bd4f 043f 7fbe db3e
000000e0: 761c 633c 8a96 073f 75c1 ce3e 2e82 363d
000000f0: 505a d63e a51e aebb 5264 9a3c 9891 c93d
00000100: aa08 c7bc d177 983e d08a 173f bbea 183e
00000110: e305 f93e 4c54 973e 63eb d5bd 0369 00bd
00000120: ce00 d93c caef 053c 507b 003f a51f 283c
00000130: 2aaf f13e 26ba 12bd 3666 d63e 28ba 773e
00000140: 3a99 ba3d c990 bf3a a8da 34be 08e1 373c
00000150: 93d7 723b 0ea2 4f3d d1db 6a3e 7d4f 503c
00000160: 031c 1f3d 8c0a fe3e 1956 173f d5cf c33c
00000170: 7b57 90bc 81af 7a3d 1e11 55bc d7b8 163f
00000180: 3fc0 7abb 5e69 fb3e 0398 dc3e 4683 373e
00000190: 57c1 dfbb c4e0 f33e 2ade 06ba 0dd1 66bb
000001a0: 5f68 99bd c0d2 98bc e271 5dbd a18e ae3c
000001b0: 4fa2 c73d 093c 483d a00e ef3e 3c6d 32bd
000001c0: 5e46 043e 2bbc cabd 30b0 9d39 c9cc b53e
000001d0: 4741 1b3f e50d ca3c a328 5fbc c010 813e
000001e0: 5cd6 173f c0fb ec3e a51b 4ebc 66fb 1ebd
000001f0: 0ddc da3e 09dc ff3e 1c73 943d ca3a 9f3e
0.00079989596 0.30500922 -0.008696714 0.5179662 0.54170907 0.021230666 0.26996824 -0.13966887
0.0031443348 0.031534288 0.21004306 0.03735313 0.06776359 0.42225578 0.43134797 0.03988105
0.042626653 0.5195348 0.46975663 -0.15895686 0.63525206 -0.0594973 -0.026293179 -0.026040122
0.014355711 -0.024951689 -0.11569181 0.0060433657 0.043407142 0.08253303 -0.090913065 -0.15156673
0.45037916 0.0096453475 0.41492766 0.38130462 0.015911993 -0.0791174 0.41338363 0.46510723
0.04702072 0.52354133 0.31682625 0.02112696 0.0017689068 0.49814993 -0.012098524 0.030234681
0.4063836 0.046846975 -0.012833915 0.5539338 0.43060294 0.096978724 0.5168417 0.42918774
0.013861766 0.5296408 0.4038197 0.044557743 0.41865778 -0.0053137117 0.018846665 0.09842223
-0.024296124 0.29778913 0.59196186 0.14933293 0.48637304 0.295565 -0.10445287 -0.031350147
0.026489642 0.008174846 0.5018816 0.010261451 0.47203952 -0.035822056 0.41874856 0.24192107
0.09111257 0.0014615293 -0.17661536 0.011223085 0.0037054762 0.050691657 0.22935416 0.012714264
0.038845073 0.49617422 0.5911575 0.023902813 -0.017619839 0.06120253 -0.013004569 0.58875793
-0.003826156 0.49103826 0.43084726 0.1792117 -0.006828468 0.4763242 -0.00051447994 -0.0035219819
-0.0749061 -0.01865518 -0.054063685 0.021308245 0.09747755 0.04888538 0.46690845 -0.043561205
0.12917468 -0.098991714 0.00030076643 0.355078 0.6064648 0.024664829 -0.013620528 0.25208092
0.5931146 0.4628582 -0.012579833 -0.03881397 0.4274601 0.4997256 0.07248518 0.3109954

fc2.weight f4 [49, 128]
00000000: 0912 13bd 1419 b8bd 92d7 8fbe 4f10 47be
00000010: ff0b 9ebd 0203 e5bd 0baa a23d d6a4 4fbe
00000020: 6c4f 1f3d 5588 c2be 0071 72bc 2bda 6dbe
00000030: b9a9 4f3d c4b7 98bd 3854 1dbe 4b6d 8ebd
00000040: 375d 13bd 58c4 68be f6c3 073c 1ee8 d4bd
00000050: 57e7 8fbe e289 4ebd 1273 093d 402a fd3d
00000060: 061a ff3c f9a1 1fbd 0c67 98bd 41be 233d
00000070: 4d7e 1abc 9c83 8d3b d2d9 ecbb d21a 873d
00000080: afdb d9bd c668 fabc 05c8 33be de2b a43c
00000090: 3be8 e0bd dc3a b33c 0237 9cbd fc75 fdbd
000000a0: 4693 2ebd 90d1 963d 4606 2dbc 861d f4bd
000000b0: 09c8 ca3d 5d23 11be 91b4 6cbc ccba 2fbe
000000c0: 3b35 e7bd 5ddc 3cbe 91f5 e8bc 1971 bebe
000000d0: fb16 4cbe d05e 98be 7f76 57be ce9a 893c
000000e0: 9045 03bd 0adb 14be efeb d3bd 6aab 84be
000000f0: 353c 23be df26 533c c345 d2bc 9ef2 16be
00000100: c44c d03d f292 84bd be15 01be e812 babd
00000110: 713a 55be 30c8 c7bd 0553 09be 307b 9b3d
00000120: c522 90bd f071 a73c 3472 6fbe f2f2 e8bd
00000130: da6c d13c baee 7bbe e555 e6be 98dd 9e3d
00000140: 22e8 06be aa0a b6bd 3af7 2ebd 1b0a 86bd
00000150: dfe1 4fbc 3053 5fbe 605f 50bd ead9 1fbe
00000160: 32a2 14be 562c 4dbd c9b0 a6bd 0f53 81be
00000170: ea0e ce3d a007 3fbe f1fd 38bd a5ca 8fbe
00000180: 46c2 2e3e cd72 29be 8765 afbd 7a2c 703c
00000190: ae66 17bd bf5d 4abe ef33 69bd 25c3 3abc
000001a0: edb7 84bd 141e 143e 6322 37be 56c2 dcbd
000001b0: 2ae4 aebd 9efb 57bd b66f a9be 5c7e 853b
000001c0: 408a ab3d 986a 2e3d a800 bdbd 0772 84bd
000001d0: 34fc e9bd 35b0 c7bd baab a63d dde5 b0be
000001e0: aac3 9dbd cba5 81be 462b e2bc c533 9abc
000001f0: 3401 efbc 40dd f3bd c311 e2be 8c91 82bd
00000200: 2efe c1bd 93cb 25be a030 d0bd 5260 a4be
00000210: bf3d a3bc e2e4 eabd 78eb 4d3d bc46 80bd
00000220: d35b 33bd 1147 38be dfdd 65bd 6ed8 00bd
00000230: 9da8 483b ab62 b53d 9803 a2be 8a73 813d
00000240: af55 6fbd 17a4 8fbd c4b7 1bbd ed18 aebd
00000250: b991 ebbc e471 13bd e58d 1ebd df66 cf3d
00000260: 7781 393d b2ff 29be 0b11 3abd 79fa 09bd
00000270: cad3 483d 7245 2e3d efd8 91bc f0b1 0cbe
00000280: c7d4 da3d e2bb e53a bc02 3dbe 4bbe 34bd
00000290: c14e 773c 1f20 87bd d69b 0f3d cacd 51be
000002a0: 2088 34bd 22d4 1abe c236 0fbe c7f7 afbd
000002b0: 722d 89bd 518c 64bd b0db e5bc 06e7 25bc
000002c0: 3295 06be 7ba4 3dbe c29b c5bd d0ac a9bd
000002d0: 4746 25be 9533 fbbe 5e32 65be 8786 f9bd
000002e0: db33 ec3c 61df ebbd 7298 f23d b00d 9abe
000002f0: 0289 02bc b501 bbbc 8515 13bd 2fdd fc3c
00000300: 9c31 df3c 6efb 3dbd 77d5 52bd 18cd 5dbc
00000310: 6f6d c9be 8d0e 81bd 51ca 693c cc24 82bc
00000320: 68ba 943d 3e6d 01bd c823 79be 551b 903d
00000330: 361d 01be 104c 2dbd 57aa 48be 4555 09be
00000340: a97a b3bd def7 7fbd bae8 5e3b ecd7 04be
00000350: 8bc5 9bbd 79cf 52be 6b33 48be d385 78be
00000360: 574b a6bc 5e0b f4bd 8942 88bd 0d1f a1bd
00000370: 8771 bb3d d8d9 21bd 8336 37be 730b 4dbc
00000380: d9e2 87bc 2de1 b9bd 9ddb 6b3b 0d3d c43d
00000390: 71e5 87bb c25d 29be 48dc 21bd d921 943d
000003a0: c0a0 473d a810 01bd eba6 c53d fe8e 023d
000003b0: ff68 50bd 02d9 393d 36a2 0fbe 9ef6 1e3c
000003c0: c61b c4bd 3eb4 06bd d8c1 f0bd c1e0 edbd
000003d0: 6627 05be 3b30 853d 3bf5 ce3d c669 f1be
000003e0: ca0a 3dbe 936a acbd 6958 313d d328 933d
000003f0: e7e2 8dbd 24ce a0bd f794 dbbe 38d7 10be
-0.03590587 -0.08989158 -0.28094155 -0.19439815 -0.07717132 -0.11182214 0.07942589 -0.20277724
0.038894102 -0.37994638 -0.014797449 -0.23227756 0.05069897 -0.074569255 -0.15364158 -0.0695444
-0.03597757 -0.22731149 0.008286467 -0.10395835 -0.28106186 -0.050424464 0.033557005 0.12361574
0.031140339 -0.03897283 -0.0744153 0.039976362 -0.0094295265 0.0043186676 -0.0072281146 0.065969124
-0.106376044 -0.030567538 -0.1755677 0.020040449 -0.109817944 0.021878652 -0.076276794 -0.12376019
-0.04262092 0.073641896 -0.010560578 -0.11919694 0.09901435 -0.14173646 -0.014447347 -0.17161101
-0.1128945 -0.18443437 -0.028437408 -0.37195662 -0.19930641 -0.29759836 -0.21041296 0.01679745
-0.03204876 -0.14536682 -0.10347735 -0.2591203 -0.15940936 0.012887686 -0.02566803 -0.14740989
0.10170892 -0.0647334 -0.1260595 -0.09085637 -0.20823075 -0.097549796 -0.13410576 0.075918555
-0.07037882 0.020440072 -0.23383409 -0.11374463 0.0255646 -0.24602786 -0.44987407 0.077571094
-0.13174489 -0.08888753 -0.042716242 -0.06544896 -0.012688129 -0.21809077 -0.050872207 -0.15610471
-0.14514998 -0.05009111 -0.08139188 -0.2525868 0.100614384 -0.18655252 -0.045164052 -0.28084293
0.17066297 -0.165477 -0.08564287 0.014659042 -0.036963157 -0.19762324 -0.056934293 -0.011399065
-0.064803936 0.14464599 -0.17884211 -0.10779254 -0.085396126 -0.052730195 -0.3309304 0.004073901
0.083759785 0.042582124 -0.09228641 -0.064670615 -0.11425057 -0.09750406 0.08138223 -0.34550372
-0.077033356 -0.25321802 -0.027608525 -0.018823514 -0.029175378 -0.119074345 -0.44154176 -0.06375417
-0.09472309 -0.16190939 -0.101655245 -0.32104737 -0.019926904 -0.11469437 0.05027339 -0.062634915
-0.043788742 -0.1799586 -0.056119796 -0.031456403 0.003061808 0.0885671 -0.31643367 0.063208655
-0.058431324 -0.070137195 -0.03801705 -0.08500848 -0.02875601 -0.035997286 -0.03870954 0.10127043
0.045289483 -0.16601446 -0.04542641 -0.033686135 0.049030103 0.042546697 -0.017803637 -0.13739753
0.10685115 0.0017527307 -0.18458074 -0.04412679 0.01509446 -0.065979235 0.035060726 -0.20488659
-0.04407513 -0.15119985 -0.13985732 -0.08592182 -0.06698121 -0.05579788 -0.028058857 -0.010125881
-0.13142851 -0.18519776 -0.09648849 -0.082849145 -0.1614009 -0.4906279 -0.22382495 -0.12183862
0.02883332 -0.115172155 0.11845483 -0.30088568 -0.0079672355 -0.022827962 -0.035909194 0.030867187
0.027245335 -0.04638236 -0.051473107 -0.013537668 -0.39341304 -0.063016035 0.014269427 -0.015886687
0.07262117 -0.031598322 -0.24330056 0.07036463 -0.126088 -0.042308867 -0.1959623 -0.13411434
-0.0876363 -0.062492244 0.0034013228 -0.12972993 -0.07606038 -0.20586957 -0.19550864 -0.242698
-0.020299597 -0.119162306 -0.066533156 -0.078672506 0.09152513 -0.039514393 -0.17891888 -0.012514937
-0.016587662 -0.09076152 0.0035989054 0.09581957 -0.0041472246 -0.16539672 -0.039516717 0.072330184
0.048737288 -0.031510025 0.09650978 0.03187465 -0.050881382 0.04537297 -0.14026722 0.009702353
-0.0957561 -0.032886736 -0.11755723 -0.11615134 -0.1300331 0.0650334 0.10105368 -0.4715101
-0.18461147 -0.08418765 0.043297205 0.07185521 -0.06928044 -0.07851818 -0.4288709 -0.141446

fc2.bias f4 [49]
00000000: c8bf 83bd 0b8e febc 55c5 5e3c b6cd d03c
00000010: 2aec dfbd 326f cfbd d6bd eb3c 5515 1f3d
00000020: 4a42 6abb 1b22 063c 2461 3a3c 3352 d6bc
00000030: 86f0 bebd efce c7bd a7da c53c 66e3 db3c
00000040: 6999 c63d 8d49 a8bc 02ad 3e3d 99cf 23bc
00000050: b8f6 c5bd a5c0 073d a0f5 653c 51db 34bd
00000060: 17fe a23e c873 1b3d 4ad1 2fbc 3df7 e2bd
00000070: dcb8 213d 1bed 213d f1b1 bd3c 8580 cd3d
00000080: ab69 103d 8492 413d cabf 26bd babb a8bd
00000090: 4828 90bc 3aa0 3dbd b630 883c 72d0 e3bd
000000a0: a704 b13c e265 78bd 3fb6 8ebd a36b 04be
000000b0: 9255 2f3d f8db 203d 9433 e3bc b64e 70bd
000000c0: c4e5 8abb
-0.06433064 -0.03107359 0.013596852 0.025488716 -0.109337166 -0.10128631 0.028777044 0.038838703
-0.0035745078 0.008186842 0.011375699 -0.026162243 -0.0932322 -0.09756266 0.024152113 0.02684183
0.096972294 -0.020542884 0.04655171 -0.009998226 -0.096661985 0.033142705 0.014035612 -0.04415447
0.3183448 0.037952214 -0.010731051 -0.11082313 0.039482936 0.039532762 0.023156138 0.10034279
0.035257023 0.04725887 -0.040710248 -0.08238931 -0.017597333 -0.046295382 0.01662479 -0.11123742
0.021608664 -0.060644038 -0.069683544 -0.12931685 0.042806216 0.03927228 -0.027734555 -0.058668815
-0.004238816
