models/policy_black.pth (torch, 85880 bytes, 4 tensors)

fc1.weight f4 [128, 81]
0	0xbd4cb7d3	-0.049979996
1	0x3d20b561	0.039235476
2	0x3bc7a430	0.0060925707
3	0xbdfc63a2	-0.12323691
4	0xbd0b0c0e	-0.033947043
5	0x3c9609c1	0.018315198
6	0x3d3be57f	0.04587316
7	0xbda2a023	-0.079407
8	0xbe0fb475	-0.14033683
9	0x3bd0b135	0.006368781
10	0xbe18aaf3	-0.14908962
11	0x3d03bd4f	0.03216296
12	0xbbb5263e	-0.0055282405
13	0xbdbfb2c3	-0.09360268
14	0x3d11642b	0.03549592
15	0xbcc018fc	-0.023449413
16	0xbd99fc65	-0.075188436
17	0x3d4ca008	0.049957305
18	0x3d165dda	0.036710598
19	0xbb7256b0	-0.003697794
20	0x3d8be11a	0.06830044
21	0x3d7854be	0.06062769
22	0x3dedb868	0.11607438
23	0xbd526cb7	-0.05137321
24	0x3ce267e1	0.027637424
25	0xbd6b9c2c	-0.057521984
26	0xbda309e6	-0.07960872
27	0xbcdb95e7	-0.026804877
28	0x3d500ecb	0.050795358
29	0xbce9a93d	-0.028523082
30	0xbd876a7a	-0.06612106
31	0xbd3a6028	-0.045501858
32	0x3ddae0a9	0.10687382
33	0x3d73059e	0.05933153
34	0xbd6bcc93	-0.057568144
35	0xbdec1584	-0.11527541
36	0x3d5c96d8	0.053854793
37	0x3d4a1e66	0.049345396
38	0xbe00702c	-0.1254279
39	0xbd16aa53	-0.036783528
40	0xbd9cc542	-0.076548114
41	0x3dcf0806	0.10108952
42	0xbe16195e	-0.14658114
43	0xbd8f356c	-0.06992611
44	0xbdaff8db	-0.08592387
45	0x3ca1056e	0.01965591
46	0x3cfdba3f	0.030972598
47	0x3d28ba56	0.04119333
48	0x3d05b0a8	0.032639176
49	0x3d989417	0.07450121
50	0xbc8184c0	-0.01581037
51	0xbd998469	-0.07495958
52	0x3c5843aa	0.013199726
53	0x3c8605bd	0.016360158
54	0x3c41111d	0.011783865
55	0xbd251db0	-0.040311515
56	0x3daab31f	0.08334946
57	0x3da92ae8	0.08260137
58	0x3b2e27e9	0.0026574081
59	0xbc8bee6d	-0.017081464
60	0xbda501b4	-0.080569655
61	0x3ce9c1bb	0.02853476
62	0x3d5206c5	0.051275987
63	0xbd96e7ba	-0.07368417
64	0xbd994cb9	-0.07485337
65	0x3c8a2282	0.016862158
66	0x3dac458d	0.08411703
67	0xbdb09d02	-0.08623697
68	0x3c3190bc	0.01083773
69	0x3cecfccc	0.028929137
70	0xbdf6d4fa	-0.12052341
71	0x3cf30f97	0.02967052
72	0xbce5e4cd	-0.028063202
73	0xbd20aa73	-0.039225053
74	0xbdfa49a0	-0.12221074
75	0xbd96885c	-0.07350227
76	0xbb5f53fc	-0.0034077158
77	0xbe051f2c	-0.13000172
78	0x3c297e5e	0.01034507
79	0x3ccc9316	0.02497248
80	0x3d1e4e14	0.03864868
81	0xbe1fdff7	-0.1561278
82	0xbd7fcf16	-0.062453352
83	0xbe0359f5	-0.12827285
84	0xbc669344	-0.014073197
85	0xbd3c6b73	-0.04600091
86	0xbdd46fd2	-0.103728905
87	0xbd1a7fab	-0.03771941
88	0xbd3051ae	-0.043046646
89	0xbd90b2e5	-0.070653714
90	0xbe1e86fd	-0.15481181
91	0x3daa96fe	0.08329581
92	0x3c470be1	0.012148828
93	0xbd0b2a85	-0.033976097
94	0xbe0fe6a5	-0.14052828
95	0x3d774594	0.06036909
96	0xbe359291	-0.17731692
97	0xbd58c7e7	-0.052925017
98	0xbdd4dabc	-0.10393283
99	0xbda41ac9	-0.08012921
100	0x3d6c7063	0.057724368
101	0x3d6d58a4	0.057945862
102	0x3d1872ea	0.037218966
103	0xbc101c94	-0.008795876
104	0xbdb3e03d	-0.087830044
105	0x3c60d3aa	0.01372234
106	0x3c61f306	0.013790851
107	0x3d4fa697	0.05069598
108	0x3cccd7b3	0.025005197
109	0xbb341b45	-0.0027482074
110	0x3c049d78	0.008094184
111	0x3d47f874	0.048820928
112	0xbc4e4a83	-0.012591007
113	0x3d34d6cc	0.04415016
114	0x3cbfc23a	0.023408044
115	0x3e04ded0	0.12975621
116	0xbcfafc3e	-0.030637857
117	0xbb45e98f	-0.0030199026
118	0xbca17024	-0.019706793
119	0xbe869253	-0.26283512
120	0xbd1bb758	-0.038016647
121	0x3db3f2b0	0.08786523
122	0xbdbd67af	-0.09248292
123	0xbe1e0be0	-0.15434217
124	0x3b03aa4f	0.0020090526
125	0xbdbfefd4	-0.093719155
126	0xbd925037	-0.07144206
127	0xbd9f3c6a	-0.07775195
128	0xbdaf89c1	-0.08571196
129	0xbb72c66a	-0.0037044534
130	0xbd2b2813	-0.041786265
131	0xbdc35aab	-0.09538778
132	0x3b8b8cdf	0.0042587365
133	0xba3e1f6e	-0.0007252608
134	0xbde7d680	-0.113202095
135	0xba7a5285	-0.00095490395
136	0x3d6e895a	0.058236457
137	0xbdccaf24	-0.09994343
138	0xbd87635d	-0.06610749
139	0xbdc2e957	-0.09517162
140	0x3cca6870	0.024708003
141	0xbc2dca5f	-0.010607331
142	0x3c35311a	0.01105907
143	0xbdb87a82	-0.090077415
144	0x3d512964	0.051064864
145	0x3d83cf64	0.06436041
146	0xbdfe9b01	-0.124319084
147	0x3d2a9227	0.041643288
148	0xbe421b73	-0.18955784
149	0x3cfd24cd	0.030901337
150	0xbc9cc3cd	-0.019136334
151	0x3d184a7b	0.037180405
152	0xbd1634ea	-0.036671557
153	0xbcadba2e	-0.021206941
154	0x3c67c7b0	0.01414673
155	0x3c6730b0	0.014110729
156	0x3d954f24	0.072904855
157	0x3c1af8f7	0.009458772
158	0xbd54dc80	-0.051968098
159	0x3dbad932	0.09123458
160	0x3d25c278	0.040468663
161	0x3cb0f576	0.02160142
162	0x3de84953	0.113421105
163	0xbdc4b6a9	-0.09605152
164	0x3e073274	0.1320284
165	0x3e04a62b	0.12954013
166	0x3e10a4c1	0.14125349
167	0x3c159fa2	0.009132298
168	0x3da097a3	0.078414224
169	0xbdb105b8	-0.08643669
170	0x3d648867	0.055794146
171	0xbc7bec1c	-0.015376117
172	0x3de152db	0.110021316
173	0x3db70676	0.08936779
174	0x3dbfbe3b	0.093624555
175	0x3dcfca91	0.10146058
176	0x3d59eec9	0.05320624
177	0x3ea77e73	0.3271366
178	0xba6211c2	-0.0008623862
179	0x3cb34a31	0.021885963
180	0x3cfb8e05	0.030707369
181	0xbd96ced3	-0.07363667
182	0x3e28ef1b	0.16497461
183	0xbc1a4809	-0.009416589
184	0x3e80b736	0.2513978
185	0x3e3223c3	0.17396455
186	0x3ed0ac33	0.40756378
187	0x3ed0c00d	0.40771523
188	0xbd0154ad	-0.031574894
189	0x3da282b2	0.079350844
190	0x3d4176ae	0.047232322
191	0xbd8918f2	-0.06694211
192	0x3e688115	0.22705491
193	0x3e812d58	0.25229907
194	0x3d11af4c	0.035567567
195	0x3d84ad3c	0.06478354
196	0x3cf5b967	0.029995633
197	0xbdab108a	-0.08352764
198	0x3dc530a2	0.096284166
199	0x3dd6ac7b	0.10482117
200	0x3e8c7fd7	0.27441284
201	0x3e0d9a22	0.13828328
202	0x3e6fb832	0.23410109
203	0x3da0641c	0.07831594
204	0x3e81dec6	0.25365275
205	0x3e5a17f3	0.21298198
206	0x3e03f805	0.1288758
207	0x3d27469e	0.04083883
208	0x3c7488af	0.014925166
209	0x3d842e04	0.06454089
210	0x3bbe3a76	0.005805309
211	0x3ea01e09	0.31272915
212	0x3e730ab0	0.23734546
213	0x3e9ca66f	0.3059573
214	0x3d6e571c	0.058188543
215	0x3d966686	0.073437735
216	0x3dc76e48	0.09737831
217	0x3da425a8	0.08014995
218	0x3d1d1899	0.038353536
219	0x3e8420b8	0.25806212
220	0x3e74f7ee	0.23922703
221	0x3e764ecd	0.24053498
222	0x3eaa39eb	0.33247313
223	0x3e11e416	0.14247164
224	0x3d4d1461	0.050068263
225	0xbd7c78e2	-0.06163872
226	0x3dd2572b	0.10270532
227	0x3cc8b2b2	0.024499271
228	0x3d9efe59	0.07763357
229	0x3e586284	0.2113133
230	0x3e251ee6	0.16125068
231	0x3e33159a	0.17488709
232	0x3ce15d1e	0.027510222
233	0x3d2abd12	0.041684218
234	0x3d93d32c	0.07218012
235	0x3d9d3ceb	0.07677635
236	0xbd8b9b5b	-0.06816741
237	0xbcf24b1b	-0.029576829
238	0x3de1de25	0.11028699
239	0x3ca0a4bd	0.019609803
240	0xbd91c246	-0.07117133
241	0x3d6e912e	0.058243923
242	0x3e19b960	0.15012121
243	0x3d9e52ae	0.07730614
244	0x3d115ef3	0.03549094
245	0xbb295314	-0.0025836872
246	0xbd58b49d	-0.05290662
247	0x3d809b80	0.06279659
248	0x3d002c3a	0.031292178
249	0xbc5f4c89	-0.013629087
250	0xbd1158b7	-0.035484996
251	0x3d57e9fa	0.05271337
252	0xbe0197eb	-0.12655608
253	0x3d805979	0.062670656
254	0x3e00adfc	0.1256637
255	0x3d90b599	0.07065887

fc1.bias f4 [128]
0	0xbcfbb381	-0.030725243
1	0xbe44b794	-0.19210654
2	0x3f33880a	0.70129454
3	0x3d846511	0.064645894
4	0x3efc196a	0.4923814
5	0xbdaec5bb	-0.08533808
6	0x3edbd11c	0.42932975
7	0x3f2456ec	0.6419513
8	0x3ec53e75	0.38524213
9	0x3f17b6d6	0.5926336
10	0x3ed336de	0.41252798
11	0x3ed8aa69	0.42317513
12	0xbd8afb69	-0.06786234
13	0x3f14cd7b	0.5812604
14	0xbab49611	-0.0013777633
15	0x3ed7fea2	0.42186457
16	0x3f109ce4	0.56489396
17	0xbd1d74ba	-0.038441397
18	0x3e31a5a7	0.17348348
19	0x3f0660c3	0.52491397
20	0x3ed1e079	0.40991572
21	0x3eff941a	0.4991768
22	0x3f00a482	0.5025102
23	0x3e92690b	0.28595766
24	0x3f177e8c	0.5917747
25	0x3eef397c	0.46723545
26	0x3e0e316e	0.13886043
27	0x3ecbde27	0.39817926
28	0x3ec8e638	0.39238143
29	0xbe0f5a2a	-0.13999239
30	0x3f159f1b	0.584459
31	0x3d094816	0.033516012
32	0x3ec3e0cc	0.38257444
33	0x3e824b5e	0.25448126
34	0x3d84d19e	0.06485294
35	0x3eab83ce	0.33498996
36	0x3dae8455	0.08521334
37	0x3ebe680f	0.37188765
38	0x3f0cbe1e	0.54977596
39	0xbdfc4cab	-0.12319311
40	0x3ed0cf8e	0.40783352
41	0x3f0d3caa	0.5517069
42	0x3e4a239f	0.19740151
43	0x3ef727fc	0.48272693
44	0x3eed1890	0.46307802
45	0x3ed80ff2	0.42199665
46	0x3efca0c7	0.49341413
47	0xbd93eba9	-0.07222683
48	0x3ebb92b0	0.3663535
49	0x3ef10d33	0.47080383
50	0x3c30b960	0.010786384
51	0x3eb15b65	0.3464004
52	0x3e8080ac	0.2509817
53	0x3e713a6d	0.23557444
54	0x3efbdefd	0.49193564
55	0x3ee481a5	0.4463016
56	0xbe099bf4	-0.13438398
57	0x3eb92aed	0.36165562
58	0x3d9f36f2	0.07774152
59	0x3f097ba4	0.53704286
60	0x3eb7e236	0.35914773
61	0x3e07583c	0.13217252
62	0x3efe81c6	0.49708384
63	0x3f10051d	0.562578
64	0x3edc616d	0.4304308
65	0xbdcf5db4	-0.10125294
66	0xbdac7b16	-0.08421914
67	0x3ef12f18	0.47106242
68	0xbdc4ce97	-0.096097164
69	0x3ee2129f	0.44154832
70	0x3f0501ac	0.51955676
71	0xbe0413d7	-0.12898193
72	0xbda9b398	-0.08286208
73	0x3ef709a9	0.48249558
74	0x3f0f335c	0.55937743
75	0xbd1a3688	-0.03764966
76	0x3efd2f48	0.49450135
77	0x3eaaeb8d	0.33382836
78	0x3d7e5da2	0.062101014
79	0x3e811571	0.2521167
80	0x3eb8ec2a	0.3611768
81	0x3f0eb27c	0.55741096
82	0x3eee1f7d	0.465084
83	0x3f1dacce	0.61591804
84	0x3f0d5475	0.55206996
85	0x3ebf94ef	0.37418315
86	0x3ec8c896	0.39215535
87	0x3ef1b9c4	0.4721204
88	0x3ee79a8d	0.452351
89	0xbdb1a404	-0.086738616
90	0x3d95fb1c	0.07323286
91	0xbb4cc8b4	-0.0031247558
92	0x3ed2ae46	0.41148585
93	0x3ef59c7d	0.47970954
94	0x3eed8b33	0.46395263
95	0x3eb44999	0.352124
96	0x3eb242af	0.348165
97	0x3ed3720d	0.4129795
98	0x3ef8afb0	0.4857154
99	0x3f1b7d5a	0.60738146
100	0x3e98dd5b	0.2985638
101	0x3f092d1a	0.53584445
102	0x3d279728	0.04091564
103	0x3ec61291	0.3868604
104	0x3ee1423e	0.4399585
105	0xbcf8f43c	-0.030389898
106	0x3f182f60	0.5944729
107	0x3ea07e70	0.31346464
108	0x3f03fdb2	0.51558983
109	0x3f0376b6	0.51353014
110	0x3c876c4d	0.016531134
111	0x3efab81b	0.48968586
112	0x3ebfb2f3	0.37441215
113	0x3eeb7c78	0.459934
114	0x3ecac23b	0.3960131
115	0xbcd8eb41	-0.026479365
116	0xbdc7b6d4	-0.097516686
117	0x3eaff3c1	0.34365657
118	0x3f0e2282	0.55521405
119	0x3e2aaa26	0.16666469
120	0x3f01d18b	0.5071036
121	0x3f02a0b9	0.51026493
122	0x3ee55865	0.44794002
123	0x3ed1f489	0.41006878
124	0x3f157457	0.58380646
125	0x3da5b83d	0.08091781
126	0x3ee3b6f2	0.44475514
127	0xbdfd56c0	-0.12370062

fc2.weight f4 [81, 128]
0	0x3d958a5b	0.0730178
1	0x3d94d606	0.07267384
2	0xbe182172	-0.14856508
3	0xbd8c133a	-0.06839605
4	0xbe2b60a6	-0.16736087
5	0xbd763925	-0.06011309
6	0xbda7ff93	-0.08203044
7	0xbe12ed93	-0.1434844
8	0xbe21f2b9	-0.15815248
9	0xbd23f882	-0.040031917
10	0xbd36d37e	-0.04463529
11	0xbb80d908	-0.003932122
12	0xbd03a62a	-0.03214089
13	0xbdb57cf7	-0.08861726
14	0x3d71f1a8	0.059068352
15	0xbd6d21a1	-0.0578934
16	0xbd860cf3	-0.065454386
17	0xbd1867f5	-0.037208516
18	0x3c3e9f6d	0.01163469
19	0xbce3c2c8	-0.02780284
20	0x3be17295	0.0068801143
21	0xbbac609f	-0.0052605416
22	0x3cf5697d	0.029957527
23	0x3d5e8117	0.05432233
24	0xbd7a6c71	-0.061138574
25	0xbde3499c	-0.11098024
26	0xbd868c22	-0.06569697
27	0xbdec4f20	-0.115385294
28	0x3d25ae18	0.040449232
29	0xbd857db6	-0.06518118
30	0xbde142e7	-0.10999089
31	0x3d573fd2	0.0525511
32	0xbe3be332	-0.18348387
33	0xbd945f1e	-0.07244705
34	0xbd448bd1	-0.0479849
35	0xbd99835b	-0.07495757
36	0x37abad94	2.0465617e-05
37	0x3c9389ea	0.018010098
38	0xbd745c8a	-0.059658565
39	0x3c81b03f	0.015831111
40	0xbd61d1f8	-0.055131882
41	0x3b38473c	0.002811863
42	0xbdc68902	-0.09694101
43	0x3ca47138	0.020073518
44	0xbe10a511	-0.14125468
45	0x3d12944b	0.035785954
46	0xbd864887	-0.06556802
47	0xb9f1edc9	-0.00046144266
48	0x3bbadb09	0.0057023806
49	0x3c57dd23	0.013175282
50	0xbd5f6d41	-0.054547552
51	0x3842b566	4.6422145e-05
52	0x3c6300d7	0.013855181
53	0xbd033863	-0.032036196
54	0xbd9384a9	-0.07203037
55	0x3c7920aa	0.015205542
56	0xbc4f09bb	-0.012636597
57	0xbc3915e2	-0.011296721
58	0xbde9ac38	-0.11409801
59	0xbdde7db8	-0.10863823
60	0xbbc3ff9d	-0.005981399
61	0x3d373fa3	0.044738423
62	0xbd2118e2	-0.03933037
63	0xbd7ba08a	-0.0614324
64	0xbcec73b0	-0.028863758
65	0xbb657213	-0.003501062
66	0xbdb8b379	-0.09018607
67	0xbdb8b652	-0.0901915
68	0x3d733d5d	0.059384692
69	0xbd309e8c	-0.043119952
70	0xbe2a4621	-0.16628315
71	0x3d2e7b66	0.04259815
72	0xbd848d5c	-0.06472275
73	0xbdb5f005	-0.08883671
74	0xbd80cc56	-0.06288974
75	0xbc42219e	-0.011848835
76	0xbe54243e	-0.2071695
77	0xbdc24f21	-0.09487749
78	0xbdf5c53b	-0.12000509
79	0xbe142d54	-0.14470416
80	0xbdb39eac	-0.08770499
81	0xbde3906a	-0.11111529
82	0xbd00ba3f	-0.031427618
83	0xbde87cc8	-0.11351925
84	0xbb9aade1	-0.004720435
85	0x3d0a8d10	0.033825934
86	0xbda45c34	-0.08025399
87	0x3c558dbe	0.013034282
88	0xbdef1e62	-0.11675717
89	0xbdd0db61	-0.10198093
90	0xbdc87d6e	-0.09789549
91	0xbcc3194f	-0.023815779
92	0xbd2b0c35	-0.04175969
93	0xbc6b5fed	-0.014366132
94	0xbcfed68b	-0.031108161
95	0xbddf5d58	-0.10906476
96	0x3d811f5d	0.0630481
97	0xbd2656e4	-0.04061021
98	0xbd5a0f35	-0.05323716
99	0xbe0682f0	-0.13135886
100	0xbc1d75ed	-0.009610635
101	0x3d3d194d	0.046166707
102	0xbc2ca3ee	-0.010537131
103	0xbb8d4934	-0.004311705
104	0xbc8f462c	-0.017489515
105	0xbdb795e0	-0.08964133
106	0xbce590e4	-0.02802319
107	0xbdaccd73	-0.08437624
108	0x3b82bd83	0.0039898767
109	0x3d5d49bb	0.054025393
110	0xbdd1f29e	-0.10251354
111	0xbdbe82cd	-0.09302292
112	0xbd4aa494	-0.04947336
113	0x3d2631fd	0.040575016
114	0xbd247c14	-0.040157393
115	0x3ceb61ff	0.028733252
116	0xbd0c89c0	-0.034311056
117	0xbd1d4eb5	-0.03840514
118	0xbe0388f5	-0.12845214
119	0x3d853ef5	0.06506149
120	0xbd6317ee	-0.055442743
121	0xbdda462d	-0.10657916
122	0xbd9dbebf	-0.077023976
123	0xbd16204b	-0.03665189
124	0xbd14746e	-0.03624385
125	0x3c6dbe43	0.014510694
126	0xbc3e5c79	-0.011618727
127	0x3cf14e6b	0.029456338
128	0xbdf52ac8	-0.119710505
129	0xbc86df2e	-0.016463842
130	0xbde0b493	-0.10971942
131	0xbcd8f2a6	-0.026482891
132	0xbde7512a	-0.11294778
133	0xbd2d9ad1	-0.042383973
134	0x3c0d37e5	0.008619283
135	0x3d514221	0.051088456
136	0xbdc3fdf2	-0.095699206
137	0xbe18f4f2	-0.14937189
138	0xbe1f8fad	-0.15582152
139	0xbde13d59	-0.10998029
140	0xbe1031f2	-0.14081553
141	0xbe0a4c60	-0.13505697
142	0x3d683718	0.056693166
143	0xbd91d0b1	-0.07119883
144	0xbc46ce68	-0.012134172
145	0xbdb3a42a	-0.08771546
146	0xbe05727f	-0.13031958
147	0xbc61655e	-0.013757078
148	0xbe15ba09	-0.14621748
149	0xbd923bc8	-0.071403086
150	0xbceddba8	-0.029035404
151	0x3b880106	0.0041505126
152	0x3c486f5a	0.0122335795
153	0xbd2bf98a	-0.041986026
154	0xbce9209b	-0.02845793
155	0x3b69851c	0.0035632318
156	0xbd8ab7f9	-0.06773371
157	0x3d3e31de	0.046434276
158	0xbe2bf087	-0.16790973
159	0xbdb70d82	-0.08938123
160	0xbdda5458	-0.106606185
161	0xbcae608f	-0.021286277
162	0xbdfde5c2	-0.123973384
163	0xbe214629	-0.1574942
164	0x3ccb747f	0.024835823
165	0xbe6d0098	-0.23144758
166	0xbe3a4673	-0.18190937
167	0xbd4eac46	-0.05045726
168	0x3bc33edb	0.0059584207
169	0xbd7f19d5	-0.062280495
170	0x3c9ae139	0.018906223
171	0xbdb49fd1	-0.08819545
172	0xbd3dfbf9	-0.046382878
173	0xbc584e1e	-0.013202218
174	0xbc4b7e6b	-0.012420277
175	0x3c957837	0.0182458
176	0xbe0936eb	-0.13399856
177	0xbc1c719d	-0.009548572
178	0xbce610be	-0.028084155
179	0xbd617d0c	-0.055050895
180	0xbd103aa5	-0.035212178
181	0xbcc7eb79	-0.024404274
182	0xbe3c418c	-0.18384379
183	0xbe1ae02f	-0.15124582
184	0x3cfaad09	0.030600088
185	0xbceae21e	-0.028672274
186	0xbdc7570a	-0.09733398
187	0xbe0d9bcc	-0.13828963
188	0xbcfb2c3a	-0.030660737
189	0x3c2d9d44	0.010596577
190	0x3d59acf4	0.053143457
191	0xbd2c91f1	-0.042131368
192	0xbccec8cd	-0.025242234
193	0xbd291096	-0.041275583
194	0x3d083966	0.033257864
195	0x39c20409	0.0003700557
196	0xbd6e2889	-0.058144126
197	0x3d01c9cf	0.0316866
198	0xbd836f55	-0.06417719
199	0x3d0ca6fa	0.03433893
200	0xbcfab844	-0.030605443
201	0xbcd52b92	-0.026021753
202	0xbe359947	-0.17734252
203	0x3cd735ab	0.026270708
204	0x3c59464e	0.013261391
205	0xbd8affd4	-0.067870766
206	0xbd5af8ed	-0.05346005
207	0xbc48331e	-0.012219219
208	0xbd4addf2	-0.04952807
209	0xbd4884ca	-0.048954763
210	0xbb960626	-0.0045783697
211	0xbe0210d6	-0.12701735
212	0xbc9ad645	-0.018901
213	0xbddce9b9	-0.107867666
214	0xbe02c687	-0.12771045
215	0xbc32a504	-0.010903601
216	0xbdf9a307	-0.12189298
217	0xbdffe177	-0.12494176
218	0xbc82023e	-0.01587021
219	0x3d5544cd	0.052067567
220	0xbd9ab09d	-0.075532176
221	0x3d999c96	0.075005695
222	0xbc027d37	-0.007964424
223	0x3caf2a30	0.021382421
224	0x3cd6e092	0.02623013
225	0x3d34f27a	0.044176556
226	0x3dbdfaf1	0.09276379
227	0x3c959a52	0.018262062
228	0xbdbbd91e	-0.09172271
229	0xbd60d2b6	-0.05488845
230	0xbdd39d58	-0.10332745
231	0xbe06bc06	-0.13157663
232	0xbda62b3e	-0.081137165
233	0xbd866610	-0.065624356
234	0xbdab6445	-0.08368734
235	0xbe0a2cca	-0.13493648
236	0xbe03b1db	-0.12860815
237	0xbd77de52	-0.060514756
238	0xbca0d590	-0.019633085
239	0xbd8952a2	-0.06705214
240	0xbd9df180	-0.07712078
241	0xbdb32228	-0.08746749
242	0x3c939b29	0.018018322
243	0xbd84d746	-0.06486373
244	0xbc3c6336	-0.011498263
245	0x3d288e0f	0.041151103
246	0xbd81b736	-0.06333773
247	0xbd70c225	-0.0587789
248	0xbbacb5a1	-0.0052706753
249	0x3c50239c	0.012703802
250	0xbd1e107e	-0.038589947
251	0xbdf1e5ec	-0.11811432
252	0xbddbb94d	-0.10728703
253	0xbd974df0	-0.07387912
254	0xbddd880f	-0.10816967
255	0x3d1afb66	0.03783741

fc2.bias f4 [81]
0	0xbe178b5b	-0.14799254
1	0xbd8756f3	-0.06608381
2	0xbde1450d	-0.109994985
3	0xbd25ffdc	-0.04052721
4	0xbdd1ded0	-0.10247576
5	0x3b8b3ce9	0.0042492044
6	0xbcb1240a	-0.02162363
7	0xbd65d4a0	-0.056110978
8	0x3d0663bc	0.032809958
9	0xbd5573fa	-0.052112557
10	0xbd2a3573	-0.04155488
11	0xbda381cf	-0.079837434
12	0x3d13411f	0.035950776
13	0xbd97371f	-0.073835604
14	0xbc71dfa3	-0.014762792
15	0xbd8a0a3c	-0.06740233
16	0xbc8ab3dc	-0.016931467
17	0xbd2b94c5	-0.041889925
18	0xbd59f24d	-0.05320959
19	0xbe0300a8	-0.12793219
20	0xbc5ba5d8	-0.013406239
21	0xb9ab7d58	-0.0003270905
22	0xbc5e2672	-0.013558971
23	0x3d0a2930	0.033730686
24	0x3bdb8325	0.0066989833
25	0xbda9f44e	-0.082985505
26	0x3c3b1374	0.011418212
27	0xbd28d81b	-0.04122172
28	0xbdb82a4c	-0.089924425
29	0xbcdbcf5e	-0.026832279
30	0x3cfc39ed	0.03078934
31	0xbc5124a8	-0.012765087
32	0xbd5ed1dc	-0.054399356
33	0x3b358a19	0.002770072
34	0xbd1db33f	-0.03850102
35	0xbd1ddc89	-0.038540397
36	0xbcfc680e	-0.030811336
37	0x3b114477	0.0022166052
38	0xbd9531e7	-0.07284909
39	0x3c3af157	0.011410079
40	0xbc011bd1	-0.007880167
41	0xbd617c1e	-0.055050008
42	0x3d375fa4	0.044768944
43	0xbd183b2b	-0.037165802
44	0x3d0b723a	0.03404448
45	0xbd977049	-0.073944636
46	0xbd31c2c7	-0.043398645
47	0xbc7c899b	-0.015413667
48	0xbd086090	-0.033295214
49	0x3dd135dc	0.10215351
50	0x3d8c02f5	0.068365015
51	0xbdb22ef9	-0.087003656
52	0x3d23a87b	0.039955597
53	0xbda3e09e	-0.08001827
54	0xbcb7d369	-0.022439675
55	0xbd376ffe	-0.04478454
56	0x3d5d7161	0.054063205
57	0xbd76606f	-0.06015056
58	0xbc6f1613	-0.014592665
59	0x3cbf39a0	0.023342907
60	0x3ea7dc1b	0.32785115
61	0xbd6a7191	-0.05723721
62	0xbc96cbcc	-0.018407725
63	0xbd89b1c7	-0.067233615
64	0xbdb1147b	-0.086464845
65	0x3c970081	0.018432857
66	0xbdab2ba0	-0.0835793
67	0xbe1f4aee	-0.15555927
68	0x3d57d977	0.052697625
69	0xbd60f0c3	-0.05491711
70	0xbd95e56f	-0.073191516
71	0x3b44e7cb	0.0030045386
72	0xbd373983	-0.04473258
73	0xbd42ccba	-0.047558524
74	0xbdc7f866	-0.09764175
75	0x3c110c14	0.008852977
76	0xbd696770	-0.05698341
77	0xbd996876	-0.074906275
78	0xbdc63db0	-0.09679735
79	0xbcfd9d79	-0.030958878
80	0xbdf4909c	-0.119416445
