models/policy_agent_trained.pth (torch, 85944 bytes, 4 tensors)

fc1.weight f4 [128, 81]
0.085099965 -0.0688493 -0.046029896 -0.03931735 0.021525238 -0.02012683 0.016424397 -0.05140388
0.022961976 0.18372118 0.1935007 0.10158436 -0.17292044 -0.02706078 0.0057547395 -0.07089172
-0.06393559 -0.012668467 0.10554549 -0.047798842 0.08138933 -0.029636927 0.08797964 -0.09289501
-0.029477477 -0.061882116 -0.03460085 -0.10784833 0.1515907 -0.041924793 0.016809417 -0.03585083
0.48174652 -0.072195046 -0.0061657713 -0.0022676752 -0.111597255 0.22839008 -0.066416115 -0.022544967
0.07379362 0.2345255 0.053766612 -0.05283255 0.072493225 -0.03118708 0.015931986 0.10644491
0.015472317 0.0528571 -0.02790419 -0.04309184 0.06639441 -0.0074111866 -0.0011201173 -0.07723583
-0.044929717 0.014516348 -0.019815525 0.027250158 0.040487632 -0.089492254 -0.090762295 -0.058986887
-0.016665002 0.0066760713 -0.1062005 0.18852195 0.21297312 0.04000798 0.0011431369 -0.070730045
-0.11377678 0.05348729 0.10471291 0.02510995 -0.006096793 -0.041705586 0.09591409 0.03914908
-0.04167118 0.15738773 0.31775445 0.08222624 -0.09730697 -0.071224645 0.06158852 -0.05029772
-0.053926088 0.1421546 0.029837273 -0.09016463 -0.004538313 0.03252516 0.07678412 -0.03996512
-0.051564354 -0.07628759 -0.077219844 0.09425217 0.096081816 -0.05904312 0.07850371 0.47392046
-0.116209276 0.024328016 -0.070077926 -0.062383022 0.03224738 -0.032454334 -0.09424545 -0.10996672
-0.032303188 -0.05927387 0.0016995282 -0.11526796 0.0135551505 -0.046459343 -0.034811173 -0.008776086
0.07060431 0.041055445 -0.06778773 0.032837473 -0.088529795 -0.07365192 -0.0022242873 0.06181328
-0.11852234 0.38141 0.12464561 -0.050023265 -0.03807892 0.05468498 0.048234865 -0.013974179
0.03793623 0.20458058 -0.09244441 -0.02963208 -0.053959098 0.025366265 0.0035296832 0.18323925
0.13420536 -0.08550129 0.31073263 0.006187692 -0.038873695 -0.008113455 -0.08058176 0.024183195
-0.04155854 0.026244713 0.09906743 0.12555185 0.037542377 -0.082651615 0.021695733 -0.0988364
-0.007786157 0.18753092 0.0015723088 -0.0923528 0.049531523 0.07775915 0.0049677375 0.020833716
0.22432634 -0.054401025 0.045123085 0.04202074 0.087794274 -0.06299658 -0.04760186 -0.037647758
0.016396089 0.11773064 -0.018622061 0.7238615 0.03705004 -0.01035579 0.0059090373 0.025594845
0.044313863 -0.09659834 0.10266046 0.01684205 -0.05546788 -0.09066821 0.023630492 0.00037205734
-0.04773926 -0.034126364 0.05393825 -0.10853733 0.016072579 0.03462014 -0.010832452 -0.016715245
0.0053325817 -0.027258044 -0.020403108 0.1891892 0.047282733 0.07057274 -0.075188115 -0.003170954
-0.019291518 -0.07760862 0.059218958 -0.016910229 0.05176528 -0.120963134 -0.011834102 0.17924732
-0.021609072 0.13678287 -0.069346726 -0.108780645 0.015834047 0.2527493 -0.079952806 0.06164719
-0.0012156401 -0.019666508 -0.08699452 0.23316894 0.0473106 -0.074860565 -0.09266586 -0.0500982
-0.008975206 -0.06272489 0.08805146 0.031174222 -0.028386878 -0.006182274 0.17890093 0.06411868
-0.0398292 -0.0032209682 -0.034804106 0.02534979 0.10731964 0.23001745 0.36723554 0.20287743
-0.061594833 0.025168778 0.03267678 -0.022240074 -0.09634979 -0.03343369 0.08400443 -0.026964609
00000000: e448 ae3d dd00 8dbd d889 3cbd 3b0b 21bd
00000010: b255 b03c 06e1 a4bc 758c 863c e08c 52bd
00000020: c11a bc3c 6821 3c3e 0c25 463e 760b d03d
00000030: 0e12 31be 92ae ddbc 4192 bc3b ae2f 91bd
00000040: aaf0 82bd 678f 4fbc 3c28 d83d b8c8 43bd
00000050: 73af a63d 24c9 f2bc ab2e b43d bd3f bebd
00000060: c07a f1bc 1a78 7dbd 9fb9 0dbd 96df dcbd
00000070: 983a 1b3e 55b9 2bbd e7b3 893c 52d8 12bd
00000080: 7ba7 f63e ffda 93bd 3d0a cabb 479d 14bb
00000090: 1a8d e4bd 17df 693e 2c05 88bd 39b0 b8bc
000000a0: 1c21 973d 7427 703e 613a 5c3d f266 58bd
000000b0: 5477 943d 0c7c ffbc cc83 823c caff d93d
000000c0: 9a7f 7d3c b080 583d 5497 e4bc 1281 30bd
000000d0: cbf9 873d 8ad9 f2bb e6d0 92ba d22d 9ebd
000000e0: 3908 38bd fad5 6d3c 2b54 a2bc b93b df3c
000000f0: 5cd6 253d b747 b7bd 95e1 b9bd 3c9c 71bd
00000100: 0b85 88bc f2c2 da3b a67f d9bd e60b 413e
00000110: a015 5a3e 68df 233d 4fd5 953a eada 90bd
00000120: cd03 e9bd 7d15 5b3d b973 d63d 62b3 cd3c
00000130: 9bc7 c7bb 7ad3 2abd 9b6e c43d c95a 203d
00000140: 66af 2abd 402a 213e b6b0 a23e 3b66 a83d
00000150: e048 c7bd 3ade 91bd 3e44 7c3d fb04 4ebd
00000160: 9ae1 5cbd fa90 113e 4c6d f43c 3ca8 b8bd
00000170: 21b6 94bb 1a39 053d fe40 9d3d 77b2 23bd
00000180: 2535 53bd ab3c 9cbd 7025 9ebd 4807 c13d
00000190: 8bc6 c43d 33d7 71bd 8ec6 a03d b4a5 f23e
000001a0: 21ff edbd 8c4b c73c 0485 8fbd 5785 7fbd
000001b0: d415 043d d6ee 04bd c203 c1bd 3b36 e1bd
000001c0: 5950 04bd 28c9 72bd b4c2 de3a 9c11 ecbd
000001d0: 6c16 5e3c 274c 3ebd 2996 0ebd 93c9 0fbc
000001e0: fe98 903d c129 283d 4bd4 8abd 9680 063d
000001f0: 1c4f b5bd d1d6 96bd 59c5 11bb ec2f 7d3d
00000200: d7bb f2bd 2c48 c33e 3346 ff3d 32e5 4cbd
00000210: a4f8 1bbd 5cfd 5f3d ec91 453d f4f3 64bc
00000220: 0563 1b3d 927d 513e 7f53 bdbd fabe f2bc
00000230: 3704 5dbd eacc cf3c 4252 673b 12a3 3b3e
00000240: 216d 093e 4d1b afbd 5918 9f3e 1fc2 ca3b
00000250: 063a 1fbd 4cee 04bc 0d08 a5bd d61b c63c
00000260: 4a39 2abd 27ff d63c dde3 ca3d aa90 003e
00000270: 09c6 193d 4045 a9bd 40bb b13c bd6a cabd
00000280: 0523 ffbb 1b08 403e ee15 ce3a 7723 bdbd
00000290: 91e1 4a3d 3040 9f3d 67c8 a23b 78ab aa3c
000002a0: ceb5 653e 9cd3 5ebd fcd2 383d f11d 2c3d
000002b0: 7ccd b33d 5a04 81bd 2bfa 42bd 8934 1abd
000002c0: 1751 863c c31c f13d 4b8d 98bc fd4e 393f
000002d0: c8c1 173d 55ab 29bc 99a0 c13b 48ac d13c
000002e0: 7482 353d 5ad5 c5bd a63f d23d 57f8 893c
000002f0: 4a32 63bd 41b0 b9bd bc94 c13c b110 c339
00000300: 3e8a 43bd 16c8 0bbd 5bee 5c3d d248 debd
00000310: a4aa 833c d9cd 0d3d 997a 31bc 69ee 88bc
00000320: f0bc ae3b 434c dfbc 6b24 a7bc d0ba 413e
00000330: 8aab 413d 7188 903d 3afc 99bd c8cf 4fbb
00000340: 3f09 9ebc 45f1 9ebd 948f 723d 5287 8abc
00000350: d507 543d 85bb f7bd d2e3 41bc 9c8c 373e
00000360: 8205 b1bc cf10 0c3e a805 8ebd 63c8 debd
00000370: 67b6 813c 5b68 813e 4cbe a3bd c481 7c3d
00000380: 1d56 9fba a81b a1bc 2f2a b2bd d7c3 6e3e
00000390: c2c8 413d 7f50 99bd 99c7 bdbd c533 4dbd
000003a0: be0c 13bc e875 80bd 5354 b43d 1561 ff3c
000003b0: 998b e8bc ac94 cabb ce31 373e a850 833d
000003c0: f123 23bd e116 53bb c08e 0ebd 5daa cf3c
000003d0: 66ca db3d b289 6b3e 4c06 bc3e 1abf 4f3e
000003e0: dd4a 7cbd c12e ce3c 16d8 053d d130 b6bc
000003f0: 0a53 c5bd c4f1 08bd 840a ac3d e2e4 dcbc

fc1.bias f4 [128]
0.47697526 0.53237295 0.4470694 0.34897235 0.51033866 0.47982815 0.4371528 0.2425506
0.5500179 0.36620727 0.65219253 0.5553424 0.52138186 0.524085 0.47458485 0.5480661
0.19693878 0.29308492 0.5055116 0.39877638 0.58263034 0.6078005 0.4474714 0.58310133
0.37459776 -0.5260495 0.4080091 0.5315209 0.5289174 0.5493 0.5977685 0.5585162
0.49606323 0.54986686 0.4013339 0.63156605 0.6247542 0.5226571 0.62565374 0.5544614
0.4309409 0.4429572 0.65170527 0.5814584 0.5655181 0.37319237 0.5998148 0.5268527
-0.15049937 0.49690455 0.4456549 0.5810351 0.45896477 0.5232311 0.54649836 0.2825713
0.6260228 0.54917395 0.6152269 0.43437532 0.64487666 0.5587064 0.6021019 0.5404338
0.55470014 0.5459123 0.53400296 -0.3344856 0.56126726 0.5177608 0.5991802 0.66569
0.49607107 0.5139102 0.5097095 0.6144992 0.51384795 0.5894214 0.53004754 0.52633005
0.50827086 0.56927514 0.52217746 0.6017182 0.5405163 0.49259895 0.5488645 0.44960397
0.66538876 0.5321051 0.59018475 0.6340237 0.5208506 0.48287305 0.40087336 0.65425324
0.4749682 0.51749927 0.5075293 0.5391827 0.4329425 0.5417266 0.6711206 0.5207184
0.49855086 0.57217026 0.57702225 0.5543317 0.5616015 0.4033696 0.5424626 0.59950465
0.56342024 0.59174126 0.34837544 0.50477755 0.5820388 0.4056437 0.4991428 0.5750197
0.4465305 0.653125 0.31119174 0.59196085 0.49889508 0.6096669 0.52071655 0.42326322
00000000: 1a36 f43e 9849 083f 48e6 e43e 81ac b23e
00000010: 8ea5 023f 09ac f53e 7ed2 df3e 2f5f 783e
00000020: f9cd 0c3f 857f bb3e 17f6 263f eb2a 0e3f
00000030: 4879 053f 6f2a 063f c9fc f23e 0f4e 0c3f
00000040: 52aa 493e 3a0f 963e 3569 013f 6b2c cc3e
00000050: 4327 153f d098 1b3f f91a e53e 2146 153f
00000060: 47cb bf3e 2eab 06bf 92e6 d03e c111 083f
00000070: 2167 073f ed9e 0c3f 5b07 193f ebfa 0e3f
00000080: 00fc fd3e 13c4 0c3f a37b cd3e 50ae 213f
00000090: e4ef 1f3f dbcc 053f d82a 203f 2ff1 0d3f
000000a0: 49a4 dc3e 49cb e23e 28d6 263f 75da 143f
000000b0: cbc5 103f 1213 bf3e 768d 193f d2df 063f
000000c0: 821c 1abe 466a fe3e e12c e43e b7be 143f
000000d0: 6efd ea3e 79f2 053f 51e7 0b3f 2fad 903e
000000e0: 0843 203f aa96 0c3f 837f 1d3f 7166 de3e
000000f0: a316 253f 6207 0f3f 5a23 1a3f df59 0a3f
00000100: d400 0e3f e9c0 0b3f 6bb4 083f b241 abbe
00000110: 36af 0f3f f98b 043f e063 193f a96a 2a3f
00000120: 07fd fd3e 9e8f 033f 527c 023f d24f 1d3f
00000130: 8a8b 033f 52e4 163f 32b1 073f 91bd 063f
00000140: 0a1e 023f 04bc 113f 6cad 053f 340a 1a3f
00000150: 475f 0a3f ee35 fc3e 6282 0c3f 7e32 e63e
00000160: eb56 2a3f 0a38 083f 5916 173f 614f 223f
00000170: 7756 053f 233b f73e 463f cd3e 247d 273f
00000180: 082f f33e d57a 043f 71ed 013f e107 0a3f
00000190: a4aa dd3e 98ae 0a3f 8fce 2b3f cd4d 053f
000001a0: 0f42 ff3e c079 123f bbb7 133f afe8 0d3f
000001b0: 1ec5 0f3f 7686 ce3e d4de 0a3f 2379 193f
000001c0: 4f3c 103f 5b7c 173f 445e b23e 1a39 013f
000001d0: 7f00 153f 88b0 cf3e a58f ff3e 7e34 133f
000001e0: a59f e43e 3333 273f 8654 9f3e bf8a 173f
000001f0: 2d6f ff3e 2113 1c3f ae4d 053f f5b5 d83e

fc2.weight f4 [81, 128]
-0.13458866 -0.2736742 0.08155862 -0.088037066 -0.22767106 0.29248843 -0.015774295 -0.0978813
0.041453652 0.070747815 -0.21562248 0.22609311 -0.006519277 -0.023776509 0.02998074 0.16874287
-0.1334979 0.075027846 -0.10891955 -0.19299619 0.2415987 0.022997597 0.10697069 -0.044414636
-0.11832214 -0.71930057 -0.112546414 -0.05024382 -0.28557134 0.08923468 0.17421584 0.07789718
0.23303029 -0.0033581464 -0.077126466 0.024216017 0.11059314 -0.28103942 -0.14058496 0.05323772
0.113613956 0.2412056 -0.12367857 0.18842904 0.18661633 -0.2026583 -0.06363378 -0.5918786
0.08231301 0.01816422 0.31470606 0.37732294 -0.123621434 0.30129048 0.19579615 0.016900875
-0.15947649 0.12180354 0.04218323 -0.090421766 -0.6745725 0.19230567 -0.20095289 -0.14068589
0.12334688 0.08261969 -0.112037964 0.03964289 -0.13045964 0.17494011 -0.09523893 0.23168282
-0.2213702 -0.71886915 -0.11226787 -0.15269737 -0.05711599 -0.36950338 -0.111416504 -0.03161314
0.118891194 0.106970415 -0.074668616 -0.09613772 0.021092547 0.058767132 0.045510594 0.007985922
-0.096638426 -0.22904502 0.047268204 -0.21512514 -0.022923509 -0.02281293 -0.38095814 0.2566532
0.11458504 0.03865123 -0.014228186 0.050002795 0.106680185 0.10544523 0.2733122 0.11952838
-0.24565688 -0.0023049854 0.2646365 0.09884962 0.18533275 -0.08977025 0.19929563 0.22210267
-0.30033463 -0.096746825 -0.04695535 0.112947494 0.07241371 -0.01673487 0.18471402 0.06515122
-0.04791263 -0.10407002 -0.05390307 0.11574439 0.016969131 0.14840917 -0.020453122 0.2728152
0.17471933 -0.47949457 0.24281278 -0.16083975 0.030677784 -0.22560035 -0.038620587 0.14718845
0.11753113 0.030629031 -0.17686361 -0.108069204 -0.37466273 0.16224255 -0.17183337 0.024584988
-0.11419216 0.086409934 -0.032721307 -0.045442536 0.11672807 -0.2568936 -0.05570203 0.053137876
0.15346894 -0.5661589 0.06309694 0.048947286 -0.22949675 0.17206441 0.045377742 -0.19687071
-0.030166373 0.061278235 0.10373648 0.14411344 0.0074806027 0.24896158 0.048451997 0.059897494
-0.1222845 0.05525887 0.050040163 0.39037707 0.09427546 0.09489276 0.100095995 0.17194103
-0.0054035923 0.13153575 -0.01486861 0.09581093 -0.31633568 0.018099155 0.1477672 -0.03149815
0.19318041 -0.2036648 0.15104084 -0.007779822 -0.008784736 -0.3852562 0.04634268 0.025627362
-0.06016489 0.13975345 0.15268272 -0.022126095 0.16332299 -0.087909594 -0.08160182 -0.18398559
0.1261376 0.20360821 0.124948435 0.07641949 0.21143335 -0.1280654 -0.16425943 -0.03960879
-0.11583674 0.09555085 0.07382693 -0.118150085 0.10858718 0.21420692 0.072366185 -0.044591922
-0.062389717 0.027784802 0.03629574 0.047356565 -0.07328097 -0.2104131 -0.039821275 0.24860553
0.21069632 0.058444872 -1.0129129 0.03479285 0.10173317 -0.56705254 -0.28709576 -0.14591578
0.12973684 0.040429667 -0.0902871 0.38975763 0.24345623 -0.207431 0.1465255 -0.015827859
-0.37763375 -0.069634646 0.1675603 -0.01871659 0.1871617 0.028678615 0.06605119 -0.056456108
0.1771587 -0.18975967 -0.0037464893 0.036319412 -0.04765807 0.02737481 0.00250744 -0.11876906
00000000: 9cd1 09be 061f 8cbe 3508 a73d c74c b4bd
00000010: 9a22 69be 0bc1 953e 1839 81bc fe75 c8bd
00000020: 4ecb 293d 3be4 903d 24cc 5cbe f484 673e
00000030: a99f d5bb f4c6 c2bc 2b9a f53c eeca 2c3e
00000040: acb3 08be 33a8 993d 3711 dfbd cba0 45be
00000050: a665 773e 7565 bc3c 7313 db3d 1fec 35bd
00000060: e152 f2bd 1524 38bf bc7e e6bd 77cc 4dbd
00000070: 6836 92be acc0 b63d a365 323e 8f88 9f3d
00000080: 7e9f 6e3e 5914 5cbb 7bf4 9dbd ab60 c63c
00000090: a87e e23d 66e4 8fbe 81f5 0fbe cc0f 5a3d
000000a0: 6fae e83d 9afe 763e 314b fdbd 8bf3 403e
000000b0: 5a18 3f3e a885 4fbe 6d52 82bd 5b85 17bf
000000c0: b993 a83d 21cd 943c 2721 a13e 7930 c13e
000000d0: 3c2d fdbd bf42 9a3e c97e 483e b473 8a3c
000000e0: ce4d 23be 2274 f93d 53c8 2c3d 0c2f b9bd
000000f0: c9b0 2cbf c7eb 443e 98c6 4dbe f60f 10be
00000100: 4a9d fc3d 8334 a93d 2974 e5bd 9560 223d
00000110: 3697 05be 8023 333e a10c c3bd 433e 6d3e
00000120: dfae 62be cf07 38bf b2ec e5bd b35c 1cbe
00000130: 75f2 69bd 8c2f bdbe 562e e4bd c87c 01bd
00000140: 3a7d f33d 4e13 db3d dceb 98bd dae3 c4bd
00000150: 47ca ac3c ceb5 703d 5169 3a3d 62d7 023c
00000160: 5eea c5bd c78a 6abe 4e9c 413d c449 5cbe
00000170: 15ca bbbc 2fe2 babc f20c c3be 0c68 833e
00000180: 90ab ea3d c150 1e3d 561d 69bc bbcf 4c3d
00000190: 247b da3d abf3 d73d 94ef 8b3e 4ccb f43d
000001a0: 7a8d 7bbe 3d0f 17bb 6f7e 873e ab71 ca3d
000001b0: dec7 3d3e 77d9 b7bd 2714 4c3e e26e 633e
000001c0: 76c5 99be 3323 c6bd 4154 40bd 0451 e73d
000001d0: a44d 943d 9117 89bc ac25 3d3e 016e 853d
000001e0: 0940 44bd aa22 d5bd 77c9 5cbd 650b ed3d
000001f0: d902 8b3c 93f8 173e 4e8d a7bc 6fae 8b3e
00000200: a0e9 323e 5080 f5be eaa3 783e 2db3 24be
00000210: fa4f fb3c c703 67be 9f30 1ebd 92b8 163e
00000220: 29b4 f03d bce9 fa3c bc1b 35be 6353 ddbd
00000230: cbd3 bfbe e922 263e 16f5 2fbe 7566 c93c
00000240: 94dd e9bd b1f7 b03d c706 06bd f421 3abd
00000250: 200f ef3d 8f87 83be d027 64bd 1aa7 593d
00000260: f626 1d3e caef 10bf f838 813d f37c 483d
00000270: 3201 6bbe a731 303e 03de 393d 7a98 49be
00000280: 781f f7bc e3fe 7a3d cb73 d43d 7992 133e
00000290: d81f f53b c9ef 7e3e 9a75 463d 1357 753d
000002a0: 4c70 fabd 2057 623d eaf6 4c3d 81df c73e
000002b0: 7e13 c13d 2357 c23d 21ff cc3d 4f11 303e
000002c0: 9e10 b1bb 4fb1 063e 789b 73bc 8538 c43d
000002d0: c0f6 a1be ae44 943c 4950 173e 3404 01bd
000002e0: 16d1 453e 818d 50be 73aa 1a3e e1ed febb
000002f0: daed 0fbc 4d40 c5be d2d1 3d3d 79f0 d13c
00000300: 766f 76bd 871b 0f3e dc58 1c3e c941 b5bc
00000310: 243e 273e f209 b4bd db1e a7bd b866 3cbe
00000320: 372a 013e ac7e 503e f7e4 ff3d d281 9c3d
00000330: fc81 583e 9423 03be a033 28be d43c 22bd
00000340: d03b edbd 2ab0 c33d 9332 973d acf8 f1bd
00000350: f562 de3d 0f59 5b3e b934 943d 05a6 36bd
00000360: 5c8c 7fbd f49c e33c d8aa 143d f5f8 413d
00000370: 5514 96bd 8876 57be a21b 23bd 7392 7e3e
00000380: c7c0 573e e463 6f3d 21a7 81bf f382 0e3d
00000390: 7b59 d03d 5b2a 11bf 37fe 92be f26a 15be
000003a0: bcd9 043e 9499 253d 71e8 b8bd 508e c73e
000003b0: 974c 793e cb68 54be c80a 163e 6da9 81bc
000003c0: 3659 c1be 9c9c 8ebd ed94 2b3e 8953 99bc
000003d0: 51a7 3f3e 6aef ea3c d945 873d 853e 67bd
000003e0: 1769 353e 5c50 42be a987 75bb aac3 143d
000003f0: 1c35 43bd 2341 e03c dd53 243b 313d f3bd

fc2.bias f4 [81]
-0.04477108 -0.09376189 0.012255828 -0.053086586 -0.059352066 0.030632604 -0.02475029 -0.08671453
-0.00059397065 -0.018031083 -0.0073030274 0.025269244 -0.045756858 0.03499134 0.01969028 0.0051070633
0.0039894944 -0.019058049 -0.01453903 -0.08527378 -0.034292396 0.10238541 0.060393106 0.07323351
0.0326883 0.019246578 -0.078830265 -0.08529679 0.02293909 0.06584554 0.0488529 0.10996416
0.06397786 0.09452263 0.09740001 0.0132220555 -0.036491446 0.002119554 0.034122102 0.03415033
0.04300783 0.12002749 -0.036419157 0.033219118 -0.022634028 -0.018744437 -0.004198257 0.099721
0.02007982 -0.045223385 -0.03187621 0.06767222 0.06680757 0.075632475 0.0008440231 0.0019448252
0.044646244 0.005540698 0.10876944 0.04633212 -0.045904677 -0.05970646 -0.039660543 -0.011687295
-0.05029124 0.0875057 -0.009629002 -0.022145968 0.06552696 -0.01766343 -0.034855146 -0.08214551
-0.043809313 0.043458544 0.022633785 0.008183299 0.037521333 0.024073988 0.043393727 -0.03628202
-0.0701384
00000000: e161 37bd 3c06 c0bd abcc 483c 5271 59bd
00000010: 271b 73bd 3af1 fa3c 1fc1 cabc 6397 b1bd
00000020: b2b4 1bba ecb5 93bc 3c4e efbb 7201 cf3c
00000030: 8b6b 3bbd 1453 0f3d 834d a13c 2759 a73b
00000040: 4eba 823b a01f 9cbc 1d35 6ebc 05a4 aebd
00000050: 2f76 0cbd 71af d13d c35e 773d 73fb 953d
00000060: 2be4 053d 00ab 9d3c c371 a1bd 15b0 aebd
00000070: c2ea bb3c 07da 863d fa19 483d e434 e13d
00000080: d306 833d 1595 c13d a879 c73d 52a1 583c
00000090: 0e78 15bd 37e8 0a3b 9ec3 0b3d 37e1 0b3d
000000a0: fa28 303d f9d0 f53d 412c 15bd c510 083d
000000b0: ff6a b9bc ef8d 99bc 8891 89bb 863a cc3d
000000c0: 6f7e a43c 283c 39bd a190 02bd bc97 8a3d
000000d0: 68d2 883d 33e5 9a3d 6e41 5d3a 81e9 fe3a
000000e0: fbde 363d be8e b53b 83c2 de3d c0c6 3d3d
000000f0: 8b06 3cbd c38e 74bd 1873 22bd 117c 3fbc
00000100: 30fe 4dbd 3036 b33d f6c2 1dbc 766b b5bc
00000110: 0033 863d e6b2 90bc 45c4 0ebd e83b a8bd
00000120: 6571 33bd 9601 323d 7d6a b93c 3e13 063c
00000130: f8af 193d d036 c53c 9fbd 313d 759c 14bd
00000140: b9a4 8fbd
