models/policy_vs_longest.pth (torch, 86337 bytes, 4 tensors)

fc1.weight f4 [128, 81]
0.031087782 -0.07716665 -0.050766803 0.07661317 0.07614259 0.0011853506 0.1442054 0.06578502
0.038118344 -0.041881572 -0.11674849 0.12742573 -0.06090516 -0.05880462 0.050081957 0.05546745
0.07224361 0.05974168 0.0067844093 -0.10116878 0.07236898 -0.09005031 0.007314102 0.106831364
0.15315594 0.004279098 -0.025281781 -0.005748992 -0.035596322 -0.02896767 0.036931172 0.22181441
-0.017413022 0.1267797 0.069932096 -0.08674436 -0.018291546 -0.022274738 -0.050898023 0.0013764566
0.3205726 -0.04677166 0.06952536 -0.011862391 -0.007467861 0.11132092 0.06344078 0.051143415
0.09382384 -0.22532178 0.04702724 0.08442102 -0.009159568 0.06141496 0.017445393 -0.042524513
0.12566711 0.103055894 0.1904783 0.037550412 0.03375082 0.09796855 0.021410735 -0.023375258
0.12129852 0.028948406 -0.032160725 -0.14667745 0.08551043 0.046080023 0.048034616 0.08321138
-0.05210983 -0.057895094 0.13866083 -0.055351425 -0.01678349 0.01920954 -0.014148971 0.17835115
0.14144644 0.0046553477 -0.104878284 0.05768904 0.11743016 0.070921555 -0.11913712 0.13959996
0.03908643 -0.087117776 0.16638818 0.07697392 0.07069832 -0.02030317 0.050347548 0.113073915
0.12758814 0.11970211 0.05228598 0.012065137 -0.05660879 0.055811875 -0.12629104 0.028264513
0.024793582 0.0838309 -0.09156453 0.1610383 0.030040354 0.11449494 -0.06658057 0.08174085
0.08986813 0.093396835 -0.09126065 0.013396557 -0.11716385 0.15490471 -0.02887994 0.09359742
0.03230566 0.028261734 -0.039374247 0.07616891 0.0401561 0.058319833 -0.02918255 -0.051224798
0.0848672 0.18493384 0.38226268 -0.012226902 0.018457739 0.08328582 0.005856583 -0.07441784
0.0059662475 0.064482026 0.13287748 0.28872484 0.04226348 -0.07521606 -0.088996746 -0.02597211
-0.07037842 -0.086825065 -0.076490656 0.10686466 -0.18309674 -0.040329088 0.023634393 0.08985724
0.025547335 0.06337932 -0.015427581 -0.049226243 0.08275198 -0.07357821 -0.04586357 0.07379504
-0.10192305 0.15195934 0.057591658 0.07731058 0.058583457 0.10542076 0.04830998 0.10938183
0.23829943 0.137754 0.14859985 0.16217451 -0.08220517 0.118679486 0.1276069 0.07832337
0.048535455 0.019458054 -0.003893342 0.15325226 -0.062809505 0.07948596 0.11832178 0.15370156
-0.026939513 0.04834009 -0.029388534 0.052857835 -0.03534341 0.07378803 0.15089169 0.1809555
0.06703662 0.089382626 0.14325288 0.092030406 0.08720473 -0.07709384 0.14000484 0.109542206
0.0414927 0.060081396 0.39483318 0.06895612 0.14971794 0.13640395 0.09569458 0.08150695
0.07804579 0.19086622 0.1474462 0.08766811 0.075738296 0.068841234 -0.0058462927 0.026008649
0.14324786 0.017133823 0.053267293 0.014800107 0.038595 0.097614184 0.13913687 0.095893994
0.008765181 -0.1132851 -0.14719068 0.059041776 0.045934733 -0.14930218 0.12708981 -0.036304824
0.1106418 -0.06427595 0.05664005 -0.06474188 0.07943107 0.023596596 -0.0032978274 0.0392281
0.023043847 0.118423946 0.118138276 -0.12310977 0.0028226543 0.012914738 -0.064878024 -0.15722416
0.0073586106 0.10817649 -0.050471865 0.08403392 0.0060742274 -0.03440993 0.038256135 -0.057044525
00000000: ceab fe3c 8c09 9ebd daf0 4fbd 5ee7 9c3d
00000010: a5f0 9b3d c45d 9b3a 95aa 133e 4cba 863d
00000020: fb21 1c3d 038c 2bbd d519 efbd e47b 023e
00000030: b077 79bd 1ddd 70bd bd22 4d3d d631 633d
00000040: 75f4 933d b1b3 743d c04f de3b 9431 cfbd
00000050: 3036 943d 4c6c b8bd 22ab ef3b 67ca da3d
00000060: e9d4 1c3e ad37 8c3b bd1b cfbc 0a62 bcbb
00000070: 73cd 11bd 9b4d edbc 2445 173d 5123 633e
00000080: c1a5 8ebc 8ad2 013e 8f38 8f3d 07a7 b1bd
00000090: 27d8 95bc 8379 b6bc 727a 50bd 386a b43a
000000a0: 1822 a43e a493 3fbd 5063 8e3d 795a 42bc
000000b0: f5b4 f4bb 39fc e33d 3ded 813d c27b 513d
000000c0: b726 c03d c1ba 66be a39f 403d ede4 ac3d
000000d0: 0312 16bc 418e 7b3d a4e9 8e3c 2f2e 2ebd
000000e0: e1ae 003e f80e d33d be0c 433e 76ce 193d
000000f0: 4d3e 0a3d bca3 c83d 9165 af3c 787d bfbc
00000100: 5c6b f83d 3525 ed3c f7ba 03bd 9d32 16be
00000110: 1820 af3d 68be 3c3d f2bf 443d ba6a aa3d
00000120: 1e71 55bd 6823 6dbd 1bfd 0d3e 2db8 62bd
00000130: 887d 89bc 535d 9d3c 16d1 67bc afa1 363e
00000140: 56d7 103e e38b 983b 6dca d6bd 584b 6c3d
00000150: 397f f03d 523f 913d 2afe f3bd 4bf3 0e3e
00000160: 1819 203d ce6a b2bd aa61 2a3e 81a4 9d3d
00000170: 48ca 903d d552 a6bc 3b39 4e3d 4c93 e73d
00000180: 77a6 023e 6126 f53d d329 563d daac 453c
00000190: 9ede 67bd fe9a 643d 7052 01be fb8a e73c
000001a0: e91b cb3c 89af ab3d 2f86 bbbd 39e7 243e
000001b0: 3017 f63c 537c ea3d 655b 88bd bf67 a73d
000001c0: c80c b83d d746 bf3d dde6 babd 3c7d 5b3c
000001d0: 9af3 efbd 579f 1e3e a095 ecbc 01b0 bf3d
000001e0: f152 043d 2785 e73c e446 21bd 72fe 9b3d
000001f0: b97a 243d c7e0 6e3d 3e10 efbc 18d1 51bd
00000200: dbce ad3d 4c5f 3d3e efb7 c33e 5853 48bc
00000210: af34 973c c291 aa3d 94e8 bf3b 6168 98bd
00000220: 8380 c33b 270f 843d 0911 083e bed3 933e
00000230: 791c 2d3d e10a 9abd ed43 b6bd 76c3 d4bc
00000240: 9022 90bd 57d1 b1bd 22a7 9cbd dcdb da3d
00000250: b67d 3bbe 1d30 25bd ea9c c13c 1307 b83d
00000260: a548 d13c 04cd 813d f7c3 7cbc 75a1 49bd
00000270: df79 a93d 2cb0 96bd 70db 3bbd db21 973d
00000280: 08bd d0bd 3b9b 1b3e 3be5 6b3d 0255 9e3d
00000290: 35f5 6f3d d7e6 d73d b0e0 453d 9503 e03d
000002a0: c404 743e 620f 0d3e 8f2a 183e 1311 263e
000002b0: 2f5b a8bd 3b0e f33d 62ab 023e 0168 a03d
000002c0: 1dcd 463d 7f66 9f3c 7127 7fbb 29ee 1c3e
000002d0: 45a2 80bd 89c9 a23d b052 f23d f163 1d3e
000002e0: 41b0 dcbc 4200 463d 39c0 f0bc 7581 583d
000002f0: 40c4 10bd 2e1e 973d 5a83 1a3e 664c 393e
00000300: 7f4a 893d 3d0e b73d e2b0 123e 707a bc3d
00000310: 6598 b23d 60e3 9dbd 6e5d 0f3e aa57 e03d
00000320: 40f4 293d e917 763d 9327 ca3e de38 8d3d
00000330: a94f 193e 7aad 0b3e 85fb c33d 1eed a63d
00000340: 79d6 9f3d 6f72 433e 23fc 163e 578b b33d
00000350: ae1c 9b3d a2fc 8c3d 4292 bfbb 1710 d53c
00000360: 91af 123e 3b5c 8c3c ce2e 5a3d 267c 723c
00000370: ca15 1e3d f2e9 c73d e579 0e3e 1264 c43d
00000380: d59b 0f3c 0502 e8bd 27b9 16be cad5 713d
00000390: 0f26 3c3d ace2 18be d523 023e 5eb4 14bd
000003a0: 2b98 e23d 1ca3 83bd 66ff 673d 6497 84bd
000003b0: c2ac a23d a64d c13c 5d20 58bb a5ad 203d
000003c0: 73c6 bc3c 4188 f23d 7bf2 f13d fa20 fcbd
000003d0: 48fc 383b 5698 533c c5de 84bd 5fff 20be
000003e0: 8020 f13b a38b dd3d 96bb 4ebd fa19 ac3d
000003f0: 500a c73b 6df1 0cbd 77b2 1c3d 85a7 69bd

fc1.bias f4 [128]
0.12654197 0.082064636 0.046287727 0.42882732 0.482553 0.055168785 0.43583596 0.051770434
0.06271455 0.071244866 0.27512303 0.09968692 -0.19486517 -0.006205714 0.059820693 0.074565634
0.146245 0.10857502 0.2891843 0.12224354 0.07047682 0.097947806 0.51153684 0.5382497
0.10724027 0.43965602 0.30213895 0.294955 0.5130787 0.044277865 0.057083678 0.038026143
0.086308315 0.40797383 -0.0022196185 0.45046082 0.41726127 0.03773507 0.40153876 0.38208523
-0.0068427017 0.080489054 0.36446714 0.065601945 0.06784661 0.09144427 0.13557899 0.12641212
0.143453 0.07570652 0.10444889 0.3870715 0.112623155 0.4199657 0.044216964 0.3817799
0.50717044 0.4469059 0.07498435 0.06266864 0.040284146 0.08593177 0.11277327 0.020706518
0.4999814 0.5168265 -0.048823185 0.09663658 0.029852938 0.40342215 0.48935005 -0.085955955
-0.034211915 0.082837574 0.08831457 0.29949605 0.47258234 0.060505655 0.42660248 0.039950166
0.04861971 0.04208275 0.09735078 0.050714053 0.49577284 -0.019826224 0.30387586 0.08575283
0.13251846 0.09689266 0.13822164 0.4345071 0.43233696 0.0722748 0.39603522 0.23042941
0.40958974 0.099050276 0.0991131 0.037384726 0.11250894 0.43541083 0.5441178 0.49142328
0.057551865 0.3792856 0.49882615 0.10066968 0.016669717 -0.012112428 0.4098921 0.5125861
0.13461344 0.49630272 -0.03342633 0.43333158 0.4970388 0.4478638 0.4125185 0.14015245
0.40291888 0.068970546 -0.011570911 0.36918685 0.3846555 0.45565084 0.4693681 0.45413882
00000000: 3894 013e 8111 a83d 3398 3d3d 418f db3e
00000010: 3011 f73e aaf8 613d e425 df3e 3c0d 543d
00000020: 7c70 803d d4e8 913d eddc 8c3e a828 cc3d
00000030: bc8a 47be 4d59 cbbb 8b06 753d deb5 983d
00000040: 40c1 153e 955c de3d f70f 943e d25a fa3d
00000050: 2756 903d dc98 c83d 14f4 023f bbca 093f
00000060: c9a0 db3d 981a e13e f5b1 9a3e 5704 973e
00000070: 2059 033f b55c 353d 93d0 693d 4dc1 1b3d
00000080: 6ac2 b03d f2e1 d03e 0577 11bb cda2 e63e
00000090: 45a3 d53e 1790 1a3d 7d96 cd3e ada0 c33e
000000a0: be38 e0bb 72d7 a43d 709b ba3e 505a 863d
000000b0: 2af3 8a3d 2247 bb3d 38d5 0a3e 2e72 013e
000000c0: 58e5 123e 050c 9b3d 4de9 d53d 3c2e c63e
000000d0: f8a6 e63d bf05 d73e d91c 353d a878 c33e
000000e0: ecd5 013f dad0 e43e 6591 993d 6a58 803d
000000f0: fd00 253d fffc af3d acf5 e63d b7a0 a93c
00000100: 90fd ff3e be4e 043f d2fa 47bd 66e9 c53d
00000110: 268e f43c 598d ce3e 178c fa3e ad09 b0bd
00000120: cb21 0cbd bfa6 a93d 45de b43d 8c57 993e
00000130: 50f6 f13e c7d4 773d a46b da3e c9a2 233d
00000140: 7625 473d f65e 2c3d d95f c73d 8ab9 4f3d
00000150: f0d5 fd3e 9b6a a2bc 9e95 9b3e 2e9f af3d
00000160: ebb2 073e a96f c63d f989 0d3e b777 de3e
00000170: 455b dd3e cf04 943d 21c5 ca3e b0f5 6b3e
00000180: bfb5 d13e dfda ca3d cffb ca3d ba20 193d
00000190: 166b e63d 2bee de3e 4e4b 0b3f d59b fb3e
000001a0: 81bb 6b3d b931 c23e 2466 ff3e e82b ce3d
000001b0: ee8e 883c 3573 46bc 61dd d13e d838 033f
000001c0: 1bd8 093e 641b fe3e 0cea 08bd a3dd dd3e
000001d0: df7b fe3e 674e e53e a035 d33e 2084 0f3e
000001e0: 624b ce3e 6e40 8d3d eb93 3dbc 0f06 bd3e
000001f0: 91f1 c43e 114b e93e 0451 f03e e284 e83e

fc2.weight f4 [81, 128]
-0.24019125 0.029874813 -0.21520795 -0.12932745 -0.18242136 -0.079644516 -0.12987456 -0.12493672
-0.19648202 -0.08250521 -0.17936397 -0.08482249 -0.06441228 -0.008467597 -0.20259438 -0.09472374
-0.112686254 -0.18855375 -0.10040959 -0.26498473 -0.050344322 -0.2282894 -0.24581446 -0.25841498
-0.3235244 -0.18445317 -0.040113647 -0.22888301 -0.13784097 -0.058560245 -0.097719625 -0.1232609
-0.25852165 -0.31696457 -0.13755484 -0.1373201 -0.18499298 -0.27486673 -0.37270778 -0.005147862
-0.10786099 0.025379512 -0.22258379 -0.37995017 -0.21331823 -0.011610423 -0.12333578 -0.11707667
-0.09502459 -0.14036712 -0.28507078 -0.23308985 -0.4410386 -0.059549462 -0.25713253 -0.042894043
-0.042786818 -0.19910504 -0.16127749 -0.11093552 -0.11885324 -0.22253661 -0.2021929 -0.16921704
-0.072902985 -0.40123045 -0.08693803 -0.334103 -0.22964044 -0.16501544 -0.11327632 -0.075527884
0.02143821 -0.06584659 -0.07596124 -0.2646034 -0.18083914 -0.1896614 -0.03885535 -0.25404263
-0.13086404 -0.20267926 -0.18867572 -0.29541832 -0.07611449 -0.015877701 -0.15038623 -0.14922693
-0.122148104 -0.2856185 -0.24791788 -0.1532396 -0.08702057 -0.033359032 -0.17383207 -0.07043158
-0.3268354 -0.21556205 -0.102150954 -0.21478273 -0.073478565 -0.20898034 -0.3070266 -0.3138411
-0.25154215 -0.14340171 -0.23856798 -0.073232174 -0.07867196 -0.055724066 -0.28599316 -0.026593804
-0.326015 -0.11405507 -0.029848935 -0.22520222 -0.2911874 -0.17000279 -0.1514728 -0.29767507
-0.08194719 -0.23104729 -0.19544317 -0.16927178 -0.19062088 -0.33284998 -0.19123238 -0.17995997
-0.07747426 -0.093352966 -0.11662611 -0.06841343 -0.24678162 -0.15321107 -0.03942768 -0.051056623
-0.33181012 -0.16345762 -0.12030364 -0.16088125 0.007489636 -0.14366536 -0.07766431 -0.14722486
-0.06158222 -0.15794261 -0.17602718 -0.17080837 -0.0477994 -0.2111801 -0.08616287 -0.11710947
-0.014541761 -0.20747443 -0.116634354 -0.25456214 -0.19738115 -0.17293282 -0.08690049 -0.17857149
-0.11898667 -0.05382268 -0.044407345 -0.20693393 -0.038799755 -0.23595202 -0.364065 -0.1655272
-0.15198748 -0.033220086 -0.17411423 -0.09010131 -0.196756 -0.2240084 -0.12589024 -0.20988734
-0.05428685 -0.1382353 -0.17785034 -0.13463344 -0.23890407 -0.1849401 -0.010901823 -0.20426089
-0.12857163 -0.16651922 -0.20523725 -0.33968925 -0.22828577 -0.046354793 -0.14838256 -0.06745141
-0.095113665 -0.057645448 -0.14395481 -0.13983072 -0.05844522 -0.23656021 -0.22620717 -0.12762769
-0.045463573 -0.21368456 -0.10181482 -0.19011451 -0.1980881 -0.10232937 -0.12464868 -0.1806249
-0.28954718 -0.123004414 -0.07497057 -0.19759452 -0.29346362 -0.15367097 -0.12134843 -0.16756721
0.033656552 -0.21039653 -0.065750614 -0.29932106 -0.18554372 -0.08546344 -0.20238368 -0.193416
-0.2130047 -0.15081511 -0.07445338 -0.29793972 -0.17454953 -0.072738856 -0.0860971 -0.15905248
-0.25585032 -0.13861735 -0.18198846 -0.16629224 -0.02392321 -0.07003035 -0.1714296 -0.20505732
-0.11216317 -0.037133336 -0.050779637 -0.25424004 -0.27598405 -0.055067644 -0.03285138 -0.04994813
-0.09427139 -0.15710999 -0.06067273 -0.14373788 -0.1430781 -0.11314042 -0.18267141 -0.1278501
00000000: b2f4 75be 06bc f43c 795f 5cbe 6a6e 04be
00000010: aacc 3abe aa1c a3bd d6fd 04be d3de ffbd
00000020: 9532 49be 7ef8 a8bd 30ab 37be 6ab7 adbd
00000030: 96ea 83bd adbb 0abc e774 4fbe 85fe c1bd
00000040: 0dc8 e6bd 3c14 41be 8ba3 cdbd 14ac 87be
00000050: d935 4ebd b2c4 69be c9b6 7bbe f84e 84be
00000060: fda4 a5be 4be1 3cbe 354e 24bd 4f60 6abe
00000070: 2f26 0dbe dedc 6fbd 3a21 c8bd 3670 fcbd
00000080: f35c 84be 2e49 a2be 2ddb 0cbe a49d 0cbe
00000090: cd6e 3dbe 55bb 8cbe 8ed3 bebe 65af a8bb
000000a0: 39e6 dcbd b2e8 cf3c 01ed 63be d488 c2be
000000b0: 1870 5abe a539 3ebc 7897 fcbd e5c5 efbd
000000c0: 419c c2bd 66bc 0fbe ccf4 91be 1baf 6ebe
000000d0: d0cf e1be 23ea 73bd e0a6 83be aab1 2fbd
000000e0: 3b41 2fbd 31e2 4bbe ed25 25be 2932 e3bd
000000f0: 5469 f3bd a3e0 63be a80b 4fbe 3b47 2dbe
00000100: 294e 95bd 146e cdbe 910c b2bd 8c0f abbe
00000110: dd26 6bbe cff9 28be 6afd e7bd 5dae 9abd
00000120: 2f9f af3c 94da 86bd 9191 9bbd 197a 87be
00000130: e52d 39be 9936 42be ca26 1fbd e011 82be
00000140: 3901 06be 278b 4fbe 3534 41be 1241 97be
00000150: eae1 9bbd f411 82bc d9fe 19be f2ce 18be
00000160: c928 fabd 973c 92be 2fde 7dbe d7ea 1cbe
00000170: d737 b2bd 7ba3 08bd 0901 32be 6f3e 90bd
00000180: f856 a7be 4cbc 5cbe 8534 d1bd 01f0 5bbe
00000190: ee7b 96bd f1fe 55be 9732 9dbe c8af a0be
000001a0: 22ca 80be e6d7 12be 2a4b 74be c0fa 95bd
000001b0: c41e a1bd eb3e 64bd b26d 92be 40db d9bc
000001c0: 70eb a6be b495 e9bd c185 f4bc 699b 66be
000001d0: 8416 95be 3615 2ebe b01b 1bbe de68 98be
000001e0: eed3 a7bd a997 6cbe 4122 48be 9555 2dbe
000001f0: 1f32 43be 506b aabe 6cd2 43be 6d47 38be
00000200: d3aa 9ebd d72f bfbd acd9 eebd 571c 8cbd
00000210: 52b4 7cbe 5de3 1cbe eb7e 21bd c020 51bd
00000220: 04e3 a9be 6f61 27be c161 f6bd 0ebe 24be
00000230: 9f6b f53b 031d 13be 770e 9fbd 1dc2 16be
00000240: a33d 7cbd b5bb 21be 7840 34be 64e8 2ebe
00000250: 4ec9 43bd 993f 58be 2976 b0bd 17d7 efbd
00000260: 9140 6ebc 2d74 54be fedd eebd f855 82be
00000270: 491e 4abe 4d15 31be e2f8 b1bd 72db 36be
00000280: 49af f3bd 2c75 5cbd 7ae4 35bd 7de6 53be
00000290: 7eec 1ebd 689d 71be ba66 babe f67f 29be
000002a0: 9ba2 1bbe c911 08bd 004b 32be 0987 b8bd
000002b0: 687a 49be 7562 65be 5fe9 00be b5ec 56be
000002c0: e35b 5ebd 8e8d 0dbe 661e 36be 59dd 09be
000002d0: 45a3 74be f060 3dbe 8f9d 32bc c429 51be
000002e0: 48a8 03be 0484 2abe b729 52be c0eb adbe
000002f0: bfc3 69be 86de 3dbd 99f1 17be f723 8abd
00000300: f4ca c2bd a21d 6cbd e468 13be c92f 0fbe
00000310: 4164 6fbd d73c 72be daa2 67be d5b0 02be
00000320: 0338 3abd 20d0 5abe 4a84 d0bd 61ad 42be
00000330: 9bd7 4abe 1092 d1bd cf47 ffbd bcf5 38be
00000340: 873f 94be bde9 fbbd 2c8a 99bd 3856 4abe
00000350: dd40 96be ec5b 1dbe 8785 f8bd bd96 2bbe
00000360: 74db 093d 3072 57be 42a8 86bd 9c40 99be
00000370: 2cff 3dbe 7507 afbd ab3d 4fbe d80e 46be
00000380: e71d 5abe 476f 1abe 047b 98bd 8e8b 98be
00000390: 1dbd 32be 1cf8 94bd ad53 b0bd a7de 22be
000003a0: d0fe 82be b5f1 0dbe 2f5b 3abe 8348 2abe
000003b0: 9cfa c3bc 126c 8fbd 3e8b 2fbe 8cfa 51be
000003c0: ceb5 e5bd 2019 18bd 4ffe 4fbd c02b 82be
000003d0: c84d 8dbe 9c8e 61bd 2b8f 06bd 6996 4cbd
000003e0: 5c11 c1bd 71e1 20be f883 78bd 0630 13be
000003f0: 1183 12be 2ab6 e7bd 370e 3bbe 23eb 02be

fc2.bias f4 [81]
-0.1369104 -0.19387102 -0.046963807 -0.03203565 -0.0019424965 -0.09453648 -0.060712 -0.06973977
-0.060637128 -0.11281678 -0.120858245 -0.087914206 -0.115794525 -0.12106769 -0.13809355 -0.28056335
-0.1520444 -0.075852394 -0.111648105 -0.16925648 -0.120618336 -0.09686299 -0.0077026985 -0.102307305
-0.10854622 -0.07574361 -0.14202286 -0.10186432 -0.1614745 -0.070204735 0.0029860612 0.06289255
-0.08287301 0.0072663566 -0.06531114 -0.14587538 -0.046243906 -0.028353693 -0.14538178 -0.010978901
0.29752845 0.08252895 0.036049854 -0.05189864 -0.15861654 -0.22587092 -0.21104746 -0.14723262
-0.18255392 0.17026758 -0.029681131 -0.0015895749 -0.056810934 -0.08597292 -0.01628393 -0.09467301
-0.045712706 -0.13165092 0.051998563 0.030186977 0.07057043 -0.0498055 -0.05670048 -0.13596493
-0.09202989 -0.10817627 -0.02628068 0.0504083 -0.18313748 -0.14748041 -0.04167404 -0.097860575
-0.13504758 -0.100760065 -0.027950888 -0.14550647 -0.014507169 -0.25686917 -0.20791586 -0.11516223
-0.21189858
00000000: 3d32 0cbe 2086 46be 1f5d 40bd d037 03bd
00000010: 5e9b feba 589c c1bd 25ad 78bd b9d3 8ebd
00000020: a35e 78bd 7c0c e7bd 8784 f7bd 5d0c b4bd
00000030: ae25 edbd 56f2 f7bd 6568 0dbe 00a6 8fbe
00000040: 87b1 1bbe 8058 9bbd c3a7 e4bd 9251 2dbe
00000050: bf06 f7bd 1a60 c6bd eb66 fcbb 7e86 d1bd
00000060: 7b4d debd 771f 9bbd 716e 11be 3e9e d0bd
00000070: 9259 25be 80c7 8fbd cbb1 433b cfcd 803d
00000080: 53b9 a9bd 9e1a ee3b d9c1 85bd 5b60 15be
00000090: 406a 3dbd 0146 e8bc f6de 14be d9e0 33bc
000000a0: a655 983e f004 a93d 03a9 133d ab93 54bd
000000b0: 606c 22be b54a 67be d31c 58be 26c4 16be
000000c0: 6aef 3abe a05a 2e3e d825 f3bc 4859 d0ba
000000d0: 95b2 68bd 9212 b0bd e065 85bc ece3 c1bd
000000e0: 3f3d 3bbd 80cf 06be 72fc 543d ae4a f73c
000000f0: 3b87 903d da00 4cbd c33e 68bd 643a 0bbe
00000100: 2b7a bcbd 858b ddbd 954a d7bc ef78 4e3d
00000110: 6488 3bbe 1b05 17be 66b2 2abd 206b c8bd
00000120: ea49 0abe 4b5b cebd 43f9 e4bc a6ff 14be
00000130: 7aaf 6dbc 5b84 83be e5e7 54be 2dda ebbd
00000140: f1fb 58be
