models/policy_agent_trained_2025_01_31_06_17_46.pth (torch, 86168 bytes, 4 tensors)

fc1.weight f4 [128, 81]
00000000: 08ad 01be 08fd 0c3c 1b4d 6a3d 5459 43bd
00000010: 521f 8e3d c654 6d3d 8ba6 c5bb dffd f03c
00000020: ae87 5bbd 169b b2ba b1ef 553d e27a d9bd
00000030: 3ba1 90bc 8d15 5dbd dde3 9f3d b634 88bd
00000040: 1f63 90bc b8e9 72bc 97c2 fabd 8d18 d2bd
00000050: 2fa4 8abc d1f3 b3bc 9874 fc3c bbe0 34bd
00000060: 7074 533d f3bd 5e3c e9f4 783c d446 563d
00000070: 3928 96bd d079 9a3c c951 e03d 9634 683e
00000080: 5843 763c 5c3c f8bc 7645 343d 1157 a23d
00000090: 2cfc 53bc 897f d6bd 9747 14be 4020 93bd
000000a0: 0f86 5c3e 632a be3b d959 d13c 527f 90bd
000000b0: 7e9b 19be 7ffc a1bd 27c5 aebb d2eb 623c
000000c0: 3802 66be 1298 1ebd 3201 f0bd 45b3 6abe
000000d0: 1207 aabc ea5a b53d 6454 123c 300d 0cbd
000000e0: b5a2 97bc d7c0 393b b355 68be 0083 9dbd
000000f0: 6674 8e3c aec7 21bd c7e1 fabd 5e69 abbb
00000100: 1c70 103e b9d7 963c 6fcc 87bd ccfe 5f3d
00000110: ceb1 383d 1b21 bf3c 9f75 1b3d 7ea7 f4bc
00000120: be8e 2a3c f229 17bd 287a f93d 9e35 363b
00000130: 26f0 973d b01f be3d fa26 983d ed0b 05bd
00000140: 7bf8 33bc 1410 1abe 807c bbbd 2e84 f3bd
00000150: 287c 87bd d370 a23d 86e9 33bd d8a0 11bd
00000160: fcba b7bd 27a1 a93a e6b5 f33c 9aeb 39be
00000170: a58c be3c b242 12be d4ef 823c 056a 103d
00000180: 00b0 c8bd a736 22be 523d 02be e187 363d
00000190: 1fe5 2abd 045a 6bbd 9998 afbd fa65 673c
000001a0: 0fa7 c23c 05eb 4ebd 369d babd f844 33bc
000001b0: dd50 8dbc 57c5 a83d 8daf f13d 799f 35be
000001c0: a3ab 3c3d d546 97be 8928 a9bd f126 2a3b
000001d0: e98a d33d c221 69bd 8b57 bc3d 6008 abbc
000001e0: e5ef a83d b028 dcbc c495 6fbd e742 1ebd
000001f0: daf7 433c 3cce 113a 4cdd c4bc 9f51 33bd
00000200: 1d74 143e 8a67 ca3d f7a6 89be d478 193e
00000210: 07c7 05be b040 273d 1c4b 353d 3c26 c03d
00000220: 029d 37bd d5d2 5dbb f6af 8abd d3e1 d8bc
00000230: 2e13 603d 3880 54be b3d3 a33d 0f6e 96bd
00000240: 5d62 b4bc 16d5 69bd 61f3 703d 2449 29be
00000250: efcf d5bd d778 e7bd 4f2a 30bd 5773 aebd
00000260: 185a 863d 26d1 cebc e294 b9bd 7c17 c63a
00000270: ed04 ebbd a2df 933d 5cb2 113d 915d edbd
00000280: 381a 34bd d0b3 5ebc 0ec8 743d a91c 82bd
00000290: 8219 0dbe 181f cbbd 89ae 32bd f5b7 d9bc
000002a0: b78f 8abd 5b2d 8abd 469d e43c d8d3 21bd
000002b0: 636a 383d 2bd6 0fbd 52fa 49bc 674c 47bd
000002c0: 5cad bfbd 015c efbd e43e 37be a250 983c
000002d0: 3294 93bd f2c0 73bd 7808 303c 878a a33b
000002e0: cafc 3ebe 02eb 2fbe 98ed 403c c088 e3bb
000002f0: f378 35bb b216 79bc 4b7b f4bd e391 bebd
00000300: 6974 293a ebaa 853d 8074 e73d b7da 0d3d
00000310: 1256 07be ef55 9e3d 17a2 833d cc3a 57bd
00000320: f9dc 1abe d385 1fbe c109 e93c 1800 0a3e
00000330: 838c c03d f7ef eebb 1b7b eb3c 1faa 02be
00000340: b6eb 05bd a7e8 a6bb 97ea 313b 6a4c 1c3d
00000350: 62d8 08be 41e1 a13b a92c 11be b25a d13b
00000360: 6951 0c3d becb e43c af25 ba3c f35b 473d
00000370: a679 3dbe c971 a93c 5a93 94bd eb9c 61bd
00000380: 4031 063c 33d8 50bd 1711 80bd 420c 0f3e
00000390: 4fec e1bc 2cb8 5c3d b797 b23d 944c 383d
000003a0: cd59 97bc 9363 aa3d 5387 1f3d 164f 553d
000003b0: 1492 3fbc f324 773c 0bb1 b8bd 9a40 c8bd
000003c0: f8cf 07be 5b3c cfbd 51ef bd3c f85a 04be
000003d0: f14f 91bc 302f 193d 16a9 25be 61f0 93bc
000003e0: f73e 13be 0996 8d3d 0dc2 03be 724c a23d
000003f0: 447b 9ebd 4c40 043c 305a af3d fd82 343d
-0.12663662 0.008605249 0.05720244 -0.04769261 0.069395676 0.057942174 -0.0060318164 0.02941793
-0.05359619 -0.0013626541 0.05223054 -0.10619141 -0.017655006 -0.05397563 0.07807133 -0.06650679
-0.01762539 -0.014826231 -0.12244146 -0.10258589 -0.016923992 -0.021966847 0.030817315 -0.044159632
0.051624715 0.013595092 0.01519511 0.05231364 -0.073318906 0.018856913 0.10953099 0.2267631
0.015030704 -0.03030222 0.044011556 0.07926763 -0.01293854 -0.10473544 -0.14480434 -0.071838856
0.21535514 0.0058033927 0.025555538 -0.070555344 -0.15000722 -0.07909488 -0.005333561 0.013850169
-0.22461784 -0.038719244 -0.11718978 -0.22919948 -0.020755325 0.08855231 0.008931253 -0.034192264
-0.018510202 0.0028343701 -0.22688942 -0.07691002 0.017389487 -0.03949707 -0.12250095 -0.0052310666
0.14105266 0.018413411 -0.066307895 0.054686353 0.045091443 0.023331216 0.03795397 -0.029865023
0.010410009 -0.036905237 0.121815026 0.0027802954 0.074188516 0.09283388 0.07429309 -0.032482076
-0.010984535 -0.15045196 -0.09154606 -0.11890446 -0.06615478 0.07931676 -0.043923877 -0.035553783
-0.08971211 0.0012941704 0.029749822 -0.18156281 0.023260424 -0.14283255 0.0159835 0.035257358
-0.09799194 -0.1584116 -0.12718704 0.044563178 -0.041722413 -0.057458892 -0.085740276 0.014123434
0.0237613 -0.0505171 -0.09112017 -0.010941736 -0.017250473 0.082407646 0.11801062 -0.17736615
0.046062123 -0.29546228 -0.082596846 0.0025963152 0.103292294 -0.05691696 0.09196385 -0.020878017
0.08248881 -0.02687487 -0.058492437 -0.03863802 0.011960948 0.00055620424 -0.024031304 -0.04377901
0.14497419 0.0988303 -0.26885197 0.14987499 -0.13064204 0.040833175 0.044261083 0.09382293
-0.04482747 -0.003384759 -0.06771843 -0.026474869 0.05470579 -0.20752037 0.07999363 -0.07345211
-0.02201956 -0.05708798 0.058825854 -0.16531807 -0.10440051 -0.11302345 -0.0430091 -0.08518093
0.06560153 -0.025246214 -0.090616 0.00151132 -0.11475549 0.07220389 0.035570487 -0.11590112
-0.043970317 -0.013592675 0.0597611 -0.06353123 -0.13779262 -0.0991804 -0.04362348 -0.026576975
-0.06765693 -0.06746932 0.027907025 -0.03950867 0.045023333 -0.035116356 -0.012327747 -0.048656847
-0.093592376 -0.1168747 -0.17895085 0.018593136 -0.072060004 -0.05951018 0.010744207 0.004990879
-0.18651119 -0.17179492 0.011775397 -0.006943792 -0.00276905 -0.015203165 -0.11937579 -0.093051694
0.0006464185 0.06526741 0.113015175 0.03463241 -0.13216427 0.07731234 0.064274006 -0.052546307
-0.15123357 -0.15578394 0.028447034 0.13476598 0.094018005 -0.0072917896 0.028745225 -0.12760209
-0.032695495 -0.0050936523 0.0027147883 0.03815881 -0.13363793 0.0049401824 -0.14177193 0.0063889856
0.034257326 0.027929183 0.022723047 0.048671674 -0.18503436 0.02068414 -0.072546676 -0.05508129
0.008190453 -0.050987434 -0.0625326 0.1396952 -0.027578501 0.053886577 0.087203436 0.044994906
-0.018475438 0.083197735 0.038947415 0.052077375 -0.011692543 0.015084493 -0.09018143 -0.09777947
-0.13262928 -0.10118934 0.023185404 -0.12925327 -0.017738314 0.037398517 -0.16177782 -0.018058958
-0.14379488 0.069133826 -0.12866993 0.07924737 -0.07738355 0.00807197 0.08562124 0.044070233

fc1.bias f4 [128]
00000000: 83e0 4a3d fa51 d83e 4791 d6bd 2e60 863e
00000010: 5dd0 dbbc 1903 a23e 3159 003e 126b d3bb
00000020: 1b9b 893e e825 ac3e e091 783d 30de ab3e
00000030: 1b82 d83e 8895 c1bb 9609 003f 5aac 823e
00000040: 98e0 e93d 0cae 353d 7b72 1c3e 62ba eb3e
00000050: e535 8e3d 89b7 1a3c 6238 15bd de12 50bc
00000060: 6e5a ecbc b76e ab3c c2d3 bfbb 953e 003f
00000070: 8b54 a53e 058a cf3e 91b5 3e3c 3535 41bc
00000080: bed7 2a3c 0339 a3bb 28ea 273c 908c b73e
00000090: c2a9 c83e b1a6 77bc 5d63 c9bc 8a8b 9e3d
000000a0: cdf0 153c 3016 45bc 7d8a ff3e b585 10bd
000000b0: 1f95 d13c 392f 983c b733 9f3e 50a0 073d
000000c0: 99aa 2d3c e90d af3c a9d4 ab3e 39b5 4dbd
000000d0: 1d61 a13e 264f 923c cfe6 403b ee69 d23e
000000e0: de74 3abc 760b bfbd a7e7 8f3c f842 d53e
000000f0: ba86 31bc 98cf d83e 5582 eebd 7d8b a93e
00000100: c215 ba39 0050 2e3e f341 753d ad82 a53e
00000110: e8fd 8e3e b7da a33b 3641 b23e e685 d93e
00000120: 924a af3c 91a6 d03e 5d2a e53e 3cf7 a43a
00000130: 9213 113f 227d dd3e b549 943e fdf6 0e3c
00000140: 872b 443c 5d8e 3d3d 1b5e 073f c68d c23e
00000150: 5d1a 693e c17c 56bc afc7 983c 4bce 933e
00000160: ae32 52bb 1fda d13c 83e1 bb3e cb47 c03e
00000170: 6e4a 0cbb 347e cf3e a980 4cbd 71bd 073f
00000180: 66f8 923c 724a 973e be9d 9a3e 806d 68bc
00000190: a15a 84bc 8ddf 5c3d 1fd9 17bd dab1 2fbd
000001a0: 7b17 773e e999 94bc 3b5f 963c 11ff 843c
000001b0: 75ef b03e 26a1 ea3d 578e 133d 40dc a23e
000001c0: 6164 af3e 6b6e 78bc 17a8 103f 89a0 bdba
000001d0: 7f1d dc3e f5ae a53e e922 803e bbdb 9ebd
000001e0: c245 e43e 021a b33c 887b 0abc 60a5 c23e
000001f0: 51b0 df3e 1bf4 173f 4e25 913b f75b f23e
0.049530517 0.42250043 -0.10476928 0.26245254 -0.026832754 0.31642988 0.12534024 -0.0064519728
0.2687615 0.3362267 0.060685992 0.33567953 0.42286763 -0.005907718 0.50014627 0.2552212
0.11419791 0.044355437 0.15278046 0.46040636 0.06943873 0.009443172 -0.036430724 -0.012699811
-0.028851714 0.020926816 -0.005854101 0.5009549 0.32291064 0.40534988 0.0116399685 -0.011792471
0.0104274135 -0.0049811616 0.010248698 0.35849428 0.39192015 -0.015115426 -0.024583513 0.07741459
0.00915165 -0.012029216 0.49910346 -0.035283763 0.025583802 0.018577205 0.31094143 0.03311187
0.010599756 0.021368938 0.33560684 -0.050221656 0.31519404 0.017860007 0.0029434448 0.41096443
-0.011380402 -0.09328358 0.017566515 0.41652656 -0.010835344 0.4234588 -0.116459526 0.33114234
0.00035492895 0.17022705 0.059877347 0.3232626 0.2792809 0.005000438 0.34815377 0.4248497
0.021397863 0.4075208 0.44758883 0.0012585889 0.56670487 0.4325953 0.28962484 0.008725879
0.011973268 0.046278346 0.5287797 0.3799879 0.22763963 -0.013091267 0.018649904 0.28868327
-0.0032073664 0.025616704 0.3669549 0.37554774 -0.0021406668 0.40525973 -0.049927387 0.5302344
0.017940711 0.29548985 0.30198473 -0.014186263 -0.016156496 0.053924132 -0.037072297 -0.04289422
0.24130051 -0.018139796 0.018355956 0.016234906 0.3455769 0.11456518 0.036024418 0.31808662
0.3425627 -0.015163044 0.56506485 -0.0014467399 0.42991254 0.32360044 0.25026634 -0.07756754
0.4458447 0.021862987 -0.008452304 0.38016796 0.43689206 0.5935685 0.004429496 0.4733579

fc2.weight f4 [81, 128]
00000000: 27fe f9bd 887e 0fbd e16b 0dbd b281 57bd
00000010: 3be1 22bd c207 b6be 16a8 03bf 1f02 56be
00000020: 1b2d 80be 7537 4dbe a8a5 d1be c87d 1fbe
00000030: bdaa 91be e8a8 fabd f690 37be 41f0 45be
00000040: 25d4 d1be 832d d6bc 3959 8bbe f90c 9cbe
00000050: a224 2ebe f0d9 49be 8e0f d0bd b8c1 41be
00000060: 4f79 8abe 4836 2ebe 09af febd c0c3 69be
00000070: 5507 21be 1a36 45be 77d0 4cbe 3178 b3be
00000080: f05a 29be dbf2 0dbe e614 9abb 7ad0 0bbd
00000090: 5692 bfbd cc53 33bd 84a0 45bd b03f 07be
000000a0: 00b0 85be e075 37be 3884 1dbe c039 3ebe
000000b0: c3c8 fcbc f88e 31be 5f8d 8fbd d754 b2bc
000000c0: 49eb 8bbe 691b d7bd 534b 00be 54f2 b6bd
000000d0: 3aa0 31be 464b 0abc a709 adbe 92e7 8dbd
000000e0: 38ca a5be 430a 44bb 10bf b2bd b59b 61be
000000f0: f15f 78bd 1c1d 20be 2b01 febc d0d6 94be
00000100: a5f9 b3be 5beb d3bd 057b 99bd f407 8abd
00000110: af09 01be 2452 75be 6128 b5be 411b ecbd
00000120: d776 01bf 550f c8bd cb7f b4be 61ac 8dbe
00000130: e1e0 0dbe 0e96 24bc 7c66 81bd 6a15 a7bd
00000140: 703a 46be 61d3 b3be 650e 75be 783a bebe
00000150: 11df aabd ae4c 27be e7bb 57be c378 3ebe
00000160: a761 a9bd 9a94 19bf 7c78 fbbe e3c8 87be
00000170: df62 43be 7f98 cebc 8ce1 e2be 63bb 2abe
00000180: 1504 07be ceba 6bbd ebed fdbd 1d8e 67be
00000190: df33 88be 0ce7 babe 6c17 cebd 715a 44be
000001a0: fe9b 30be 7bc2 03bf 09e5 6cbe 4a45 29be
000001b0: d0de b4be 0867 34be 536c 22be 3a80 51be
000001c0: cbef 45bd bcb1 39be 54ea afbe 3f7b cdbe
000001d0: 1824 1abe 23ff 61be c25e cabc c414 d5be
000001e0: f61e efbd e96f edbe 8170 69be 2e92 01bd
000001f0: 847c 4dbe 89e7 2ebe 0c05 92be 8651 ecbe
00000200: 11f8 f23b 3643 5dbd ecc4 7b3d 90c5 20be
00000210: 6048 d9bd a60e e0be 41c4 28be 59fe a73c
00000220: ca1c 82be 5e03 0abe 310b f3bd e202 60be
00000230: 9e6b 91be 1afc 54be 23a3 3bbe 3a34 02bd
00000240: 344f 37be 07c9 b7bb c471 f0bd 08f0 07be
00000250: 3bd8 d7bd 5531 98be 7c82 aebd 554c 393b
00000260: 517d 0dbd 73bd 18be e928 c5bd 12ea 92be
00000270: cb60 353d 4c10 94bd 5b95 d2be 0dd7 03be
00000280: 512d 0bbe 6fdf d2be d79e 80be d17a 32bd
00000290: 9210 0cbe 734a fa3c 4ac3 053d fd2c a4be
000002a0: 47d9 92be 994f 48be 35a5 07be 3eb5 6cbe
000002b0: e00c b83c 1554 51be a849 09be cd4b 72be
000002c0: d89d 44be dacd adbe d34e 61be a0aa 4bbc
000002d0: 805c b2bd 2f9f 2cbe ffd4 11bd 3148 15be
000002e0: 4223 d0be 2947 f7bd 8ec4 5bbe 90bc 73be
000002f0: 3c57 e1bd 6c02 59be d3fd 52be f15e 8fbe
00000300: eb21 33be 45db 82be 8b6e 2abd a8eb 7abe
00000310: d779 23bc 62bb b3be aa9f 20be 9f9b 23be
00000320: 4198 cebe d1b4 5cbe 7d7a aebe 32f6 01be
00000330: fd44 afbe b0c8 93be 6cd7 7ebe cefc 1f3d
00000340: 1763 05bf 233d edbd c9f7 29be c848 c5be
00000350: fca0 ebbd 2f32 fdbb ad29 50be 5b07 103d
00000360: 31d0 843c b42b 55be 2471 86be f657 2fbe
00000370: 739e 20be fa2d 54be f3d8 afbe 429a 9fbe
00000380: f589 e7be 08d8 853c 8a6e 14be dbec f93c
00000390: 51aa 00be 1958 8b3d 019e 9abe 0f8d 0fbe
000003a0: 3b4a 44be d033 86be e0ed 88be 0483 34be
000003b0: f0cd e4be e5e3 5fbe b92e 06be f2df c2bd
000003c0: 2d3d 66be c611 f73c 85c4 ccbe 7ccb 413c
000003d0: 9888 05be 6ace b8bd 6b02 25bd 234b 06bf
000003e0: 7bee 9cbd 58bb 28bf ccb2 38be 8d79 31be
000003f0: 611b 1dbe 9350 61be b8ae 14be 6cc1 11bf
-0.12206679 -0.03503278 -0.03452671 -0.05261392 -0.039765578 -0.35552794 -0.51428354 -0.20899247
-0.25034413 -0.20040686 -0.40946698 -0.15575325 -0.28450575 -0.122392476 -0.17926392 -0.19329931
-0.40982166 -0.026144749 -0.2721651 -0.30478647 -0.17006162 -0.19712043 -0.10159217 -0.18921554
-0.27045676 -0.17012894 -0.12435729 -0.22828579 -0.15725453 -0.1925892 -0.20001398 -0.35052636
-0.16538596 -0.13862173 -0.0047021983 -0.034134366 -0.09354083 -0.043781087 -0.048248783 -0.13207889
-0.2611084 -0.1791606 -0.15382469 -0.18576717 -0.03085745 -0.17339694 -0.07009386 -0.02176897
-0.27327946 -0.10503275 -0.12528734 -0.08932939 -0.17346278 -0.008440798 -0.33796427 -0.06928934
-0.32380843 -0.0029913343 -0.087278485 -0.22032054 -0.06063837 -0.15636104 -0.031006416 -0.2907014
-0.351514 -0.10347625 -0.07494167 -0.06739798 -0.1260135 -0.23957115 -0.3538237 -0.11528636
-0.5057196 -0.09768549 -0.35253748 -0.27670577 -0.13855316 -0.010045541 -0.063183755 -0.08158381
-0.1935823 -0.35122207 -0.23931272 -0.37153983 -0.08343328 -0.16337845 -0.21067773 -0.18600754
-0.08270579 -0.59992373 -0.4911536 -0.26520452 -0.19080685 -0.0252192 -0.44312704 -0.16673045
-0.13185151 -0.057551198 -0.12398895 -0.22612806 -0.26602075 -0.365044 -0.10063061 -0.19175126
-0.17247006 -0.5146863 -0.23134245 -0.16530338 -0.35326242 -0.17617428 -0.15861635 -0.20459071
-0.048324388 -0.18134207 -0.34358466 -0.40133092 -0.15052831 -0.22069983 -0.024703387 -0.41617405
-0.11675827 -0.46374443 -0.22796823 -0.03163355 -0.2006703 -0.17080511 -0.28519475 -0.46155947
0.0074148257 -0.054019175 0.061467096 -0.15700364 -0.106095076 -0.43761176 -0.16481115 0.020507025
-0.2541259 -0.13477847 -0.11867369 -0.218761 -0.28402418 -0.20799294 -0.1832395 -0.03178809
-0.17901307 -0.005608681 -0.11740449 -0.13275158 -0.105392896 -0.29725137 -0.08520982 0.0028274257
-0.03454334 -0.14916019 -0.096269436 -0.28694206 0.044281762 -0.07229671 -0.41129574 -0.12875004
-0.13591506 -0.4118609 -0.25121185 -0.043574158 -0.13678196 0.030553078 0.032656945 -0.32065573
-0.28681394 -0.19561614 -0.13246615 -0.23116013 0.022467077 -0.20442231 -0.13407004 -0.23661728
-0.19200838 -0.33946115 -0.22002725 -0.012430817 -0.08709049 -0.16857599 -0.03560352 -0.1457832
-0.406519 -0.120741196 -0.21461698 -0.238024 -0.11002967 -0.2119233 -0.20604639 -0.28002122
-0.17493407 -0.25557914 -0.04160933 -0.24503958 -0.009977779 -0.351039 -0.15685907 -0.15977333
-0.40350536 -0.21553351 -0.34077826 -0.12691572 -0.3423232 -0.2886405 -0.24886864 0.039059453
-0.52104324 -0.115839265 -0.16598429 -0.3853209 -0.11505315 -0.0077269296 -0.20328398 0.035163265
0.016212555 -0.20817453 -0.26258194 -0.17123398 -0.15685444 -0.20720664 -0.34345207 -0.31172377
-0.4522244 0.016338363 -0.14495292 0.03050845 -0.1256497 0.06803913 -0.30198672 -0.14018653
-0.19168942 -0.26211405 -0.26743984 -0.17628103 -0.44688368 -0.21864279 -0.13103761 -0.095153704
-0.22484274 0.030159842 -0.39993683 0.0118283 -0.13040388 -0.09023745 -0.04028551 -0.524584
-0.07662674 -0.65910864 -0.18036956 -0.17331524 -0.15342475 -0.22003393 -0.14519775 -0.56935763

fc2.bias f4 [81]
00000000: 2627 2cbe 4c11 26be ff1e 5cbd 9a18 30be
00000010: 916a 4bbc 1674 26be a9bf 1bbe c922 b1bd
00000020: f4d6 45be 7b0e a7bd ef81 53bd e624 2dbc
00000030: 123a c9bd 5b7f 64bd 76d0 e9bc 6857 c5bd
00000040: 58a2 6e3c 6bc2 07be fc8f 0ebe 4c3e babd
00000050: 3790 ecbc f92d c5bd ef40 9b3d 34bc b6ba
00000060: 02ec 8ebc 09fa 7cbd 3f35 13bd 41f1 67be
00000070: 6ea0 0ebd a74a 8e3d f932 85bd fefd 323d
00000080: c3d7 633d 1a1b edbc 98af e8bd c272 03be
00000090: 9925 abbd 72e8 233d 29f0 a6bb 0f99 af3d
000000a0: 31af 7c3e 905f 2a39 26d5 70bb 1f34 c0bd
000000b0: ea13 3b3b 1999 24bd 4b5a 8bbd 46be b7bd
000000c0: 4acd 92bd e81f 36bc 79d4 d2bc 90ab 063c
000000d0: 6cdc 82bc 1f91 ecbd 4ef8 bbbd 765f 993d
000000e0: a89b fabd 8e04 8ebd a7e5 d1bb 9934 4ebd
000000f0: ead7 b7bd f7ed 96ba ec8b a9bd 6e3a 4abe
00000100: bca5 aebd 70bc b3bd 048d 943c 2e8e 8cbd
00000110: d109 503d 1a8d 09be b6b9 c9bd f375 fdbd
00000120: cef6 d1bd 52bd 84bd 58f7 76bd 6809 e9bd
00000130: abcc 41bc 49c7 1dbe 0827 0b3c cfea 9abd
00000140: 5b5a 22bd
-0.16811809 -0.16217536 -0.053740498 -0.17196885 -0.012415544 -0.16255221 -0.15209831 -0.08649213
-0.1932028 -0.08157059 -0.051637586 -0.010567879 -0.09825529 -0.05578552 -0.028541785 -0.09635812
0.014565073 -0.13257758 -0.13922113 -0.090939134 -0.02887736 -0.09627909 0.075807445 -0.0013941587
-0.017446522 -0.06176189 -0.03593945 -0.22650625 -0.034820966 0.069478326 -0.06503863 0.043699257
0.05562569 -0.028943587 -0.11361617 -0.12836745 -0.083567806 0.0400166 -0.0050945473 0.085741155
0.24676205 0.00016248063 -0.003674814 -0.09384941 0.0028545805 -0.040185068 -0.068043314 -0.08971839
-0.07168062 -0.0111160055 -0.02573608 0.008219615 -0.015974246 -0.11551117 -0.0917822 0.07488911
-0.1223672 -0.069344625 -0.0064055505 -0.05034313 -0.08976729 -0.0011515011 -0.08278641 -0.19748852
-0.08527705 -0.08776176 0.018133648 -0.06863056 0.05079061 -0.13432732 -0.09849875 -0.12376013
-0.102521524 -0.064814225 -0.06029448 -0.11378747 -0.011828582 -0.15408053 0.0084931925 -0.075643174
-0.03963695
