models/policy_agent_trained_2025_01_31_06_07_04.pth (torch, 86168 bytes, 4 tensors)

fc1.weight f4 [128, 81]
-0.060041487 0.050133094 -0.053459663 0.04866075 0.1013025 -0.054954343 -0.06028402 0.05665163
0.03688348 -0.08208695 0.06529784 0.0626929 0.09514081 -0.08559005 -0.09175534 -0.023405246
0.03140989 0.02304808 0.10290382 -0.082501955 0.11467013 0.034965083 0.04980783 -0.049214125
-0.009076983 0.0152910855 -0.08260782 0.054104097 -0.07560351 0.015329228 -0.005822912 -0.06475216
-0.109538615 0.027633943 0.030042922 0.03611373 0.024562307 0.04617972 -0.047042273 -0.07898933
-0.05683072 0.032521684 -0.05336805 -0.05088778 -0.015426667 0.055049337 0.08378897 0.02574516
0.073687054 0.110813074 0.042006083 -0.076286875 -0.06865873 -0.0042744577 -0.10739826 -0.07102125
-0.023080602 0.023770608 0.05280652 -0.008073777 0.07545923 -0.08001825 -0.027634352 -0.09261738
-0.054571167 -0.006656356 -0.005179138 0.09244665 -0.08015408 0.007546358 -0.06403324 0.001310505
0.10528038 -0.023376435 0.060474552 0.084957175 -0.029628906 0.013181001 -0.11338453 0.041882
-0.051461417 0.08599444 0.093729615 0.056277778 -0.031540353 0.0007773638 0.109964795 -0.057459883
0.09679451 -0.07601518 -0.0968694 -0.09585275 0.02673968 0.08189497 0.084001176 -0.061664794
0.10763765 -0.0614372 -0.04157862 0.028256305 -0.10208307 -0.0838699 -0.024546653 -0.013238337
-0.09118111 0.038412977 -0.061498106 0.09039412 -0.05847957 0.06868828 -0.071286604 -0.06608445
0.013412309 0.062036574 -0.022742338 -0.045187972 0.030087791 0.01674936 0.017566616 0.09232102
-0.032505505 -0.034116287 -0.124833815 -0.03057229 0.010312076 0.049613636 -0.11059679 0.08466952
0.075059555 0.100170724 -0.0032216012 0.06785838 -0.038836993 0.063424215 0.10048718 -0.09958717
0.022600256 -0.079961225 0.04038682 -0.032350235 0.053722046 -0.121941544 0.04167319 -0.083646126
0.10628735 0.008445278 0.01375629 0.07021668 -0.042869486 -0.12093057 -0.04481668 -0.008233994
0.08318939 0.09764642 0.05949948 -0.09273331 0.023928292 -0.07564838 -0.064269945 -0.036685556
-0.093166195 0.024318434 0.063580066 -0.011894291 0.058341436 0.015064752 -0.0704039 -0.0147002265
-0.05527552 -0.091638856 -0.05967702 -0.04671196 0.09420655 -0.07316906 0.028605804 0.08078005
-0.026069112 0.034679852 0.059489846 -0.05324026 0.021464936 -0.0048752483 -0.077126056 0.069745444
-0.073006414 -0.015965648 -0.018647717 0.019276313 -0.11885915 -0.07147823 0.010842698 -0.06640057
0.086332604 -0.089057505 -0.08714211 0.048978932 -0.064410195 0.030557208 0.08180191 -0.046813764
0.012481152 -0.06519955 0.053005196 0.000104435996 -0.074844286 -0.06244352 0.015010652 0.0822093
-0.10860149 0.0061363354 -0.031122485 -0.031242147 -0.02670451 0.08455494 -0.08235869 -0.09482813
0.06741377 -0.043181032 -0.040119797 -0.09503429 -0.017386578 -0.008045286 0.023009421 -0.045280613
0.043622084 -0.057357658 0.028086074 -0.013727032 0.0096637225 0.027671583 0.030411681 -0.0026859343
-0.07514913 0.03611105 0.060578026 -0.01578404 0.03143423 0.010556459 -0.124690495 0.10800614
0.009247384 -0.026987687 -0.096717544 -0.1043532 -0.008238597 -0.039273076 -0.036293626 -0.07202755
0.07368549 0.06587278 0.048169427 0.10728403 -0.005528651 0.023594158 0.06365476 -0.03179068
00000000: 10ee 75bd 5c58 4d3d 85f8 5abd 7f50 473d
00000010: af77 cf3d ce17 61bd 60ec 76bd 8a0b 683d
00000020: 2213 173d 341d a8bd e0ba 853d 2365 803d
00000030: 2fd9 c23d d649 afbd 39ea bbbd 5cbc bfbc
00000040: a8a7 003d 54cf bc3c 3dbf d23d c9f6 a8bd
00000050: 2cd8 ea3d 8c37 0f3d 4c03 4c3d c094 49bd
00000060: a0b7 14bc 7687 7a3c 4a2e a9bd 429c 5d3d
00000070: 03d6 9abd 7127 7b3c 20ce bebb c89c 84bd
00000080: c855 e0bd 9460 e23c 931c f63c feeb 133d
00000090: e436 c93c f226 3d3d 66af 40bd 28c5 a1bd
000000a0: 54c7 68bd 7535 053d 7598 5abd b46f 50bd
000000b0: 22c0 7cbc 6a7b 613d 8d99 ab3d 84e7 d23c
000000c0: 3de9 963d f7f1 e23d 920e 2c3d 4b3c 9cbd
000000d0: f39c 8cbd c010 8cbb 9ef3 dbbd 9773 91bd
000000e0: 8813 bdbc 94ba c23c a64b 583d e047 04bc
000000f0: 5e8a 9a3d 9ce0 a3bd 7061 e2bc 2eae bdbd
00000100: 0486 5fbd 901d dabb c2b5 a9bb ab54 bd3d
00000110: d327 a4bd 7047 f73b dc23 83bd 40c5 ab3a
00000120: 3d9d d73d f07f bfbc 2ab4 773d 07fe ad3d
00000130: 52b8 f2bc 20f5 573c 2636 e8bd 768c 2b3d
00000140: 35c9 52bd da1d b03d 50f5 bf3d 8783 663d
00000150: 7530 01bd 00c8 4b3a 3935 e13d 0e5b 6bbd
00000160: 333c c63d d9ad 9bbd 7763 c6bd 724e c4bd
00000170: 2c0d db3c 8db8 a73d cf08 ac3d 3994 7cbd
00000180: 2171 dc3d 93a5 7bbd 584e 2abd c479 e73c
00000190: ee10 d1bd fbc3 abbd 1016 c9bc 9ce5 58bc
000001a0: 29bd babd ed56 1d3d 70e5 7bbd 8d20 b93d
000001b0: 4688 6fbd 71ac 8c3d b6fe 91bd 4957 87bd
000001c0: 4dbf 5b3c 101a 7e3d 244e babc 0617 39bd
000001d0: ac7a f63c f435 893c dde7 8f3c ce12 bd3d
000001e0: 7e24 05bd 85bd 0bbd dfa8 ffbd bd72 fabc
000001f0: fbf3 283c ab37 4b3d 9280 e2bd 3767 ad3d
00000200: d3b8 993d 4f26 cd3d 8021 53bb 56f9 8a3d
00000210: 8a13 1fbd 8ee4 813d 39cc cd3d 5cf4 cbbd
00000220: 2c24 b93c b6c2 a3bd a66c 253d ae81 04bd
00000230: a60b 5c3d 7dbc f9bd 82b1 2a3d a94e abbd
00000240: 2fad d93d 105e 0a3c 1062 613c c3cd 8f3d
00000250: ea97 2fbd 72aa f7bd b291 37bd e0e7 06bc
00000260: 335f aa3d d9fa c73d bab5 733d f6ea bdbd
00000270: 4405 c43c 8aed 9abd f69f 83bd 9843 16bd
00000280: ebcd bebd 7437 c73c 4436 823d 46e0 42bc
00000290: 6ef7 6e3d 26d2 763c ec2f 90bd 38d9 70bc
000002a0: 9568 62bd 27ad bbbd e46f 74bd 0a55 3fbd
000002b0: 5def c03d a9d9 95bd b856 ea3c 0370 a53d
000002c0: e48e d5bc 760c 0e3d a0ab 733d 7512 5abd
000002d0: 3cd7 af3c 8cc0 9fbb 44f4 9dbd b3d6 8e3d
000002e0: 6384 95bd 64ca 82bc 19c3 98bc 5ce9 9d3c
000002f0: 6d6c f3bd 2e63 92bd 92a5 313c 06fd 87bd
00000300: 26cf b03d c863 b6bd 9077 b2bd 229e 483d
00000310: 7ee9 83bd 1c53 fa3c c387 a73d cabf 3fbd
00000320: bf7d 4c3c 5787 85bd fa1b 593d a604 db38
00000330: f647 99bd c7c4 7fbd 3def 753c 595d a83d
00000340: 756a debd 5013 c93b 95f4 febc 88ef ffbc
00000350: 6bc3 dabc 242b ad3d acab a8bd 4035 c2bd
00000360: 3b10 8a3d 98de 30bd a854 24bd 56a1 c2bd
00000370: 4c6e 8ebc 60d0 03bc 417e bc3c 2a78 39bd
00000380: 12ad 323d ddef 6abd c414 e63c 58e7 60bc
00000390: 9754 1e3c 84af e23c eb21 f93c 8006 30bb
000003a0: c9e7 99bd 2ee9 133d aa20 783d 884d 81bc
000003b0: 2ec1 003d 00f5 2c3c bb5d ffbd 5332 dd3d
000003c0: 5782 173c 4815 ddbc d913 c6bd 21b7 d5bd
000003d0: 2efb 06bc cedc 20bd a0a8 14bd 2e83 93bd
000003e0: 6be8 963d 4fe8 863d 4e4d 453d bbb7 db3d
000003f0: b029 b5bb 8948 c13c 6d5d 823d f236 02bd

fc1.bias f4 [128]
-0.017259791 -0.0904049 -0.0013699306 0.073845595 0.07066687 0.0671711 0.088578984 -0.12413644
0.009428247 0.04711453 -0.063600294 0.035437092 0.0058677564 0.043520723 0.01799353 -0.11090067
0.12536886 -0.13522138 -0.0719388 0.042492297 -0.063862264 -0.02040356 0.026659437 0.058464658
-0.10976895 0.006862749 -0.028515369 0.07188876 0.066708475 -0.09950645 -0.061441123 -0.07872528
0.0702026 0.0843 -0.008171238 -0.107138276 0.03991594 0.019813232 0.07020405 0.058557417
0.030157864 0.09721067 0.06552563 -0.05919893 0.027383722 0.04292505 -0.052806724 -0.02421721
0.08871589 0.0635738 0.032977283 -0.014967285 0.074691534 0.020236451 0.097482406 0.035577577
-0.08547903 0.08621252 0.032126043 0.061463684 -0.013648339 -0.08417856 0.022654602 0.054158624
0.046494395 0.0650247 -0.0076307175 -0.0857203 -0.013172101 -0.10948934 -0.07882174 -0.021645855
0.120512076 0.0059559382 0.0013102135 0.09062252 -0.0394838 -0.06745969 0.06984818 0.10666938
0.01975917 -0.06518288 0.082403086 0.06498301 0.069459334 -0.022061283 0.06460953 -0.06658679
-0.07174918 -0.040765945 -0.038788773 -0.018177891 -0.033677116 -0.055787362 -0.018728426 0.012474784
0.07449606 -0.005452115 0.051110033 0.046685673 -0.108160466 -0.083571896 0.028867917 0.043446068
0.092272185 -0.007310399 0.009463477 0.044262793 0.035884354 0.009546942 0.059516463 0.032833215
0.0053680832 -0.06979245 -0.07180545 -0.064660765 -0.108015135 -0.11557291 0.029302778 0.077206485
-0.02344858 -0.00331055 0.01471429 0.015165894 0.07536481 0.07672514 0.05963857 -0.006660526
00000000: 6864 8dbc 3426 b9bd 3e8f b3ba 5c3c 973d
00000010: cbb9 903d 0091 893d e668 b53d 3f3b febd
00000020: ef78 1a3c 2afb 403d df40 82bd 7c26 113d
00000030: 4f46 c03b c942 323d 2b67 933c e41f e3bd
00000040: b260 003e 7977 0abe a654 93bd 670c 2e3d
00000050: 38ca 82bd 5e25 a7bc e464 da3c a378 6f3d
00000060: 8bce e0bd e9e0 e03b 1099 e9bc 6a3a 933d
00000070: 749e 883d 0aca cbbd b0a9 7bbd b83a a1bd
00000080: 61c6 8f3d 7aa5 ac3d a8e0 05bc 506b dbbd
00000090: e67e 233d 5c4f a23c 24c7 8f3d e7d9 6f3d
000000a0: a00d f73c 6316 c73d 4d32 863d 947a 72bd
000000b0: d453 e03c 2dd2 2f3d dd4b 58bd 2c63 c6bc
000000c0: adb0 b53d fb32 823d 3013 073d 5839 75bc
000000d0: e0f7 983d eac6 a53c dba4 c73d cbb9 113d
000000e0: a10f afbd 3190 b03d 9996 033d 58c1 7b3d
000000f0: 489d 5fbc cf65 acbd 2596 b93c 6fd5 5d3d
00000100: e870 3e3d ab2b 853d 190b fabb 208e afbd
00000110: cccf 57bc f23b e0bd 4b6d a1bd a652 b1bc
00000120: 09cf f63d 082a c33b 78bb ab3a 4d98 b93d
00000130: c4b9 21bd 4e28 8abd 900c 8f3d 7a75 da3d
00000140: fcdd a13c 9a7e 85bd f3c2 a83d d015 853d
00000150: b240 8e3d ddb9 b4bc 0052 843d a85e 88bd
00000160: 3cf1 92bd 31fa 26bd fae0 1ebd cde9 94bc
00000170: 04f1 09bd 4a81 64bd 5b6c 99bc 0963 4c3c
00000180: 6491 983d a8a7 b2bb c158 513d 7a39 3f3d
00000190: 3c83 ddbd be27 abbd 697c ec3c 81f4 313d
000001a0: 33f9 bc3d 128c efbb b30c 1b3c e74c 353d
000001b0: 79fb 123d c76a 1c3c 89c7 733d 1f7c 063d
000001c0: bfe6 af3b 58ef 8ebd bc0e 93bd dd6c 84bd
000001d0: 0a37 ddbd 7db1 ecbd 610c f03c 6f1e 9e3d
000001e0: 3d17 c0bc d0f5 58bb 3514 713c 5f7a 783c
000001f0: de58 9a3d 1222 9d3d 9347 743d 8b40 dabb

fc2.weight f4 [81, 128]
-0.0997078 0.03510541 -0.028829683 -0.06580195 0.06360078 -0.045581844 -0.052380443 0.005626776
-0.09066345 -0.09649251 0.016207341 -0.06592425 0.06261386 -0.071226954 -0.042632043 -0.084406786
-0.09858417 -0.017845409 -0.076057844 0.03971756 -0.10564146 0.060702868 -0.051530935 -0.039308194
-0.08032307 -0.05409049 -0.008844334 0.007416572 -0.0952676 0.031041168 0.006367409 -0.039804213
-0.012964693 -0.08260967 0.08406033 0.050403126 -0.005486688 0.02144956 0.023865394 0.019753847
0.009717935 0.05653855 -0.0074932734 0.057947587 -0.010636193 -0.04480448 0.035874963 -0.062643476
-0.10394366 -0.014959613 0.037524514 -0.041656427 -0.0065590236 -0.096945286 -0.090738595 -0.0918419
-0.06771528 0.04882165 -0.049506996 0.058393423 0.087892346 0.056381974 -0.080242686 0.052761585
-0.04267871 -0.025398279 0.03679272 -0.036409345 0.06335285 0.057254814 -0.008583473 0.050881315
-0.08806307 -0.035297368 -0.0738873 -0.040080074 0.06972725 0.0027162042 -0.07146784 -0.02677662
-0.05209841 -0.012169442 0.04278146 0.030304397 -0.05213773 -0.005644149 -0.09248119 -0.007400679
-0.07842997 -0.036688887 -0.07116591 -0.07257427 0.025284473 -0.08628011 0.044898123 -0.07875614
-0.06738134 -0.09585322 -0.039904688 -0.08670868 0.017058022 0.0038385245 -0.042869747 -0.0391502
-0.045837577 0.06057316 -0.008098264 0.051350415 -0.078588635 0.017073004 0.048481084 -0.025077043
0.01929722 -0.09415805 0.015707875 -0.049155597 0.072237305 -0.02050094 -0.098367475 -0.028956322
-0.10096203 -0.03882943 0.019460158 -0.09932613 0.027808852 0.060183942 -0.028751014 0.06063944
0.046597872 -0.06954808 0.013762478 -0.0035636565 -0.006431005 -0.031173684 -0.0045066103 -0.010433736
0.0016164108 -0.11169434 0.045470282 0.04654049 0.03936483 -0.024189103 0.07500168 0.015245505
0.023495423 0.0578616 0.024819061 -0.0146227535 0.04527148 -0.044978462 0.047722787 -0.10937465
0.0019525774 0.0239988 0.064892374 -0.055354133 0.03389854 -0.017754056 -0.034689847 -0.07010182
-0.041739076 -0.093985766 0.017717734 -0.005772431 -0.06283694 -0.03320472 0.04514172 -0.02623873
-0.0072216494 -0.07064752 0.058285415 0.060392443 -0.051074862 0.058166806 -0.038567927 -0.007437711
-0.058363307 0.033246383 -0.0324808 -0.07019643 0.027596107 -0.002887858 0.040730998 -0.023835655
0.045956865 0.033425957 -0.005883891 -0.030497987 -0.014402159 -0.00017236374 0.026634438 0.045281395
-0.015203984 -0.08553374 -0.06814371 -0.07054732 0.019327676 -0.08556136 -0.09071261 -0.061863407
-0.04306134 0.04394403 -0.022632135 -0.0039329287 -0.08307802 -0.015708508 -0.025561396 -0.11454458
-0.06441472 -0.073779814 -0.083989896 0.0034675738 -0.0143572455 -0.021352915 0.004365482 -0.024042794
0.049350142 -0.029506346 0.05902839 -0.074256055 0.04259873 -0.069833145 -0.028919159 0.06855588
0.06481082 -0.058391254 0.06289806 -0.06451461 -0.10211018 -0.04855524 -0.02007108 -0.09989596
-0.101496436 -0.051992204 0.035391785 0.02837192 -0.02514539 -0.020312184 0.07366749 -0.028691152
0.043182533 -0.028170979 0.040900797 -0.066802375 -0.046684157 -0.06855842 0.0047676703 -0.02704826
0.040217604 -0.09307774 0.038885094 -0.0493445 0.013193987 0.0077285375 0.00044846354 -0.09583798
00000000: 9a33 ccbd b1ca 0f3d 3a2c ecbc 2cc3 86bd
00000010: 2041 823d 07b4 3abd e08c 56bd d160 b83b
00000020: c2ad b9bd dd9d c5bd 42c5 843c 4b03 87bd
00000030: b23b 803d 70df 91bd f09e 2ebd 77dd acbd
00000040: 7fe6 c9bd 8930 92bc 37c4 9bbd e1ae 223d
00000050: 8d5a d8bd 92a3 783d 1a12 53bd a101 21bd
00000060: 6c80 a4bd fd8d 5dbd d3e7 10bc b706 f33b
00000070: a91b c3bd 0c4a fe3c b3a5 d03b be09 23bd
00000080: dd69 54bc 422f a9bd d327 ac3d 8273 4e3d
00000090: adc9 b3bb fdb6 af3c 5c81 c33c d2d2 a13c
000000a0: f937 1f3c f794 673d 228a f5bb 735a 6d3d
000000b0: 6d43 2ebc e784 37bd a0f1 123d 394b 80bd
000000c0: 6ae0 d4bd 2a19 75bc 4eb3 193d ee9f 2abd
000000d0: 14ed d6bb 408b c6bd 28d5 b9bd 9b17 bcbd
000000e0: 4fae 8abd 36f9 473d d9c7 4abd f12d 6f3d
000000f0: e700 b43d c9f0 663d 4756 a4bd 881c 583d
00000100: dfcf 2ebd 0d10 d0bc f7b3 163d f721 15bd
00000110: 24bf 813d 0684 6a3d b2a1 0cbc ed68 503d
00000120: 695a b4bd f993 10bd 3a52 97bd 012b 24bd
00000130: 29cd 8e3d 5802 323b bb5d 92bd a45a dbbc
00000140: 2465 55bd 5762 47bc 9d3b 2f3d ed40 f83c
00000150: 5f8e 55bd 8ef2 b8bb c766 bdbd 6581 f2bb
00000160: e49f a0bd 1647 16bd 6fbf 91bd d2a1 94bd
00000170: 6221 cf3c a0b3 b0bd 18e7 373d e64a a1bd
00000180: 3aff 89bd b14e c4bd 1973 23bd 5294 b1bd
00000190: 44bd 8b3c c18f 7b3b 3098 2fbd f65b 20bd
000001a0: 2fc0 3bbd 901b 783d 95ae 04bc d054 523d
000001b0: 14f3 a0bd afdc 8b3c 1a94 463d 5f6e cdbc
000001c0: 3415 9e3c f0d5 c0bd cdad 803c 6157 49bd
000001d0: 27f1 933d 96f1 a7bc e374 c9bd cf35 edbc
000001e0: 2ec5 cebd 9c0b 1fbd e96a 9f3c 7f6b cbbd
000001f0: 64cf e33c 7083 763d 3f87 ebbc 1061 783d
00000200: 69dd 3e3d 396f 8ebd 047c 613c 3c8c 69bb
00000210: 2ebb d2bb f45f ffbc 30ac 93bb 43f2 2abc
00000220: bfdd d33a 01c0 e4bd 0c3f 3a3d 3ea1 3e3d
00000230: 043d 213d 3a28 c6bc 7b9a 993d 48c8 793c
00000240: 7979 c03c 4900 6d3d 5851 cb3c 4694 6fbc
00000250: 966e 393d 563b 38bd f878 433d d1ff dfbd
00000260: a0ed ff3a 2299 c43c 4be6 843d 04bb 62bd
00000270: 32d9 0a3d f470 91bc f116 0ebd 8b91 8fbd
00000280: 98f6 2abd 9c7b c0bd c824 913c a926 bdbb
00000290: a7b0 80bd ac01 08bd 86e6 383d 9bf2 d6bc
000002a0: 96a3 ecbb a6af 90bd b0bc 6e3d 115e 773d
000002b0: e033 51bd 5140 6e3d 67f9 1dbd 0bb8 f3bb
000002c0: 5d0e 6fbd 5c2d 083d 960a 05bd 25c3 8fbd
000002d0: 3b11 e23c 3842 3dbb 8cd5 263d fe42 c3bc
000002e0: 443d 3c3d a8e9 083d a8cd c0bb ead6 f9bc
000002f0: 08f7 6bbc 8abc 34b9 7730 da3c fc78 393d
00000300: 221a 79bc 502c afbd ee8e 8bbd 1d7b 90bd
00000310: 1355 9e3c cb3a afbd 88c7 b9bd 7c64 7dbd
00000320: 1661 30bd a8fe 333d 0767 b9bc ccdf 80bb
00000330: cf24 aabd 21af 80bc 2266 d1bc 5996 eabd
00000340: ddeb 83bd df19 97bd e502 acbd 3c40 633b
00000350: a73a 6bbc 4fec aebc 510c 8f3b 65f5 c4bc
00000360: 6023 4a3d 4bb7 f1bc c1c7 713d 8f13 98bd
00000370: 027c 2e3d ae04 8fbd dfe7 ecbc 0667 8c3d
00000380: 89bb 843d ab2b 6fbd b3d0 803d 3c20 84bd
00000390: 241f d1bd dce1 46bd 1b6c a4bc 4196 ccbd
000003a0: 5ddd cfbd c7f5 54bd faf6 103d 3b6c e83c
000003b0: b4fd cdbc bd65 a6bc fbde 963d b509 ebbc
000003c0: 2be0 303d d3c6 e6bc 9887 273d afcf 88bd
000003d0: e337 3fbd 5b68 8cbd 1e3a 9c3b 5094 ddbc
000003e0: 37bb 243d 8b9f bebd fa45 1f3d 751d 4abd
000003f0: 982b 583c ac3f fd3b c21f eb39 b446 c4bd

fc2.bias f4 [81]
-0.028943682 -0.021531347 -0.10122057 -0.09036485 -0.036756948 -0.027500732 0.06201545 -0.080447
-0.017664773 -0.07046482 -0.0008392671 -0.023141308 0.027604155 -0.10690426 -0.05420844 -0.0873353
-0.0714304 -0.07075738 0.060047884 -0.016171524 -0.07712973 0.02672355 -0.027859848 -0.09094015
-0.09763037 -0.073214106 0.03255639 -0.0024837619 0.015654132 0.0041621197 0.054106988 0.00056910096
0.045003988 -0.1101268 0.07315125 -0.03416217 -0.0164645 0.03390686 -0.020649875 -0.005124826
0.0970255 -0.066851765 0.039365113 0.05361684 0.06157779 0.053703256 0.037476514 0.05966878
-0.03562536 -0.059211254 -0.052111458 0.022952558 -0.0037429282 0.042568896 -0.097258136 -0.06029887
-0.07071515 0.05272314 -0.052761886 0.032109927 0.056834217 -0.027085762 0.0035699068 -0.08002307
0.012440946 -0.10610426 -0.011611901 -0.09465041 0.055081386 -0.0012329556 -0.04004385 -0.10236545
-0.03813176 0.024020389 -0.035529066 -0.10368003 0.024755634 0.06319202 -0.032842986 0.0010576479
-0.035658184
00000000: 4d1b edbc 8262 b0bc bb4c cfbd 3511 b9bd
00000010: 748e 16bd 3749 e1bc ea03 7e3d 66c1 a4bd
00000020: b7b5 90bc dc4f 90bd 4302 5cba d792 bdbc
00000030: 1c22 e23c 9ff0 dabd ab09 5ebd dadc b2bd
00000040: 1a4a 92bd 3fe9 90bd c5f4 753d 257a 84bc
00000050: 31f6 9dbd 59eb da3c 563a e4bc d43e babd
00000060: 6ef2 c7bd 47f1 95bd d959 053d 9cc6 22bb
00000070: 183d 803c 6462 883b 4a9f 5d3d b82f 153a
00000080: 1a56 383d 298a e1bd 53d0 953d a2ed 0bbd
00000090: 8fe0 86bc ebe1 0a3d ed29 a9bc 28ee a7bb
000000a0: 4eb5 c63d 94e9 88bd 503d 213d 559d 5b3d
000000b0: fe38 7c3d f2f7 5b3d f980 193d 4067 743d
000000c0: e6eb 11bd 8087 72bd d372 55bd 0107 bc3c
000000d0: ea4b 75bb b95c 2e3d 462f c7bd f3fb 76bd
000000e0: 1bd3 90bd 38f4 573d d91c 58bd b385 033d
000000f0: ffca 683d f6e2 ddbc 19f5 693b 23e3 a3bd
00000100: 1cd5 4b3c 314d d9bd d83f 3ebc 13d8 c1bd
00000110: 059d 613d 209b a1ba 0505 24bd faa4 d1bd
00000120: 0c30 1cbd 68c6 c43c ed86 11bd 3256 d4bd
00000130: 54cc ca3c d16a 813d 5e86 06bd c6a0 8a3a
00000140: 510e 12bd
