models/policy_agent_trained2025_01_31_04_43_24.pth (torch, 86160 bytes, 4 tensors)

fc1.weight f4 [128, 81]
00000000: aa58 173d 8022 f4bc 75d5 5abd 109c debc
00000010: d13a ba3d c013 b0bb 0a00 3e3d 9bce b4bd
00000020: 4491 d13c 40f8 9dbc 2b91 b5bd fbf5 d23d
00000030: 410d b13d 8028 213c 1983 b73d c057 8fbb
00000040: 8494 27bd 12d0 1d3d 49d7 8b3d f91a 98bd
00000050: bbde bf3d 60c3 7fbd 42b8 423d bfe7 c83d
00000060: 0eb4 7ebd 1c78 c3bc ab84 a9bd 5430 c3bd
00000070: a025 8ebd f33b b83d 2968 e2bd 2b7d 4ebd
00000080: 64c0 b73d 2919 e2bd d2ff 00bd 47bc ddbd
00000090: 54d3 94bd 5cac ebbc 5920 71bd 12ca cd3d
000000a0: 4f6e fc3d c0f7 a6bc 7a82 4d3d 7642 243d
000000b0: 80be 3cbb 40e1 feba 19f3 acbd 74c9 91bd
000000c0: 7ab2 6bbd 11a9 f23d 80b4 febd 0859 d7bc
000000d0: 4cb5 d33c 0096 5bba 16d3 9ebd 9e9b 8fbd
000000e0: 94c0 d8bc 6a12 103d 2486 efbc acf8 ef3c
000000f0: 24d4 39bd 29c2 d9bd 8bb4 a33d fa15 9fbd
00000100: 6c5c 84bc 289e 273c f7d1 a4bd b0ad afbd
00000110: 5568 ce3d 9988 a6bd 7615 82bd 6e5a 16bd
00000120: 5445 9d3c b031 96bc 9119 b73d e478 42bd
00000130: 17c9 c53d fcb4 c6bd f2c6 1bbd f487 b6bd
00000140: 94e0 ec3c 9054 9a3b 452a a53d fb9e da3d
00000150: f742 b9bd 6c8e b63c 24fa dcbd 8e21 3d3d
00000160: 97af d93d 8156 dc3d 36ce 03bd fc36 a93c
00000170: 371f 903d 706c d43b dcd6 a3bc 1785 a53d
00000180: a009 75bd 5e76 403d 9c20 8cbd c42f dd3c
00000190: 008f b93b ac1e 93bd 008f 5aba e3fe 8f3d
000001a0: 3744 ccbd 1562 913d 0014 b2bd e0e0 913b
000001b0: ddae 9f3d ec90 f2bc 4df3 9d3d 513a d13d
000001c0: 452e cbbd 62be 363d e15c 873d cb3b 79bd
000001d0: 04c1 16bd 67dd dfbd 9028 623c 4784 c9bd
000001e0: 8062 56bc 74c2 7ebd 9bd4 d43d 712f a73d
000001f0: e20b 693d 65d0 a53d 904f 993b 8f10 d83d
00000200: 6c92 eb3c 729f 1abd 2a89 27bd 15de 72bd
00000210: e63e 94bd bae0 623d 7ded 4abd f8ab 9bbc
00000220: 2ea3 6a3d 2df9 873d 58ea 33bc b1f8 953d
00000230: 02af 673d f05f c4bd 239a d63d 1621 84bd
00000240: 27b6 d1bd 6af7 053d 6406 3ebd 804b 00bb
00000250: 0009 b2ba dcfe b8bc 76b9 183d 3875 7c3c
00000260: 02b8 6a3d 35c2 50bd 0076 7c3b 52e1 483d
00000270: 7c39 df3c fe99 673d e032 533b 22e5 3a3d
00000280: de64 9bbd dc1d 85bc 70c5 7fbc 9c16 b5bd
00000290: 3234 063d d593 e0bd 5086 f23b 28ad 77bc
000002a0: a514 cf3d bd69 dc3d 6102 d63d 50fa d6bd
000002b0: fc98 9f3c 0073 b7ba 0735 a8bd d4d6 e0bc
000002c0: 01f5 b33d 1bf1 b83d b8c7 42bd 0b5e 78bd
000002d0: 290d abbd 60ad 68bd 1cbf c7bd e010 50bc
000002e0: 8965 c93d c03d c9bd cd84 cd3d a8b9 5b3c
000002f0: 2c3c ec3c 803a f0bc 11b8 d03d ec43 b7bc
00000300: 0066 eb3b d193 c23d 9ed1 cdbd 6061 99bd
00000310: 346c b3bd fa67 5f3d dbef af3d 2742 9d3d
00000320: ecf4 8abd 38e1 38bc 62c0 d13d 97b1 a43d
00000330: 5b23 cb3d 7bdf d4bd 98a1 01bd 4096 da3b
00000340: 840d d93c 8c7e 95bd 7077 b2bc eb03 adbd
00000350: a033 1c3c 4a8d 86bd d9fe 4cbd 7e6d 92bd
00000360: 8e52 41bd 4455 4abd c2da 613d 17f8 86bd
00000370: a793 61bd 0eac 5b3d bc56 b6bd f04a c6bc
00000380: 39f5 60bd a899 393c 3c99 b43c 2b35 abbd
00000390: 007c 3a3c 86e8 8ebd ce6b 4fbd 9153 9a3d
000003a0: d992 97bd d679 bdbd 9b4c bd3d 70b9 463c
000003b0: a4d4 b8bc 1e9a d3bd 64be cfbd 7e40 4d3d
000003c0: 801a 7bba 324c 76bd f1ea a03d c470 a2bd
000003d0: a4cf 4fbd 940e bc3c 908e f7bb 8099 65bb
000003e0: c387 803d 3721 9e3d 80f2 1e3c b0d7 d9bb
000003f0: c94b bb3d d5ca a73d 11f9 b23d f2e7 9abd
0.03694979 -0.029801607 -0.053426225 -0.027174026 0.090932496 -0.005373448 0.046386756 -0.08828469
0.025581963 -0.019283414 -0.08865579 0.10300823 0.08645106 0.009836316 0.08960552 -0.0043744743
-0.04091312 0.03852851 0.06828172 -0.074270196 0.09368654 -0.062442183 0.047539003 0.09809827
-0.062183432 -0.023860984 -0.082772575 -0.09530702 -0.0694077 0.089958094 -0.11055023 -0.05041234
0.089722425 -0.11039955 -0.03149397 -0.10826927 -0.0726687 -0.02876871 -0.05886874 0.100483075
0.12325727 -0.020381808 0.05017326 0.040102445 -0.002880007 -0.0019445792 -0.08444805 -0.07118502
-0.057543255 0.11848653 -0.124367714 -0.02628757 0.025843285 -0.0008376539 -0.07755105 -0.070121035
-0.026459016 0.03517381 -0.029238768 0.02929338 -0.04536833 -0.10632736 0.0799342 -0.077678636
-0.016157351 0.0102305785 -0.0804786 -0.0857805 0.100784935 -0.08131523 -0.063517496 -0.036707334
0.019198097 -0.01833424 0.08940423 -0.04747857 0.096574955 -0.09702489 -0.038031526 -0.0891265
0.028915681 0.0047097877 0.08064703 0.10674854 -0.09045976 0.022284709 -0.10789898 0.04617458
0.10629194 0.10758687 -0.03217908 0.020656101 0.07037204 0.0064826533 -0.019999914 0.080820255
-0.059823632 0.046987884 -0.06842157 0.027000315 0.005662799 -0.071835846 -0.00083373487 0.07031038
-0.099739484 0.07098786 -0.08695221 0.004451856 0.077970244 -0.02961012 0.077124216 0.10216201
-0.099209346 0.044615157 0.06609512 -0.06084804 -0.036805168 -0.10930901 0.013803616 -0.09839683
-0.013085008 -0.062197164 0.10392114 0.081633456 0.056896098 0.08096389 0.004678674 0.10550033
0.028756343 -0.037749715 -0.040902294 -0.059293825 -0.072385594 0.055390097 -0.049542893 -0.0190029
0.057284527 0.066393234 -0.010981165 0.07322825 0.056563385 -0.09588611 0.10478618 -0.06451623
-0.10239821 0.032706656 -0.046392813 -0.0019576252 -0.0013583004 -0.022582464 0.037286244 0.0154088065
0.05730439 -0.05096646 0.0038522482 0.049043007 0.02724909 0.056543343 0.0032226369 0.045628674
-0.07587598 -0.01624959 -0.015611038 -0.08842203 0.03276462 -0.10965697 0.007401265 -0.015116967
0.101113595 0.107623555 0.104496725 -0.10496962 0.019482128 -0.0013996065 -0.08213239 -0.027446188
0.08786965 0.09030362 -0.047553748 -0.06063656 -0.083521195 -0.05680597 -0.09753248 -0.012699336
0.098338194 -0.09826231 0.10035095 0.013410963 0.028837286 -0.02932477 0.10191358 -0.022371255
0.00718379 0.0950085 -0.10049747 -0.07489276 -0.087608725 0.05454252 0.08590671 0.07678633
-0.067849964 -0.011284165 0.10241772 0.08041685 0.09918853 -0.10394188 -0.03164825 0.006670743
0.026495703 -0.072995275 -0.021785468 -0.08448013 0.009533793 -0.065699175 -0.05004773 -0.0714979
-0.04719787 -0.049397722 0.055140264 -0.06590288 -0.055072453 0.05363088 -0.08903262 -0.024205655
-0.054921363 0.011328138 0.022045724 -0.0835975 0.011382103 -0.06977944 -0.05063992 0.0753547
-0.07401056 -0.09251754 0.09243127 0.012129173 -0.022562332 -0.1033213 -0.10143736 0.050110333
-0.0009578839 -0.06013126 0.078573115 -0.079316646 -0.05073513 0.02295617 -0.0075548366 -0.003503412
0.062758945 0.07721179 0.009701371 -0.0066480264 0.09145314 0.08192984 0.08738912 -0.07563771

fc1.bias f4 [128]
00000000: 9fe9 0e40 00e7 97bd f1cc 92bd bb2b 2e3f
00000010: 3b6e d6ba fa40 03be 887f 1040 66b2 1440
00000020: 7d93 cbbc d90f 8abd 830d 1440 3166 4d3f
00000030: 3276 1640 b195 acbd e11d 04be 7916 1440
00000040: 10b1 1440 1909 29bb 12b4 1040 7729 1440
00000050: 7697 1740 7bb1 a7bc cb5f 1540 3a92 1340
00000060: 51a1 1340 7485 1240 cff7 973f ae3c a9bd
00000070: e4e5 1340 c821 1240 8cac 1340 3d1a 1440
00000080: e24f 3a3f 9260 4abd fdee 0740 125c 493f
00000090: 914f f43e 6b54 1640 d0fd eebc e078 0a40
000000a0: 7178 ebbd 2d7f 6abd 7f2c 1140 f560 013f
000000b0: 443d acbd 2eeb 1740 3dd3 0c40 2540 f2bd
000000c0: f95e 1540 ca6d 1740 0806 c1bc 94ea 1040
000000d0: a245 1140 40e7 fa3f 85e2 1540 edc1 1440
000000e0: 9901 f43e 993d 8f3f 1212 1240 9969 9b3f
000000f0: 4c95 bdbd 469b 0d40 ce4b 0dbd 8254 1540
00000100: a86a d73f 401c 8dbd b85f 1140 8254 1240
00000110: 7827 953f 9943 f2bd 199f 1140 f1e7 23be
00000120: 5912 a0bd 7dca c1bd 917f 1540 1809 1040
00000130: 0461 1340 fb32 303f c8e6 aa3f affa 1440
00000140: 7c29 1240 72be a7bd feae fe3e a90a 92bd
00000150: 9778 1040 c823 1840 212b 1740 1e76 a0bc
00000160: d317 1440 5239 2ebd a77c 1340 cd26 0dbe
00000170: c5a6 debd 83cb 513f a5e1 303f 6ef9 bbbd
00000180: 560d 1740 b610 1440 2c2f 2e3f 3ff5 4a3f
00000190: 23be 273f 1e38 1240 9c3c 1540 61c3 db3f
000001a0: 7797 c7bc 14fd d4bc f1de 1040 3c18 0b40
000001b0: 3c1d afbd 1b78 1540 f78f 1540 5d3d 843f
000001c0: cc63 8d3f ee4c 963f 3517 1640 b7f9 0b40
000001d0: b94a 1840 7d39 71bd 6d30 f43e 37cc 1440
000001e0: f76b d5bd 4ca1 d4bd 8e1a 1240 f36a 1840
000001f0: 6141 d33f 2b59 68bc 2921 1640 6854 8cbd
2.233009 -0.07417107 -0.07167996 0.6803548 -0.0016359756 -0.12817755 2.257784 2.3233886
-0.024850601 -0.06741304 2.3133247 0.80234057 2.350964 -0.08426989 -0.12902023 2.3138716
2.323307 -0.0025792776 2.2609906 2.3150308 2.3686194 -0.020470371 2.3339717 2.3058
2.306721 2.2893953 1.18725 -0.08263527 2.3109064 2.2833118 2.3074064 2.3141015
0.7277814 -0.049408503 2.1239617 0.78656113 0.47716954 2.3489025 -0.029173762 2.1636276
-0.11497582 -0.05725019 2.2683408 0.5053857 -0.08410123 2.3737292 2.200393 -0.11828641
2.3339217 2.366076 -0.023562446 2.2643175 2.269875 1.9601822 2.3419507 2.3243363
0.4765747 1.1190673 2.282353 1.2141601 -0.09256992 2.2126021 -0.03449612 2.333283
1.6829424 -0.06890154 2.2714672 2.286408 1.165267 -0.118292995 2.2753356 -0.16006447
-0.078159995 -0.0946245 2.335911 2.250555 2.3027964 0.6882779 1.3351679 2.3278005
2.283782 -0.081906214 0.49742883 -0.071309395 2.2573602 2.377184 2.3620074 -0.019587573
2.313954 -0.042535134 2.3044832 -0.13784333 -0.108716525 0.8195116 0.69094306 -0.09178434
2.360189 2.31352 0.6804073 0.79280466 0.655245 2.2846751 2.3318243 1.7169
-0.024364216 -0.025999583 2.2636073 2.1733541 -0.08550498 2.3354557 2.336912 1.0331227
1.104608 1.1742227 2.3451664 2.1871164 2.3795607 -0.058892716 0.47693196 2.3249643
-0.10420983 -0.103823274 2.2828708 2.3815277 1.6504327 -0.014181416 2.345774 -0.06852037

fc2.weight f4 [81, 128]
00000000: a0c9 093f 8e77 053d 223a 73bd 2863 143c
00000010: 294e d13d d060 8d3b 6975 113f 2710 043f
00000020: b84b 2e3c 8cd7 5a3d 4664 123f 4675 1fbc
00000030: 3224 f53e 62ac 4bbd d13f 813d 7b61 113f
00000040: f42c f73e e1e9 62bd 8e14 183f de9c fe3e
00000050: 2efb 0d3f 5f08 f6bc 2ec8 153f 28a6 fb3e
00000060: 1fc0 1c3f 8252 013f 9401 123d 6c9f 84bd
00000070: 6b2b 053f 4a0f ee3e 1401 193f bf3f 113f
00000080: 953b ca3c d983 5cbd 52a5 e03d 3198 53bd
00000090: bc6e 4c3a 6a7c e93e acca 67bc 4bfb 7d3e
000000a0: 1dee 583c da27 2a3d 6a68 1d3f bc65 b6bc
000000b0: ec72 a9bc 532e 123f 265d b23e dc62 d43d
000000c0: 3c12 0c3f 78b3 f13e 0317 c83d 36b7 003f
000000d0: f5c2 ed3e 891f 29bd 9114 ef3e 3b6d 0f3f
000000e0: bcd0 473d 9207 973c b77a 203f 02e4 413c
000000f0: 962d 93bd 49cf 243f 8078 b53c cce2 fd3e
00000100: e966 bf3c c161 07bd 0cee fd3e 1d1c 113f
00000110: 1767 673d dfda 08bd 9091 1c3f 6b11 893d
00000120: 18fe 7d3c 275a 313d 54ab df3e 390e 273f
00000130: d684 1a3f a6aa 673d f095 9fbc 6a38 043f
00000140: 8215 e23e b8f4 f83c 6bad b43c f8b4 ba3c
00000150: caf4 193f 7098 ea3e c17d e63e 9159 6a3c
00000160: a1af 193f 0c65 8f3c 775d 173f 3ccb 95bc
00000170: 0230 96bd 3272 953d a769 b4bd 0ff0 883d
00000180: 9be1 ff3e 1904 0a3f d519 c63d a104 39bd
00000190: e265 b03d 35f6 133f d07e 0a3f 5244 06bc
000001a0: 7203 553d 1823 54bd f614 fb3e 0210 2e3e
000001b0: 0187 903d 92b5 e83e 4c72 0e3f 62e0 d9bc
000001c0: 6422 86bd 18be a43c a4b7 093f a6dd 6e3e
000001d0: c1e2 043f 9c67 f53c 86ce 103d cfe1 143f
000001e0: b00c 11bc f508 fa3c df1d 083f ef7f 0f3f
000001f0: c109 4b3c 9daf 813c ec3a 153f ff72 01bd
00000200: 0e16 b83e dbae 853d 7037 603c 989d a53c
00000210: f53a 19bd 6673 413d c41f cd3e 3074 b93e
00000220: 0009 743a 8f6d 00bd 2a8c ce3e bd66 b139
00000230: bc92 9f3e 2e42 b73d 47d4 823d f8dc df3e
00000240: 1cd4 913e b5c3 2d3c 00d7 ca3e 1088 be3e
00000250: a427 a13e e07e 273d 907c cf3e ba73 c93e
00000260: ad43 ba3e 4649 be3e 8a82 21bd e8c0 583d
00000270: 127e be3e df09 de3e c2ef b43e b5a7 b83e
00000280: 5ada fe3c 2f55 35bd 6c4c ae3c 3e7a c93d
00000290: 5b5b d13c 4c50 e53e bd26 79bd 902a fc3d
000002a0: 7e62 3fbd c070 2d3c ed50 f63e ce88 513d
000002b0: a101 9a3d eec1 e03e 53b8 953e d479 5ebd
000002c0: 59a4 ce3e 1c25 d83e 2d7c 13bc b859 033f
000002d0: e9bc 9f3e f53b fa3b fa21 8f3e f190 da3e
000002e0: 7a3a 253d 0711 b13d 6cb8 f83e 424a 74bb
000002f0: 5c51 fc3c 39ee c13e 469b 193d ef8c db3e
00000300: ccf8 e03d a834 403c 7bbe d43e 35cb fb3e
00000310: 61a7 853c 4b0e 7c3d bfee ff3e 993c 493d
00000320: 3aa6 17bd 5534 06bd 9f74 aa3e 454d ce3e
00000330: 4ad1 b53e c577 2cbd 5891 d03c b8f2 a33e
00000340: c7df b93e 5c24 9b3c 0f9b 83b9 9ad8 7bbd
00000350: 779f be3e dc61 b43e 6625 b73e 6e90 a53d
00000360: 428a a63e 7613 6fbd 36ad cd3e 1dff 15bd
00000370: 40ea 543c e107 3ebc 0008 5d3c 87e7 91bd
00000380: 4042 ed3e 813d d63e d97c 68bb a2e9 5a3d
00000390: ca82 563a c1fd e63e 324f f23e f778 f73c
000003a0: 2ec3 f9bc db1f aebd a810 e53e 0eb2 133e
000003b0: b909 63bd 4426 e13e a595 cb3e 5c49 773d
000003c0: c0f8 0e3c 9da9 10bb 9079 d83e 9720 ec3d
000003d0: 2236 bb3e 80fa c93c cc69 07bd 8cfb ab3e
000003e0: 7ab9 0cbd 03eb c53d da8f 013f f67f c33e
000003f0: f250 08bc 9bb7 533c 7f91 d83e 8d33 913d
0.5382328 0.03258472 -0.05938161 0.009056844 0.10219986 0.0043145195 0.5681978 0.51587147
0.01063817 0.053428218 0.57184255 -0.00973255 0.47879177 -0.049724944 0.06311 0.5678937
0.48276484 -0.055398826 0.59406364 0.49729055 0.55461395 -0.030033289 0.58508575 0.49150205
0.61230654 0.5051652 0.035646036 -0.0647572 0.52019376 0.4649604 0.5976727 0.56737894
0.024686614 -0.053836677 0.10969032 -0.051658813 0.0007798483 0.45602733 -0.014147442 0.24802892
0.013240364 0.04154191 0.6148745 -0.022265308 -0.020684682 0.57101935 0.34836692 0.103704184
0.54715323 0.47207236 0.09770014 0.5027956 0.46437803 -0.04128984 0.46695378 0.5602605
0.04878305 0.018436227 0.6268725 0.011834146 -0.07186429 0.6437879 0.022152185 0.49587095
0.023364501 -0.03305221 0.49595678 0.5668352 0.0564948 -0.033411857 0.6115961 0.06692775
0.015502475 0.043298867 0.436854 0.6525608 0.6035894 0.056559227 -0.019480675 0.5164858
0.44157034 0.030390128 0.022055348 0.02279137 0.60139143 0.45819426 0.45017818 0.014303581
0.60033613 0.017504238 0.5912699 -0.018285386 -0.073333755 0.07297172 -0.08809214 0.066864125
0.4997681 0.539125 0.09672896 -0.04517043 0.086131826 0.5779756 0.5409975 -0.008195
0.05200524 -0.05179128 0.4903943 0.16998294 0.07057 0.45451027 0.55643153 -0.026596252
-0.06549528 0.020110175 0.5379584 0.2332674 0.519085 0.029956631 0.035353206 0.58157057
-0.008853123 0.03052185 0.5317058 0.56054586 0.012392462 0.01583081 0.5829303 -0.03160381
0.35954326 0.06527492 0.013685092 0.020216748 -0.03740974 0.047229193 0.40063298 0.36221457
0.00093092024 -0.031354483 0.40341312 0.00033836617 0.31166637 0.0894817 0.06388145 0.43723273
0.2848214 0.010605742 0.39617157 0.37213182 0.31475556 0.04089248 0.4052472 0.39346105
0.36379758 0.37165278 -0.039431132 0.052918345 0.3720556 0.43366906 0.3533917 0.3606545
0.031109978 -0.04427069 0.021276675 0.09837769 0.025556257 0.44787824 -0.06082796 0.12312806
-0.04672479 0.010585964 0.48108616 0.051155858 0.07519842 0.43897957 0.2924219 -0.054315403
0.40359762 0.42215812 -0.009001774 0.51308775 0.31198815 0.007636542 0.2795561 0.42688707
0.04033897 0.08645826 0.48578203 -0.0037275706 0.030800514 0.37877062 0.037501596 0.4288096
0.10984954 0.011731304 0.41551575 0.49178472 0.016315164 0.06153707 0.49986836 0.049130056
-0.03702376 -0.03276475 0.332921 0.40293327 0.35511237 -0.04210641 0.02545993 0.32021117
0.3630354 0.018938236 -0.00025101795 -0.061485864 0.37231037 0.3523091 0.3577072 0.080841884
0.32527357 -0.05836817 0.40171212 -0.036620248 0.012995303 -0.011598558 0.013490677 -0.071242385
0.46339607 0.418438 -0.0035474806 0.053445466 0.0008182941 0.45115474 0.47326046 0.030209048
-0.030488577 -0.0850217 0.4473927 0.14423391 -0.055429194 0.43974507 0.39762607 0.060372695
0.008726299 -0.0022073754 0.42280245 0.115296535 0.36564738 0.02465558 -0.03305988 0.33590353
-0.03435657 0.096639656 0.50610125 0.38183564 -0.00832008 0.012922193 0.42298505 0.07089911

fc2.bias f4 [81]
00000000: 7ec1 ef3e 8673 b23e 7923 c33e 5490 963e
00000010: 1c37 7c3e bed8 9c3e a779 953e 3103 c83e
00000020: 20c7 2b3e 176e 913e 85b3 823e 51bd b53e
00000030: 41d4 983e e10a b53e 9cbd 873e 7ad6 c33e
00000040: ed32 bf3e 8bd9 803e f0af 743e 2e55 773e
00000050: b1e2 063f cc01 853e 8875 d63e df4c 373e
00000060: 741c a33e cd49 be3e a363 d23e efe8 ab3e
00000070: 615c 7b3e a5d0 243e 49f1 473e 0187 8a3e
00000080: a8e0 2d3e 78af 833e 32f0 a33e 4ddd b23e
00000090: 7f00 a73e 4ac1 483e fbb2 5b3e c005 8c3e
000000a0: c929 babf 8ddf 943e 6e44 343f 4f9c 073f
000000b0: b53d 833e 1627 7c3e 5344 ae3e f871 a83e
000000c0: 9499 913e 4023 9c3e 9b79 7c3e b345 0440
000000d0: 6984 493e 5314 a23e 5830 993e 49d0 bb3e
000000e0: 96fe 803e 98e2 9e3e b67d 1f3e 9ff2 9e3e
000000f0: 6078 c73e 120c a83e aae5 993e 1e7f 393e
00000100: fd13 a63e a98e 513e b239 9f3e 5e7b f23e
00000110: 89fc 953e 39a6 883e 985c 6a3e 9dcb 8d3e
00000120: e7f7 643e 3075 ee3e ccb8 9a3e 8704 623e
00000130: ff47 323e e36e a03e 7626 973e f021 953e
00000140: f108 213e
0.4682731 0.34853762 0.38113 0.2940699 0.24630398 0.3063411 0.29194376 0.39064935
0.16775179 0.28404304 0.25527588 0.35496 0.29849437 0.35359862 0.26511848 0.3824957
0.3734354 0.25165972 0.2389524 0.24153587 0.52689654 0.25977933 0.41886544 0.17900418
0.31857646 0.3716568 0.41091642 0.33576152 0.24546959 0.16095217 0.19525637 0.27056125
0.16980231 0.2571981 0.32019192 0.34934464 0.32617566 0.19604984 0.21454994 0.27348137
-1.4544002 0.29076806 0.70416915 0.52972883 0.25633016 0.24624285 0.34036502 0.3289945
0.28437483 0.30495644 0.24655764 2.066754 0.19679417 0.3165613 0.29919696 0.36682346
0.25194234 0.31032252 0.15575299 0.3104448 0.38959026 0.3282171 0.30058032 0.18114898
0.32437125 0.20464577 0.31098706 0.47359747 0.29294232 0.26689318 0.22886884 0.27694407
0.22360192 0.46573782 0.30219114 0.2207204 0.17410277 0.313346 0.2952153 0.29127455
0.15726067
