models/q_agent_black.pth (torch, 85888 bytes, 4 tensors)

fc1.weight f4 [128, 81]
000000 8e 3e 81 41 5a a2 79 41 99 28 80 41 0b 75 7e 41
       16.155544 15.602137 16.019823 15.903575
000010 a1 0a 70 41 92 4d 80 41 85 8f 56 41 f6 c5 82 41
       15.002595 16.037876 13.410039 16.34666
000020 38 aa 82 41 ad 0a 66 41 eb 18 7c 41 a6 26 7e 41
       16.333115 14.377606 15.7560835 15.884436
000030 2d a9 81 41 fd 5c 81 41 5f 07 39 41 00 c7 56 41
       16.207605 16.170404 11.5643 13.423584
000040 1b 95 80 41 32 f0 81 41 ee 73 61 41 14 34 80 41
       16.072805 16.242283 14.090803 16.025429
000050 3d 79 7a 41 52 8f 74 41 e2 39 81 41 63 48 44 41
       15.654599 15.28499 16.153263 12.267673
000060 54 c6 80 41 3a 4d 81 41 d1 3e 59 41 6d 22 81 41
       16.09684 16.162708 13.577836 16.14181
000070 9d 93 81 41 26 02 82 41 4d 18 76 41 e0 79 46 41
       16.197077 16.251049 15.380933 12.404755
000080 b2 c5 81 41 77 75 75 41 d1 24 80 41 7d 5a 80 41
       16.22153 15.341178 16.017977 16.044184
000090 4d 2e 7e 41 da be 38 41 e4 da 43 41 ca d6 7e 41
       15.886304 11.546595 12.24094 15.927439
0000a0 63 32 82 41 08 23 76 41 a5 bc 81 41 32 a8 77 41
       16.274603 15.383553 16.217112 15.478563
0000b0 22 4f 5b 41 38 12 81 41 eb 1d 61 41 f2 8f 80 41
       13.70682 16.133896 14.069804 16.070286
0000c0 c8 a2 4d 41 92 a1 68 41 95 18 66 41 4a d2 81 41
       12.8522415 14.539446 14.381001 16.22768
0000d0 79 31 61 41 94 48 54 41 bc c9 80 41 b7 d3 80 41
       14.074578 13.267719 16.098503 16.103376
0000e0 cb ce 81 41 aa 9c 6a 41 ed 0d 82 41 cc 2a 81 41
       16.225973 14.663248 16.2568 16.145897
0000f0 65 40 7e 41 b7 f1 80 41 f4 c2 81 41 c5 6e 82 41
       15.890721 16.118025 16.220192 16.304087
000100 ff 28 80 41 c3 d1 80 41 d6 71 79 41 51 a6 81 41
       16.020018 16.102423 15.590292 16.20621
000110 d3 37 7b 41 2b 80 81 41 7d e8 50 41 62 a9 45 41
       15.701129 16.187582 13.05676 12.353853
000120 35 cf 72 41 68 bf 81 41 07 32 7e 41 09 25 83 41
       15.175588 16.21846 15.887214 16.393084
000130 5d 7c 7e 41 d5 41 80 41 a6 68 76 41 87 3b 82 41
       15.905362 16.032145 15.400549 16.279066
000140 a7 2e 7e 41 25 39 82 41 04 84 7a 41 8f 97 81 41
       15.88639 16.277903 15.65723 16.199003
000150 a2 09 81 41 cf bf 6e 41 98 97 81 41 ed 17 57 41
       16.129704 14.921828 16.19902 13.443341
000160 da d7 81 41 a1 f9 81 41 b4 0e 67 41 69 d2 7d 41
       16.230396 16.24689 14.44109 15.86387
000170 23 07 80 41 a8 a3 82 41 f9 5e 82 41 09 0c 39 41
       16.003485 16.32991 16.296373 11.565438
000180 bc 58 55 41 b5 59 82 41 2d b2 81 41 e9 88 5e 41
       13.334164 16.293802 16.212 13.908425
000190 7e 7c 80 41 dc 29 79 41 ce ac 74 41 23 a6 80 41
       16.060787 15.57272 15.292189 16.081121
0001a0 97 bc 41 41 30 49 80 41 8e 33 81 41 f6 76 5a 41
       12.108542 16.035736 16.150173 13.654043
0001b0 76 d0 81 41 53 85 81 41 12 e9 80 41 e7 6a 77 41
       16.226788 16.1901 16.113804 15.463599
0001c0 95 c3 46 41 5a e6 81 41 7f ff 73 41 33 dd 81 41
       12.4227495 16.237476 15.249877 16.233007
0001d0 ea b6 80 41 4a bd 7e 41 b1 d6 37 41 18 c6 42 41
       16.089314 15.921213 11.489915 12.173363
0001e0 d6 30 7e 41 1d 5c 82 41 98 c3 77 41 a9 58 82 41
       15.886923 16.294977 15.485252 16.293291
0001f0 70 93 79 41 60 0f 58 41 5f 10 83 41 46 bd 64 41
       15.5984955 13.503754 16.382994 14.296209
000200 b0 64 82 41 8d b4 4c 41 34 25 6b 41 73 de 68 41
       16.299164 12.79408 14.696583 14.554309
000210 3c f4 81 41 ef b1 61 41 5f cd 53 41 d8 23 80 41
       16.244255 14.105941 13.237639 16.017502
000220 83 5c 81 41 e0 d8 82 41 a4 95 6c 41 54 55 81 41
       16.170172 16.355896 14.786533 16.166664
000230 46 2f 82 41 dd bd 7c 41 92 b9 82 41 8e ce 81 41
       16.273083 15.796353 16.34061 16.225857
000240 d4 86 82 41 c6 5b 7e 41 c3 80 81 41 29 1e 79 41
       16.315834 15.897406 16.187872 15.569863
000250 74 34 82 41 8c e1 7b 41 17 59 81 41 fe 80 50 41
       16.275612 15.742565 16.1685 13.031492
000260 fc d5 46 41 4b b7 72 41 89 f2 82 41 19 0c 80 41
       12.427242 15.169749 16.368425 16.005907
000270 e8 2c 82 41 9f 8b 7f 41 66 bb 81 41 d7 d0 76 41
       16.271927 15.971587 16.216503 15.425986
000280 4c 41 81 41 6a 9f 7d 41 a4 c0 80 41 4a bf 7a 41
       16.156883 15.851419 16.094063 15.671701
000290 55 00 81 41 54 39 80 41 a0 7d 70 41 76 a0 81 41
       16.125162 16.027992 15.03067 16.20335
0002a0 6f 1a 57 41 e6 c3 82 41 cb 51 82 41 30 e3 68 41
       13.4439535 16.345654 16.289938 14.555466
0002b0 42 0e 7e 41 2d eb 80 41 a7 7f 81 41 17 c9 81 41
       15.878481 16.114832 16.18733 16.223188
0002c0 7e 43 3b 41 9e b3 55 41 0f f6 82 41 9c 84 82 41
       11.703978 13.356352 16.370146 16.31475
0002d0 94 51 60 41 af 63 81 41 08 02 79 41 f6 64 73 41
       14.019917 16.173674 15.562996 15.212149
0002e0 0c 3d 81 41 95 bb 44 41 66 99 80 41 49 bf 81 41
       16.154808 12.295796 16.074902 16.218401
0002f0 ac bf 59 41 dd 24 82 41 0e 3b 82 41 29 91 82 41
       13.609295 16.268 16.278835 16.320879
000300 e1 1d 77 41 c2 d7 46 41 a9 a9 82 41 5c 14 72 41
       15.444795 12.427675 16.332842 15.129971
000310 f8 b3 81 41 3c 98 7d 41 ef ec 7b 41 a2 fc 3a 41
       16.212875 15.849667 15.745345 11.686678
000320 b6 7b 43 41 2c 55 80 41 9f 09 82 41 03 83 78 41
       12.217703 16.041588 16.254698 15.531985
000330 a2 d6 82 41 7f 1d 77 41 ce 25 57 41 90 61 81 41
       16.354801 15.444701 13.44673 16.172638
000340 61 79 62 41 3b 2a 81 41 1d 27 4d 41 b1 9f 69 41
       14.1546335 16.14562 12.822049 14.601487
000350 bd d4 66 41 0a 07 82 41 97 b5 62 41 87 19 56 41
       14.426938 16.253437 14.169333 13.381232
000360 08 d6 80 41 76 9b 81 41 70 3f 82 41 bb 77 6b 41
       16.104507 16.200909 16.280975 14.716731
000370 b5 4f 81 41 97 2d 82 41 98 4e 7f 41 b5 53 82 41
       16.16392 16.27226 15.956688 16.290873
000380 3d 33 81 41 ca 60 81 41 7b 5b 80 41 01 be 80 41
       16.150019 16.17226 16.044668 16.092775
000390 45 28 79 41 d6 0e 82 41 57 74 79 41 c1 16 81 41
       15.572331 16.257244 15.590903 16.13611
0003a0 c6 80 4f 41 31 20 44 41 79 2e 70 41 aa 99 82 41
       12.968939 12.257859 15.011346 16.325031
0003b0 8a 81 7f 41 08 4f 82 41 e3 5f 80 41 06 0a 80 41
       15.969126 16.28859 16.04682 16.004894
0003c0 76 40 75 41 0a 31 81 41 05 c2 7c 41 08 5d 82 41
       15.328238 16.148945 15.797368 16.295425
0003d0 e8 17 7d 41 d2 1b 82 41 02 0d 81 41 8d 66 6f 41
       15.8183365 16.263584 16.131351 14.962537
0003e0 30 b4 81 41 4f 73 57 41 b3 93 82 41 6e cf 82 41
       16.212982 13.4656515 16.322119 16.351284
0003f0 7f bb 66 41 ee 2f 7e 41 a8 dc 80 41 8c 93 82 41
       14.420775 15.886702 16.107742 16.322044

fc1.bias f4 [128]
000000 92 f3 82 41 3a ec 81 41 88 96 82 41 eb a9 82 41
       16.36893 16.240345 16.323502 16.332968
000010 6d ff 82 41 6a 0d 82 41 00 fa 82 41 a6 35 82 41
       16.37472 16.25655 16.37207 16.276196
000020 6a 32 83 41 4d c2 82 41 59 d5 81 41 0d 79 82 41
       16.399616 16.344873 16.229174 16.309107
000030 4e 66 83 41 cd 42 83 41 26 00 82 41 25 63 82 41
       16.424953 16.407618 16.250072 16.29841
000040 79 5f 83 41 e4 24 81 41 15 c4 82 41 a8 cd 81 41
       16.421618 16.143013 16.345743 16.225418
000050 84 1a 83 41 06 10 83 41 14 1a 83 41 f9 b8 82 41
       16.387947 16.382824 16.387733 16.340319
000060 c0 8f 81 41 e0 f4 81 41 52 84 82 41 02 5f 82 41
       16.19519 16.244568 16.31461 16.29639
000070 14 07 82 41 96 8d 83 41 5d 6e 83 41 e5 2a 82 41
       16.253456 16.444134 16.428888 16.270945
000080 a2 f9 82 41 e1 46 83 41 7e 90 82 41 ce b7 82 41
       16.371891 16.409609 16.320553 16.339748
000090 8e 12 82 41 0e 93 82 41 cd cf 82 41 01 46 82 41
       16.25906 16.321804 16.351465 16.284182
0000a0 df 9b 82 41 f2 ec 82 41 0f f1 82 41 16 aa 82 41
       16.326109 16.365696 16.367704 16.33305
0000b0 b1 db 82 41 76 52 82 41 17 c7 81 41 ca 2e 82 41
       16.357271 16.290264 16.222212 16.272846
0000c0 58 5c 81 41 8b 99 82 41 31 39 83 41 b9 2b 82 41
       16.17009 16.324972 16.402925 16.271349
0000d0 34 64 82 41 e3 93 82 41 4c b3 81 41 ad 8a 82 41
       16.298927 16.32221 16.212547 16.317713
0000e0 6b 40 83 41 55 fa 82 41 0c cb 81 41 1a 96 82 41
       16.406454 16.372232 16.224144 16.323292
0000f0 9b ac 82 41 cc 4f 82 41 31 e0 82 41 67 76 82 41
       16.33428 16.288963 16.359468 16.307814
000100 70 33 82 41 d3 a5 83 41 fd 7f 83 41 95 f8 82 41
       16.275116 16.455969 16.437494 16.371378
000110 bb 4a 83 41 36 46 82 41 de 83 82 41 f5 ab 80 41
       16.41149 16.284283 16.314388 16.083963
000120 fa 18 83 41 d8 2e 82 41 3e 48 83 41 f5 33 83 41
       16.387196 16.272873 16.410275 16.40037
000130 16 d4 82 41 85 00 83 41 69 ce 81 41 c5 29 82 41
       16.353558 16.375254 16.225786 16.270395
000140 af d9 81 41 d0 d8 81 41 cd 0e 83 41 a9 3c 83 41
       16.23129 16.230865 16.382227 16.40462
000150 d1 2b 83 41 4f 59 83 41 12 d3 81 41 59 b3 81 41
       16.396395 16.418608 16.228062 16.212572
000160 a9 11 82 41 9d a6 83 41 a0 e3 81 41 93 19 83 41
       16.258623 16.456354 16.236145 16.387487
000170 a0 d2 81 41 49 3e 82 41 76 26 82 41 ff 13 82 41
       16.227844 16.280413 16.26878 16.259764
000180 a2 e4 82 41 16 ef 81 41 d7 58 83 41 4d 97 82 41
       16.361637 16.241741 16.418379 16.323877
000190 b8 ea 82 41 83 34 82 41 e5 dc 82 41 54 3a 83 41
       16.364609 16.27564 16.357859 16.40348
0001a0 c4 55 83 41 b3 55 83 41 91 4a 82 41 29 de 81 41
       16.416878 16.416845 16.28641 16.233477
0001b0 27 c1 82 41 92 89 83 41 97 c6 82 41 01 a3 82 41
       16.344313 16.442173 16.346968 16.329592
0001c0 d3 fb 82 41 1b 94 83 41 77 97 82 41 35 88 82 41
       16.372961 16.447317 16.323957 16.316507
0001d0 45 d6 82 41 f7 0b 83 41 d9 db 82 41 ab 62 83 41
       16.354624 16.380842 16.357347 16.423178
0001e0 93 e7 82 41 02 4e 83 41 8d 3d 83 41 c9 f1 81 41
       16.363073 16.41309 16.405054 16.24306
0001f0 56 dc 81 41 9f 20 83 41 48 15 81 41 42 8a 83 41
       16.232586 16.390928 16.135391 16.442509

fc2.weight f4 [81, 128]
000000 40 df 05 40 72 38 03 40 d0 3c 04 40 1a eb fc 3f
       2.091751 2.0503201 2.0662117 1.9759247
000010 b3 d1 04 40 d4 f4 03 40 f1 05 04 40 de af 07 40
       2.075299 2.0618181 2.0628626 2.120109
000020 2d af fb 3f 71 91 05 40 00 fd 00 40 00 d1 08 40
       1.9662834 2.087002 2.015442 2.1377563
000030 9a 4f fe 3f 5c 8f 01 40 01 e8 09 40 00 70 01 40
       1.9868042 2.024375 2.1547854 2.022461
000040 86 03 05 40 16 06 fc 3f e3 4b 04 40 57 d8 fb 3f
       2.07834 1.9689357 2.0671318 1.9675397
000050 03 8d fd 3f 31 51 03 40 b3 be 08 40 ed 7f 09 40
       1.9808658 2.0518305 2.1366394 2.148433
000060 db 34 01 40 db 61 fd 3f e5 57 03 40 34 5a 05 40
       2.018851 1.9795488 2.0522397 2.0836306
000070 36 c2 04 40 ed 27 04 40 1a 96 02 40 52 9e 08 40
       2.0743537 2.0649369 2.0404115 2.134663
000080 88 57 08 40 38 d1 00 40 a5 f1 04 40 cd 28 02 40
       2.1303425 2.0127697 2.0772488 2.0337403
000090 ad 9b 06 40 05 78 fc 3f da 9f 05 40 76 aa ff 3f
       2.1032517 1.9724127 2.0878816 1.9973896
0000a0 0e a3 fc 3f 1c 99 04 40 fa 00 02 40 44 ef 04 40
       1.973726 2.071845 2.0313096 2.0771036
0000b0 4e 6d 04 40 50 21 fc 3f ac 47 07 40 d2 e7 01 40
       2.0691714 1.9697666 2.1137495 2.0297742
0000c0 2a 9d 02 40 d5 1f ff 3f 65 fc 01 40 d9 44 fe 3f
       2.0408425 1.9931589 2.03103 1.9864761
0000d0 9c 38 06 40 71 f7 03 40 78 eb 03 40 4f 9a 02 40
       2.0972052 2.0619776 2.0612469 2.0406682
0000e0 55 8f 03 40 68 96 05 40 df 2f 01 40 99 cc 07 40
       2.0556233 2.087305 2.0185468 2.1218626
0000f0 55 72 04 40 63 c8 ff 3f 3b fb 03 40 91 c2 06 40
       2.0694783 1.9983028 2.062209 2.1056254
000100 5a 08 08 40 f5 d2 ff 3f 42 2b 08 40 5d 42 04 40
       2.1255097 1.9986254 2.1276402 2.0665505
000110 fe de 02 40 1d f1 00 40 82 28 07 40 e5 fa ee 3f
       2.0448604 2.0147164 2.1118474 1.8670317
000120 4f de 04 40 ed 29 08 40 25 8b 02 40 81 75 08 40
       2.0760686 2.127559 2.0397427 2.1321719
000130 9c a6 01 40 87 71 07 40 37 55 fe 3f 7f 88 07 40
       2.025794 2.1163042 1.9869756 2.117706
000140 24 6c 02 40 d3 47 05 40 4e 23 fd 3f 6a 4b fe 3f
       2.0378504 2.0825088 1.9776399 1.9866765
000150 8a b4 fe 3f a4 40 00 40 fe c6 00 40 18 f4 fe 3f
       1.9898846 2.0039454 2.0121455 1.9918242
000160 0f 35 03 40 08 38 03 40 a1 4b fb 3f 3d dd 02 40
       2.0501134 2.0502949 1.9632455 2.0447533
000170 80 d9 03 40 33 78 05 40 c7 8c 01 40 47 5f 00 40
       2.0601501 2.0854614 2.0242174 2.0058153
000180 24 36 05 40 e4 44 04 40 b3 bb f7 3f f3 68 02 40
       2.0814295 2.0667048 1.9354156 2.0376556
000190 ed 15 07 40 04 a7 fd 3f 16 c0 ff 3f 92 1b 01 40
       2.1107132 1.9816594 1.9980495 2.0173078
0001a0 8a 6c fd 3f e8 e4 fe 3f 94 0e fa 3f 56 b1 fc 3f
       1.9798748 1.9913607 1.9535699 1.9741619
0001b0 26 34 03 40 06 ab 09 40 5c 67 00 40 17 32 07 40
       2.050058 2.1510634 2.0063086 2.1124322
0001c0 7b 23 02 40 b2 12 09 40 8f d2 01 40 ea 27 fa 3f
       2.0334156 2.141766 2.0284765 1.9543431
0001d0 ec 17 02 40 f7 cb 06 40 d7 d5 06 40 53 b2 06 40
       2.03271 2.106199 2.1068017 2.104634
0001e0 9a 0c 04 40 a8 0b 07 40 c0 cf 08 40 83 f1 fd 3f
       2.0632691 2.1100864 2.13768 1.9839329
0001f0 08 6b fc 3f 11 19 05 40 be 60 f8 3f 2d 37 fd 3f
       1.9720163 2.079655 1.9404523 1.9782463
000200 9c 28 3d 41 5e fb 3d 41 2f 78 3d 41 9e 71 3e 41
       11.822414 11.873869 11.841842 11.902739
000210 e9 82 3e 41 0d 16 3d 41 91 53 3e 41 f5 fc 3e 41
       11.9069605 11.8178835 11.895402 11.936757
000220 7a 04 3d 41 28 46 3c 41 e6 2f 3e 41 eb 0b 3c 41
       11.813593 11.767128 11.886694 11.75291
000230 e8 ba 3d 41 f1 4c 3d 41 45 93 3e 41 77 9f 3c 41
       11.858131 11.8312845 11.910954 11.788932
000240 42 8e 3d 41 77 bc 3b 41 22 1e 3e 41 f5 ec 3c 41
       11.847231 11.733512 11.882357 11.807851
000250 e7 31 3c 41 6e 77 3c 41 4b 7d 3d 41 b7 13 3d 41
       11.762183 11.779158 11.843089 11.817313
000260 4c 82 3c 41 d2 32 3d 41 20 1a 3d 41 05 98 3c 41
       11.781811 11.824907 11.818878 11.787114
000270 75 55 3d 41 97 2c 3e 41 f1 b4 3d 41 a9 42 3d 41
       11.833364 11.885886 11.856675 11.828774
000280 bf 3f 3d 41 dd 66 3d 41 1f c5 3e 41 c4 fb 3b 41
       11.828063 11.837613 11.923125 11.748966
000290 90 17 3c 41 50 03 3f 41 42 a8 3e 41 85 78 3d 41
       11.755753 11.938309 11.916079 11.841924
0002a0 99 6d 3e 41 6c 94 3e 41 65 72 3c 41 b0 e7 3d 41
       11.901757 11.911236 11.777928 11.869064
0002b0 f5 f5 3e 41 fc db 3b 41 9b ae 3c 41 dc b2 3d 41
       11.935048 11.741207 11.792628 11.856167
0002c0 0a 2c 3d 41 e2 7a 3e 41 cd e9 3d 41 b0 5a 3c 41
       11.823252 11.905001 11.86958 11.7721405
0002d0 d1 ed 3c 41 9d 47 3e 41 23 87 3d 41 d7 02 3e 41
       11.808061 11.892484 11.845492 11.875693
0002e0 ef cf 3e 41 31 6c 3e 41 9a 93 3d 41 25 e5 3d 41
       11.925765 11.901414 11.848536 11.8684435
0002f0 19 f2 3d 41 5d 85 3d 41 fd 98 3c 41 aa f0 3c 41
       11.871606 11.845059 11.787351 11.808756
000300 40 9c 3d 41 c1 3b 3d 41 0d 8a 3c 41 24 42 3c 41
       11.850647 11.827088 11.783704 11.766148
000310 6a d5 3e 41 a9 57 3c 41 2d 0c 3f 41 f6 c8 39 41
       11.927103 11.771401 11.940473 11.611563
000320 4f bf 3e 41 af 49 3d 41 9e 31 3e 41 98 b7 3c 41
       11.921706 11.830489 11.887114 11.794823
000330 71 d0 3c 41 ec 9b 3d 41 55 3d 3c 41 63 c7 3c 41
       11.800889 11.850567 11.764974 11.798678
000340 2a fe 3c 41 bf 01 3f 41 f3 d0 3d 41 29 8a 3e 41
       11.812052 11.937926 11.863513 11.9087305
000350 b3 bb 3c 41 f1 b5 3d 41 e5 9f 3d 41 d6 ff 3b 41
       11.795825 11.856919 11.851537 11.74996
000360 29 6d 3d 41 83 17 3e 41 59 84 3c 41 6e 31 3f 41
       11.83915 11.88074 11.782311 11.949568
000370 73 ea 3d 41 75 aa 3e 41 bc bd 3e 41 31 78 3d 41
       11.869739 11.9166155 11.921322 11.841844
000380 08 a6 3c 41 62 6b 3d 41 51 ee 3c 41 df cd 3d 41
       11.790535 11.8387165 11.808183 11.8627615
000390 82 1d 3d 41 6f d6 3b 41 e4 28 3c 41 f4 d3 3d 41
       11.819704 11.739852 11.759983 11.864246
0003a0 49 7b 3e 41 6d 5d 3d 41 eb 7e 3c 41 30 56 3e 41
       11.905099 11.835309 11.780986 11.896042
0003b0 41 fd 3e 41 36 6f 3c 41 9c 24 3e 41 3e 1a 3d 41
       11.93683 11.777151 11.883938 11.818907
0003c0 09 4c 3c 41 b3 a0 3c 41 46 cd 3e 41 e7 22 3e 41
       11.768563 11.789233 11.925116 11.883521
0003d0 c8 af 3e 41 d7 07 3d 41 57 58 3e 41 76 85 3e 41
       11.917915 11.814414 11.896567 11.907583
0003e0 27 bd 3e 41 68 81 3e 41 f3 d6 3e 41 77 9b 3c 41
       11.92118 11.906593 11.927478 11.787955
0003f0 36 c0 3c 41 60 21 3f 41 1d db 3c 41 2e 5d 3e 41
       11.7969265 11.945648 11.803494 11.897749

fc2.bias f4 [81]
000000 85 a6 07 40 a6 c7 2d 41 7b 6c 3b 40 6b db 41 40
       2.1195385 10.861242 2.9284961 3.0290172
000010 4d c9 26 41 99 72 da 3f a6 01 8e 40 3f 6d b3 3f
       10.424146 1.7066222 4.437701 1.4017714
000020 6c 8d 9d 3f 04 c5 13 41 b0 91 6a 40 de 94 37 41
       1.2308784 9.2355995 3.665142 11.473845
000030 e9 43 41 41 79 39 45 41 11 ba 78 40 7d c9 e0 40
       12.07908 12.326531 3.8863566 7.0245957
000040 4c 28 42 41 b6 7e c6 3f e0 c8 9f 40 35 4c 3e 41
       12.134838 1.5507419 4.993271 11.893605
000050 0d a9 83 40 0a 88 28 41 d6 8d 44 40 5f 70 82 40
       4.114386 10.533213 3.071157 4.076217
000060 e6 76 38 41 cd 72 40 41 37 3c af 40 c5 58 39 41
       11.529028 12.028028 5.4761004 11.584172
000070 ff 44 40 41 94 0b 43 41 0e 9c 92 40 c9 dd ea 40
       12.016845 12.190327 4.5815496 7.3395734
000080 d8 23 9c 3f 21 98 22 41 48 7e 42 40 94 cb 35 41
       1.2198439 10.162141 3.0389576 11.362202
000090 54 fd 5a 40 7b 38 87 40 8a e0 7c 40 21 f9 6c 40
       3.421712 4.2256446 3.9512048 3.7027056
0000a0 54 62 42 41 76 8d 7f 40 58 7d 3f 41 56 a8 29 41
       12.149006 3.993009 11.9681015 10.603598
0000b0 71 06 fd 40 e5 a5 fc 3f 06 2d 02 41 55 f5 1a 40
       7.9070363 1.9738127 8.135992 2.4212239
0000c0 4a 90 e6 40 9e d5 96 40 23 83 0d 41 e0 cf bb 3f
       7.2051134 4.7135763 8.844516 1.4672813
0000d0 29 b7 8f 40 1d e5 fa 40 14 28 40 40 14 d1 40 41
       4.4911084 7.840468 3.0024462 12.051044
0000e0 78 4e a4 3f 4d c7 1c 41 f3 46 46 41 9e e8 40 41
       1.2836447 9.798657 12.392322 12.056791
0000f0 db d1 2e 41 90 45 02 40 85 38 1f 40 9d 07 41 41
       10.926234 2.0354958 2.4878247 12.064359
000100 9f 3f 7e 40 ac 2d 40 41 e8 75 83 40 f3 69 a7 3f
       3.9726331 12.01115 4.108143 1.3079208
000110 77 e3 2c 41 95 1f 40 41 34 f2 b0 40 ec 4b c3 40
       10.805533 12.00771 5.529566 6.103018
000120 17 b0 8a 40 0e 56 43 41 94 e8 2f 41 44 bc 9b 3f
       4.3339953 12.208509 10.994282 1.2166829
000130 08 bc 31 41 40 4d 45 40 17 81 28 41 ba fb 3d 41
       11.108406 3.08284 10.531516 11.873957
000140 dc 1a 68 40
       3.6266394
