models/q_black.pth (torch, 169104 bytes, 4 tensors)

fc1.weight f4 [256, 81]
3.151402 3.107826 5.64897 5.4290657 -0.26094794 1.8892792 3.3100626 -0.9124284
3.1283212 3.3470774 1.0639961 6.6732016 5.6720333 2.4643805 3.2439914 4.8419404
4.0456233 6.0165076 4.416936 4.033504 6.858191 1.7707736 0.5052559 4.4571853
0.10435568 3.3225138 1.5463576 3.7306163 4.0035563 4.5376635 5.887302 5.5274696
3.0474908 2.0909376 0.0394107 0.7713594 6.4381595 0.020484827 4.9943094 0.41658822
1.5661296 4.1782994 1.3758717 -0.5162581 4.0252495 -0.31394708 2.1355898 4.2409024
1.1897761 -1.1362784 3.4708912 4.111148 4.482003 2.0856535 2.7639363 1.3443938
2.7196002 2.4237545 0.031527 4.6021576 -0.49515888 1.9670837 0.538925 1.7091475
5.0172267 5.2989607 0.6109554 5.337571 2.4989505 1.1601424 3.1353202 1.6376255
2.8805306 3.5084517 0.86487365 0.45592675 -0.68918294 0.6517786 3.71699 1.0383054
2.6233954 2.8642185 3.2134652 5.6451235 5.323989 -0.011791286 2.0077155 3.2393277
-1.0797173 3.3078713 3.1206963 0.8586494 6.5700126 5.673245 2.6228971 3.197679
4.5574465 4.0861535 5.903766 4.553236 4.1001515 6.5925436 1.9764069 0.49420035
4.229064 -0.10301899 3.3938138 1.5445824 3.8931942 3.9477358 4.438317 6.022167
5.486964 2.8773355 1.9378866 0.072387144 1.098472 6.3926296 -0.07551785 4.7365236
0.11658076 1.7329241 4.3896227 1.0385485 -0.7647999 3.9530632 -0.27764407 1.8772564
4.209252 0.9959526 -0.9008458 3.3086648 4.0665646 4.3866963 2.2261548 2.6589787
1.3031887 2.7648957 2.329394 -0.03196593 4.638642 -0.36361584 1.9555695 0.9619408
1.6037645 4.8405657 5.2652364 0.61384225 5.067757 2.2263236 1.009451 3.2804408
1.5037973 2.822258 3.1707592 0.94588524 0.3522106 -0.67945826 0.96863467 3.86916
1.1595861 2.5684812 3.1514728 2.7659938 5.621183 5.4325576 -0.11138938 1.8050777
3.3926733 -1.1325428 3.011246 3.1647966 1.1101407 6.8352294 5.9187617 2.6430657
3.1842334 4.8249645 4.049489 5.9026704 4.326875 4.2582736 6.7618065 1.7914107
0.5900729 4.241309 0.003322077 3.2017238 1.534109 3.8817728 3.8846521 4.7053447
5.8269095 5.569479 3.0691612 2.0764098 -0.027689276 0.93737036 6.5469155 -0.27149412
4.82305 0.42108974 1.699289 4.18806 1.032285 -0.60314363 3.7947676 -0.4094978
1.8841507 4.1239157 1.0936255 -0.96931094 3.294744 4.065211 4.4225693 2.2690902
2.7025409 1.0947617 2.781285 2.3735316 0.15872125 4.4325056 -0.4870102 2.1025167
0.6611011 1.5052704 5.1391535 5.120216 0.4676531 5.0216794 2.288554 0.8524436
3.1798263 1.3064635 2.7895298 3.4217446 1.0354009 0.4681365 -0.57446784 0.86506873
3.805518 1.2615583 2.5630906 3.1766768 2.8092115 5.295246 5.3770986 -0.09698601
1.7132804 3.2488878 -1.1962287 2.951917 3.0886037 1.120742 6.6780415 5.8004527
00000000: 92b0 4940 9fe6 4640 5dc4 b440 e8ba ad40
00000010: f89a 85be e7d3 f13f 11d8 5340 e894 69bf
00000020: 6a36 4840 8436 5640 0631 883f de8a d540
00000030: 4c81 b540 69b8 1d40 8e9d 4f40 2df1 9a40
00000040: bf75 8140 3b87 c040 8a57 8d40 7712 8140
00000050: 4d76 db40 b6a8 e23f 7358 013f 43a1 8e40
00000060: 6eb8 d53d 11a4 5440 0cef c53f 6bc2 6e40
00000070: 221d 8040 8a34 9140 c764 bc40 08e1 b040
00000080: 170a 4340 ecd1 0540 1d6d 213d cf77 453f
00000090: 6705 ce40 cccf a73c 62d1 9f40 0d4b d53e
000000a0: ef76 c83f a1b4 8540 901c b03f 7e29 04bf
000000b0: d8ce 8040 acbd a0be 81ad 0840 79b5 8740
000000c0: 954a 983f 9271 91bf 1523 5e40 868e 8340
000000d0: 926c 8f40 597b 0540 55e4 3040 1915 ac3f
000000e0: ee0d 2e40 cb1e 1b40 7522 013d e044 9340
000000f0: 7785 fdbe 66c9 fb3f fdf6 093f 58c5 da3f
00000100: 1f8d a040 1691 a940 9367 1c3f 62cd aa40
00000110: ceee 1f40 8c7f 943f 16a9 4840 b69d d13f
00000120: 9d5a 3840 798a 6040 5c68 5d3f 3b6f e93e
00000130: 4b6e 30bf f6da 263f 2ae3 6d40 31e7 843f
00000140: b6e5 2740 5b4f 3740 6aa9 4d40 daa4 b440
00000150: 1e5e aa40 3d30 41bc 697e 0040 2551 4f40
00000160: 2d34 8abf 2ab4 5340 7db9 4740 72d0 5b3f
00000170: 8b3d d240 398b b540 8cdd 2740 c6a6 4c40
00000180: 9ad6 9140 c5c1 8240 a7eb bc40 1cb4 9140
00000190: 7134 8340 1ef6 d240 e7fa fc3f d407 fd3e
000001a0: 7e54 8740 9ffb d2bd 3f34 5940 e0b4 c53f
000001b0: 182a 7940 b4a7 7c40 b106 8e40 98b5 c040
000001c0: 3695 af40 4426 3840 ab0c f83f b63f 943d
000001d0: bb9a 8c3f 6c90 cc40 1aa9 9abd 9a91 9740
000001e0: e5c1 ee3d 75d0 dd3f ca77 8c40 28ef 843f
000001f0: edc9 43bf fdfe 7c40 5d27 8ebe f049 f03f
00000200: 31b2 8640 c0f6 7e3f d59d 66bf 2ac1 5340
00000210: 4c21 8240 d15f 8c40 5279 0e40 b52c 2a40
00000220: e3ce a63f 0df4 3040 cb14 1540 b5ee 02bd
00000230: c16f 9440 db2b babe 1a50 fa3f c141 763f
00000240: 2848 cd3f eae5 9a40 d17c a840 c424 1d3f
00000250: 112b a240 167c 0e40 b135 813f bef2 5140
00000260: 6e7c c03f e09f 3440 b8ed 4a40 8925 723f
00000270: f354 b43e faf0 2dbf 71f8 773f 51a0 7740
00000280: 516d 943f ff61 2440 bbb1 4940 0b06 3140
00000290: bbe0 b340 83d7 ad40 1e20 e4bd c90c e73f
000002a0: 8f21 5940 2af7 90bf 41b8 4040 078c 4a40
000002b0: 1719 8e3f 33ba da40 7f66 bd40 fd27 2940
000002c0: 7bca 4b40 1c66 9a40 6a95 8140 ade2 bc40
000002d0: c375 8a40 c743 8840 b860 d840 f24c e53f
000002e0: 040f 173f ceb8 8740 34b7 593b 0be9 4c40
000002f0: af5d c43f f76e 7840 249e 7840 2f92 9640
00000300: 0b76 ba40 2c39 b240 236d 4440 e6e3 0440
00000310: 9fd4 e2bc 81f7 6f3f 5580 d140 4701 8bbe
00000320: 6d56 9a40 1399 d73e 4d82 d93f 9604 8640
00000330: ea21 843f 9f67 1abf 79dd 7240 b2a9 d1be
00000340: da2b f13f 1ef7 8340 ecfb 8b3f c324 78bf
00000350: 16dd 5240 3516 8240 b085 8d40 c638 1140
00000360: 6ef6 2c40 2721 8c3f 9300 3240 f1e7 1740
00000370: d387 223e 16d7 8d40 6759 f9be a28f 0640
00000380: ec3d 293f b3ac c03f f273 a440 cfd8 a340
00000390: 3a70 ef3e 99b1 a040 ab77 1240 be39 5a3f
000003a0: 4682 4b40 323a a73f a887 3240 ddfd 5a40
000003b0: 0488 843f 96af ef3e 5310 13bf 2575 5d3f
000003c0: 9b8d 7340 be7a a13f ad09 2440 ac4e 4b40
000003d0: 1fca 3340 a872 a940 3111 ac40 9aa0 c6bd
000003e0: c64c db3f c7ed 4f40 061e 99bf 35ec 3c40
000003f0: afab 4540 7974 8f3f 84b2 d540 4f9d b940

fc1.bias f4 [256]
7.0607004 7.098329 7.310731 7.409676 7.3224425 7.216009 6.9892216 7.003588
7.1524553 7.0667067 7.3764153 7.3337545 7.3092556 6.9874387 6.980145 7.1925945
7.278577 7.245181 7.351581 7.3811045 7.159821 7.2894754 7.103379 7.4436646
7.4155645 7.1158204 6.996124 7.3987794 7.097784 7.1226583 6.9625983 7.129582
7.239354 7.1197 7.482489 7.177997 7.073749 7.317178 7.2220435 7.0964184
7.223149 7.2409244 7.561265 7.237362 7.10553 7.396095 7.257992 7.095725
7.0398946 7.331987 7.225235 7.0680747 7.2717557 7.412472 7.3800864 7.446381
7.0287538 6.9741917 7.4781156 7.207004 7.314033 7.2933636 6.8671737 7.2282696
7.100113 7.1318326 7.0973845 6.997703 6.8670034 6.9724517 7.293012 7.3686
7.155194 7.0185604 6.832737 7.3317633 7.223818 7.245892 7.276032 7.405046
7.320416 7.1514425 6.9200335 7.1949224 7.0576153 7.3847837 6.884506 7.346969
6.97719 6.7735295 7.2418714 7.0635157 7.2741947 7.2681227 7.262878 7.0551376
6.9954576 7.0931973 7.1347585 7.3404484 7.288237 7.058441 7.675927 7.403627
6.9538198 6.7515893 7.628768 7.331336 7.180538 7.1798735 7.243689 7.710926
7.350723 7.4421835 7.3644905 7.3619375 7.1171985 7.0171185 7.004883 7.229264
7.327226 7.3758984 7.2096524 7.016385 7.048542 7.260608 7.1043067 7.006305
7.291731 7.0150914 7.2395825 7.171123 7.051916 7.228014 7.126557 7.264491
7.170335 7.029743 7.516126 7.218418 7.257378 7.04623 7.0677156 7.34703
7.3652925 7.292773 7.0793185 7.1096787 7.2086987 7.2790494 6.9649563 7.52359
7.080041 7.3306823 7.1744237 7.4352217 6.893455 7.028686 7.3002825 7.2276917
7.179165 7.0864124 7.232934 7.4730268 7.200919 7.0244026 7.402057 7.298816
7.4717183 7.317247 7.032534 6.994382 6.8922405 7.219127 6.9796896 6.926236
7.357915 7.323924 7.198676 7.339137 7.2189255 7.22916 7.1951528 7.2134633
7.3213363 7.0569386 7.1557035 7.3132424 7.337976 7.3732905 7.287887 7.3315597
7.245843 7.3088937 7.2828045 7.2653785 6.9194703 6.938098 7.115487 7.331342
7.2399645 7.071721 7.184108 7.117643 7.342237 7.289182 6.869587 7.1647587
7.4889016 6.981839 7.1586714 7.304469 7.226542 7.3018093 7.333239 7.252576
7.073979 7.4407 7.268387 7.422999 6.9933267 7.1596594 7.05197 7.3139944
7.329964 7.308264 7.336284 7.3469887 7.20848 7.08059 7.2997885 7.12777
6.707198 6.900925 7.4621334 7.0971704 7.2529593 7.395953 7.2867804 7.243704
7.105472 7.296736 6.972616 7.489872 7.1469455 7.165619 7.0128736 7.0703583
7.0632753 7.0798297 7.2607307 6.900728 6.8226604 7.030244 7.183717 7.323818
00000000: 42f1 e140 8325 e340 82f1 e940 111c ed40
00000010: 7351 ea40 8ce9 e640 b4a7 df40 651d e040
00000020: eae0 e440 7622 e240 980b ec40 1eae ea40
00000030: 6ce5 e940 1999 df40 595d df40 bc29 e640
00000040: 1aea e840 86d8 e740 2740 eb40 0232 ec40
00000050: 411d e540 6243 e940 e14e e340 8032 ee40
00000060: 4e4c ed40 cdb4 e340 3fe0 df40 cdc2 ec40
00000070: 0c21 e340 d1ec e340 9bcd de40 8925 e440
00000080: caa8 e740 95d4 e340 8d70 ef40 27b2 e540
00000090: 275c e240 5226 ea40 fb1a e740 dc15 e340
000000a0: 0924 e740 a7b5 e740 e2f5 f140 7898 e740
000000b0: 8060 e340 cfac ec40 7841 e840 2e10 e340
000000c0: d146 e140 a39f ea40 2035 e740 ab2d e240
000000d0: 39b2 e840 f832 ed40 ab29 ec40 c148 ee40
000000e0: 8deb e040 942c df40 b94c ef40 c79f e640
000000f0: 8f0c ea40 3c63 e940 e3bf db40 fc4d e740
00000100: 2034 e340 f937 e440 c61d e340 2fed df40
00000110: 7ebe db40 531e df40 5b60 e940 92cb eb40
00000120: 59f7 e440 0c98 e040 c8a5 da40 ce9d ea40
00000130: 8429 e740 59de e740 41d5 e840 23f6 ec40
00000140: d940 ea40 9ed8 e440 ea70 dd40 ce3c e640
00000150: fcd7 e140 2650 ec40 e04d dc40 5f1a eb40
00000160: 2445 df40 c1c0 d840 69bd e740 5208 e240
00000170: 34c6 e840 7694 e840 7f69 e840 b0c3 e140
00000180: cada df40 79fb e240 f14f e440 f4e4 ea40
00000190: 3d39 e940 c0de e140 32a1 f540 83ea ec40
000001a0: b185 de40 050d d840 de1e f440 4e9a ea40
000001b0: f8c6 e540 86c1 e540 4dcc e740 e8bf f640
000001c0: 1f39 eb40 5e26 ee40 e8a9 eb40 fe94 eb40
000001d0: 17c0 e340 3c8c e040 0028 e040 2156 e740
000001e0: a378 ea40 5c07 ec40 79b5 e640 3a86 e040
000001f0: a88d e140 e756 e840 7b56 e340 a733 e040
00000200: dc55 e940 a17b e040 a9aa e740 d779 e540
00000210: 4ca9 e140 e44b e740 c10c e440 b676 e840
00000220: 6273 e540 a8f3 e040 1b84 f040 48fd e640
00000230: 713c e840 b77a e140 ba2a e240 df1a eb40
00000240: 7ab0 eb40 655e e940 c789 e240 7d82 e340
00000250: a9ad e640 f9ed e840 ece0 de40 40c1 f040
00000260: b28f e240 f394 ea40 e194 e540 56ed ed40
00000270: 2f97 dc40 ffea e040 ea9b e940 4049 e740
00000280: b8bb e540 e4c3 e240 3274 e740 0923 ef40
00000290: ee6d e640 e8c7 e040 a7dd ec40 e78f e940
000002a0: 5118 ef40 e326 ea40 850a e140 fad1 df40
000002b0: 3c8d dc40 1703 e740 9e59 df40 baa3 dd40
000002c0: 0a74 eb40 965d ea40 8e5b e640 36da ea40
000002d0: 7001 e740 4755 e740 b13e e640 b1d4 e640
000002e0: 6348 ea40 71d2 e140 86fb e440 1506 ea40
000002f0: b3d0 ea40 fff1 eb40 5f36 e940 239c ea40
00000300: f2dd e740 75e2 e940 bc0c e940 fb7d e840
00000310: 4d6c dd40 e604 de40 12b2 e340 5b9a ea40
00000320: caad e740 8a4b e240 36e4 e540 bbc3 e340
00000330: 9bf3 ea40 fb40 e940 a8d3 db40 b445 e540
00000340: 15a5 ef40 3a6b df40 d613 e540 36be e940
00000350: d53f e740 6ca8 e940 e5a9 ea40 1a15 e840
00000360: 095e e240 371a ee40 a096 e840 3589 ed40
00000370: 55c9 df40 ee1b e540 bda9 e140 3e0c ea40
00000380: 118f ea40 4cdd e940 d7c2 ea40 881a eb40
00000390: deab e640 3194 e240 de97 e940 b116 e440
000003a0: 5ea1 d640 61d4 dc40 ccc9 ee40 051c e340
000003b0: 3e18 e840 a6ab ec40 4e2d e940 6ccc e740
000003c0: 0760 e340 dc7e e940 ac1f df40 08ad ef40
000003d0: c7b3 e440 c04c e540 7669 e040 6040 e240
000003e0: 5a06 e240 f78d e240 e857 e840 c4d2 dc40
000003f0: 3c53 da40 c2f7 e040 02e1 e540 b85c ea40

fc2.weight f4 [81, 256]
1.5532426 1.5790797 1.4652522 1.6362244 1.7028906 1.7624748 1.6103947 1.3540745
1.5452093 1.4817871 1.497838 1.5823674 1.5318403 1.6901613 1.4948395 1.6093686
1.5520998 1.4418457 1.7602633 1.8526479 1.7131776 1.6528429 1.6090814 1.5690176
1.6898144 1.4571837 1.6576807 1.7554816 1.6686288 1.5379688 1.6782668 1.6112051
1.8359368 1.7236828 1.781048 1.5181229 1.7822869 1.4684242 1.8251283 1.7682298
1.5318056 1.507955 1.6487854 1.8248081 1.7044625 1.6968958 1.6704851 1.4673574
1.3420357 1.6715722 1.522488 1.493323 1.598045 1.6692334 1.4922912 1.7669908
1.5608444 1.6852422 1.554434 1.638516 1.5551805 1.589958 1.5819788 1.6138402
1.6592804 1.4852306 1.6054156 1.5340565 1.5239775 1.5506402 1.7318722 1.5002612
1.6038677 1.5343505 1.445283 1.5986259 1.5862465 1.5981879 1.6260788 1.6005236
1.6183921 1.385342 1.4199648 1.4976176 1.4687423 1.6422251 1.6034933 1.6236936
1.682472 1.3586135 1.709532 1.4708718 1.8105389 1.5973165 1.5806223 1.759355
1.484608 1.7533782 1.6116302 1.6408237 1.5991871 1.4689703 1.8555963 1.6328015
1.4983212 1.6565012 1.7697484 1.7847068 1.7626677 1.6970183 1.5087817 1.7964633
1.6099236 1.6280745 1.5287615 1.5659866 1.5952969 1.7321565 1.5749295 1.7141244
1.6687267 1.5001916 1.6976837 1.7407156 1.7535853 1.6009163 1.3422815 1.560298
1.5584368 1.67003 1.5427376 1.7153354 1.658341 1.7811298 1.6343035 1.6034204
1.6493038 1.5416842 1.8325174 1.7672225 1.4229203 1.4719082 1.6421871 1.534292
1.6460305 1.4593003 1.6677258 1.6586547 1.5222164 1.6370653 1.7648127 1.6917087
1.3794143 1.675649 1.5526443 1.609686 1.6449118 1.5924777 1.7690128 1.5023683
1.6999837 1.7198886 1.644543 1.6296134 1.5358888 1.6395345 1.5847038 1.5390818
1.733955 1.598232 1.6823723 1.4052795 1.5939074 1.607578 1.4162346 1.5804095
1.5156555 1.5981479 1.6862718 1.5700724 1.6536913 1.5102587 1.4693172 1.5786874
1.6938274 1.6739511 1.7666997 1.5146878 1.5298572 1.8128015 1.7022913 1.6320362
1.6639425 1.6706169 1.7842083 1.7238934 1.6991878 1.588308 1.7184922 1.7433498
1.6028271 1.5505445 1.6220325 1.711102 1.5940205 1.6787426 1.6462835 1.571628
1.7932793 1.5193079 1.7125002 1.5773995 1.4597294 1.6104532 1.6433865 1.4559865
1.7304184 1.7195202 1.5077674 1.5298339 1.664675 1.6141163 1.5786573 1.5456669
1.4973724 1.6856774 1.5821857 1.5641667 1.6752856 1.708535 1.6783161 1.6145549
1.3756481 1.5281459 1.5978286 1.6881244 1.5924808 1.6243718 1.5683998 1.5429438
1.6085657 1.6382238 1.6788363 1.5448072 1.6942303 1.7140164 1.6144322 1.6468529
1.5705976 1.5955399 1.5331525 1.4873316 1.6764262 1.4744312 1.4730104 1.4917272
00000000: a7d0 c63f 491f ca3f 628d bb3f cd6f d13f
00000010: 52f8 d93f c698 e13f 6a21 ce3f 5052 ad3f
00000020: 6bc9 c53f 33ab bd3f 28b9 bf3f 048b ca3f
00000030: 5813 c43f 3557 d83f e756 bf3f caff cd3f
00000040: 35ab c63f 668e b83f 4f50 e13f 9123 ed3f
00000050: 6749 db3f 5b90 d33f 61f6 cd3f 92d5 c83f
00000060: d74b d83f ff84 ba3f e22e d43f 9fb3 e03f
00000070: a195 d53f 29dc c43f 72d1 d63f f83b ce3f
00000080: faff ea3f a3a1 dc3f 62f9 e33f da51 c23f
00000090: fa21 e43f 53f5 bb3f ce9d e93f 5b55 e23f
000000a0: 3512 c43f ab04 c13f 660b d33f 5093 e93f
000000b0: d42b da3f e233 d93f 75d2 d53f 5ed2 bb3f
000000c0: d3c7 ab3f 14f6 d53f e3e0 c23f 3525 bf3f
000000d0: bd8c cc3f 71a9 d53f 6603 bf3f c12c e23f
000000e0: c0c9 c73f 04b6 d73f b1f7 c63f e4ba d13f
000000f0: 2810 c73f be83 cb3f 487e ca3f 5192 ce3f
00000100: 4d63 d43f 091c be3f 427e cd3f f75b c43f
00000110: b211 c33f 617b c63f fdad dd3f 8f08 c03f
00000120: 894b cd3f 9965 c43f 09ff b83f c69f cc3f
00000130: 200a cb3f 6c91 cc3f 5a23 d03f f5dd cc3f
00000140: 7927 cf3f e352 b13f 68c1 b53f efb1 bf3f
00000150: bfff bb3f 6f34 d23f 453f cd3f 31d5 cf3f
00000160: 3e5b d73f 0ce7 ad3f f2d1 da3f 8745 bc3f
00000170: bdbf e73f de74 cc3f d551 ca3f 8b32 e13f
00000180: a307 be3f b26e e03f e649 ce3f 8306 d23f
00000190: 2ab2 cc3f 3807 bc3f 2e84 ed3f a4ff d03f
000001a0: fdc8 bf3f 3b08 d43f 1e87 e23f 4671 e43f
000001b0: 189f e13f e537 d93f c21f c13f 82f2 e53f
000001c0: fa11 ce3f bf64 d03f 75ae c33f 4072 c83f
000001d0: b032 cc3f 4eb7 dd3f 4a97 c93f 6e68 db3f
000001e0: d698 d53f 4706 c03f b34d d93f c5cf de3f
000001f0: 7c75 e03f d3ea cc3f e1cf ab3f d8b7 c73f
00000200: db7a c73f 8bc3 d53f 6d78 c53f 1c90 db3f
00000210: 8544 d43f 10fc e33f db30 d13f e13c cd3f
00000220: 631c d33f e855 c53f ee8f ea3f 5934 e23f
00000230: 4122 b63f 7d67 bc3f 3033 d23f ae63 c43f
00000240: 21b1 d23f 5aca ba3f 0a78 d53f cc4e d43f
00000250: fdd7 c23f 5b8b d13f 62e5 e13f e989 d83f
00000260: a690 b03f ab7b d63f 0cbd c63f 310a ce3f
00000270: 788c d23f 4fd6 cb3f 036f e23f 9b4d c03f
00000280: 1199 d93f 4f25 dc3f 6380 d23f 2c97 d03f
00000290: 0198 c43f 44dc d13f 93d7 ca3f a200 c53f
000002a0: 3df2 dd3f de92 cc3f fa57 d73f 33e0 b33f
000002b0: 2805 cc3f 1ec5 cd3f 2d47 b53f dc4a ca3f
000002c0: 0001 c23f 1c90 cc3f c1d7 d73f 22f8 c83f
000002d0: 28ac d33f 2850 c13f 9612 bc3f 6e12 ca3f
000002e0: 56cf d83f 0844 d63f 3723 e23f 4ae1 c13f
000002f0: 5cd2 c33f e109 e83f aee4 d93f 90e6 d03f
00000300: 11fc d43f c6d6 d53f f060 e43f 8aa8 dc3f
00000310: fc7e d93f ad4d cb3f 8df7 db3f 1626 df3f
00000320: 7029 cd3f 3e78 c63f c39e cf3f 6405 db3f
00000330: dd08 cc3f 0ae1 d63f 6bb9 d23f 1b2b c93f
00000340: 2d8a e53f ae78 c23f 3533 db3f 3ae8 c93f
00000350: 6ad8 ba3f 5523 ce3f 7d5a d23f c45d ba3f
00000360: 5a7e dd3f 3d19 dc3f 86fe c03f 99d1 c33f
00000370: 1214 d53f 5d9b ce3f 7111 ca3f 6ad8 c53f
00000380: e6a9 bf3f 47c4 d73f 1085 ca3f 9d36 c83f
00000390: c26f d63f 46b1 da3f 10d3 d63f bca9 ce3f
000003a0: 3d15 b03f 499a c33f a685 cc3f 7614 d83f
000003b0: 69d6 cb3f 6aeb cf3f 53c1 c83f 2f7f c53f
000003c0: 7be5 cd3f 51b1 d13f 1ce4 d63f 3ebc c53f
000003d0: 8adc d83f e464 db3f b7a5 ce3f 13cc d23f
000003e0: 5809 c93f a73a cc3f 573e c43f e260 be3f
000003f0: 2295 d63f 29ba bc3f 9b8b bc3f ebf0 be3f

fc2.bias f4 [81]
1.5265422 1.857476 5.7603364 1.2793874 1.5743401 1.3631816 1.6925945 1.4951175
1.7406808 1.6735911 1.6219549 1.0072627 4.9899917 1.5107493 1.390372 2.5033133
1.5293427 2.8994913 2.3287382 2.9252052 7.839193 1.5133929 1.3788012 2.3475578
1.3213295 1.6746502 1.3316928 2.342995 1.2506868 1.4160548 2.0547576 3.1103523
1.6746604 1.5989176 1.3600253 1.3794543 2.0046782 1.323383 4.020518 1.5337092
1.8177241 2.3698404 1.4123545 0.6196085 1.8727623 1.2701783 1.4631457 1.0846126
1.2375584 1.3112487 1.3700374 1.7682675 1.897393 1.5487801 1.3086853 1.3974923
1.5151846 1.3590622 1.3211422 2.5963225 1.3339155 1.3736501 1.3468617 1.3711344
2.3839998 4.0651135 1.3946692 1.1465474 1.4701879 1.3735436 2.1204057 1.405658
1.3400555 1.7129674 1.1666387 1.5450075 1.2423793 1.3139186 1.2375236 1.4529477
1.5025226
00000000: bc65 c33f c6c1 ed3f ad54 b840 f7c2 a33f
00000010: fa83 c93f bc7c ae3f f0a6 d83f 0360 bf3f
00000020: a1ce de3f 3c38 d63f 389c cf3f fced 803f
00000030: 03ae 9f40 3c60 c13f b6f7 b13f 4936 2040
00000040: 80c1 c33f 4491 3940 0c0a 1540 9036 3b40
00000050: abda fa40 dcb6 c13f 8f7c b03f 633e 1640
00000060: 5321 a93f f05a d63f e974 aa3f a1f3 1540
00000070: 8116 a03f 4941 b53f 2681 0340 0310 4740
00000080: 465b d63f 55a9 cc3f 4f15 ae3f f591 b03f
00000090: a64c 0040 9d64 a93f 15a8 8040 9550 c43f
000000a0: 2fab e83f 77ab 1740 08c8 b43f aa9e 1e3f
000000b0: adb6 ef3f 3495 a23f 5c48 bb3f 96d4 8a3f
000000c0: 5068 9e3f ffd6 a73f 635d af3f 9756 e23f
000000d0: c6dd f23f 6d3e c63f 0083 a73f 07e1 b23f
000000e0: 92f1 c13f c0f5 ad3f 301b a93f 262a 2640
000000f0: bebd aa3f c4d3 af3f f765 ac3f 5581 af3f
00000100: 7493 1840 6915 8240 8584 b23f 11c2 923f
00000110: 1e2f bc3f 47d0 af3f bab4 0740 9aec b33f
00000120: f086 ab3f 8442 db3f 6b54 953f cec2 c53f
00000130: 4906 9f3f 7c2e a83f 2c67 9e3f 31fa b93f
00000140: a952 c03f
