models/q_white.pth (torch, 169104 bytes, 4 tensors)

fc1.weight f4 [256, 81]
00000000: de70 3641 f478 3741 d654 3741 1b25 3c41
00000010: cb15 2a41 543d 3441 8641 3441 2b07 1d41
00000020: 97c3 3241 116e 3641 8ae0 2e41 2ec6 3d41
00000030: b3c1 3841 df0b 3241 3cfb 3841 a092 3641
00000040: 4ae6 3841 5506 3b41 8d5f 3a41 eaba 3841
00000050: ae3c 3c41 1732 3341 5613 2441 dde4 3741
00000060: 5393 1c41 52d9 3941 3d9b 3441 a01f 3541
00000070: 9d31 3841 cbcf 3a41 7292 3d41 cceb 3741
00000080: 581e 3541 fe83 3441 214e 2c41 6a57 3241
00000090: 1215 3d41 6048 1941 04b1 3741 f165 2141
000000a0: 49d1 3541 6d0d 3741 fb8e 3041 e85b 0b41
000000b0: 1a7d 3641 97f0 2c41 3b00 3541 6169 3841
000000c0: 6bc1 2b41 6909 1e41 d8c7 3741 bfc7 3641
000000d0: b623 3941 d878 3441 9973 3541 00b3 3241
000000e0: 2ecf 3641 8146 3241 68d6 2341 6bc3 3741
000000f0: 0cc7 2041 60df 3341 ee8e 2a41 5ae9 2e41
00000100: a420 3541 936d 3841 5832 2941 21a4 3b41
00000110: 58ca 3241 89fb 2b41 7de6 3541 680b 3841
00000120: 7aae 3841 6a66 3841 7c66 3241 0534 2941
00000130: 90e7 2141 1949 2741 f865 3641 b703 3341
00000140: f12b 3441 8eff 3641 e733 3841 9e8b 3741
00000150: 16fa 3a41 4ceb 2a41 b3d2 3441 23de 3541
00000160: 0d61 1d41 24f0 3441 c18c 3541 bf09 3041
00000170: 058e 3941 a119 3841 f12e 3341 dcdc 3741
00000180: bf17 3641 b419 3a41 9af9 3941 f0bd 3741
00000190: 3092 3641 8e37 3a41 7ef7 3541 f1fc 2441
000001a0: f96a 3741 8f5d 1b41 d086 3741 1e49 3741
000001b0: 29ba 3741 0405 3b41 9b72 3a41 6dc9 3a41
000001c0: 1246 3a41 7ebd 3741 8eb6 3941 c5b6 2c41
000001d0: d976 3341 aa62 3941 4cfb 1d41 681d 3741
000001e0: 350f 2141 dc41 3441 90dd 3541 2992 2f41
000001f0: 8be1 0c41 909f 3641 079a 2b41 d3c7 3541
00000200: b585 3741 52f3 2e41 650a 1e41 7968 3641
00000210: 9872 3741 f798 3641 9c55 3341 6ae7 3741
00000220: d178 3341 041b 3a41 ef20 3341 4e86 2441
00000230: 622a 3641 89bf 2241 6753 3641 e9ab 2c41
00000240: 242c 3141 777e 3941 4a6e 3941 773d 2a41
00000250: 34c8 3a41 c3ae 3241 50b3 2d41 d379 3541
00000260: db2c 3741 0279 3541 7568 3a41 48a4 2e41
00000270: c6e6 2c41 1c20 2341 2f70 2641 5bbd 3641
00000280: 4e3e 3241 8848 3741 0c9e 3541 5c8b 3741
00000290: 3c82 3741 970d 3b41 2f0b 2741 a1b9 3141
000002a0: 1f4f 3441 dde6 1b41 441e 3541 ccbb 3841
000002b0: f779 2e41 ec4e 3d41 68d5 3541 11cf 3441
000002c0: cd86 3741 144d 3541 7d44 3841 eadf 3a41
000002d0: 5add 3841 05e7 3741 4576 3c41 64b1 3441
000002e0: 22b5 2341 53c2 3a41 ecba 1841 3586 3741
000002f0: eea3 3641 9dd9 3441 f3e5 3741 422d 3941
00000300: c61f 3941 c9fd 3941 3bc5 3541 896d 3541
00000310: 0d5e 2a41 ffa7 3041 e92d 3d41 f6ab 1a41
00000320: bad6 3541 8756 2041 e1aa 3541 8186 3941
00000330: ee40 2e41 f7f6 0a41 0302 3741 2aa2 2e41
00000340: 5b25 3641 5fe5 3941 85aa 2f41 941f 1c41
00000350: 1516 3841 3b79 3541 0fc0 3a41 fbe6 3141
00000360: 1a4b 3741 67b3 3141 9272 3a41 1747 3441
00000370: e13f 2541 3fdb 3641 392e 1f41 ac1e 3841
00000380: af41 2d41 5331 3041 2acd 3441 d174 3841
00000390: 58ac 2941 f5a4 3941 d4a2 3341 a03c 2d41
000003a0: b4df 3541 3867 3641 6a16 3941 51e9 3641
000003b0: a003 3041 ad70 2a41 6430 2341 7078 2641
000003c0: dafa 3741 6084 2f41 953d 3741 078a 3841
000003d0: 6e78 3641 ddc0 3841 6305 3841 434c 2941
000003e0: 2cd9 3141 1ec5 3241 0219 1c41 8116 3641
000003f0: 5303 3641 2c8f 3041 2361 3a41 ff84 3541
11.402555 11.46703 11.458212 11.759059 10.630321 11.264973 11.265997 9.81425
11.172751 11.401872 10.929819 11.860884 11.54729 11.127898 11.5613365 11.410797
11.556223 11.689046 11.648328 11.545633 11.764814 11.199729 10.254721 11.493375
9.785968 11.615557 11.2879 11.320221 11.512113 11.675731 11.848253 11.495068
11.319908 11.282225 10.769074 11.146341 11.817644 9.58017 11.480717 10.087388
11.363595 11.440778 11.034907 8.709938 11.405542 10.808738 11.312556 11.525727
10.734721 9.877297 11.48629 11.423766 11.5712185 11.279503 11.340722 11.168701
11.425581 11.142213 10.239845 11.485209 10.048595 11.242035 10.659895 10.931971
11.320469 11.5267515 10.574791 11.727571 11.1744 10.74891 11.368772 11.502785
11.542597 11.525003 11.150021 10.5752 10.119034 10.455346 11.399895 11.188407
11.260728 11.437391 11.512671 11.471586 11.686056 10.682446 11.30144 11.366733
9.836194 11.308628 11.346864 11.002379 11.597173 11.506257 11.19896 11.491421
11.380797 11.631275 11.623438 11.483871 11.41069 11.638563 11.372923 10.311753
11.463616 9.710341 11.470413 11.455351 11.482949 11.6887245 11.65298 11.674176
11.642107 11.483763 11.607069 10.794621 11.216516 11.586588 9.873852 11.444679
10.066213 11.266079 11.366592 10.973184 8.805064 11.413956 10.725104 11.361285
11.470143 10.934404 9.877538 11.400506 11.465477 11.412345 11.208401 11.493998
11.216996 11.631596 11.19554 10.282789 11.385347 10.1717615 11.395362 10.79197
11.0732765 11.593375 11.589426 10.640006 11.673878 11.167666 10.856277 11.342242
11.448451 11.342043 11.650502 10.915108 10.806341 10.195339 10.402389 11.421229
11.140211 11.455208 11.351086 11.471523 11.4692955 11.690818 10.44023 11.10782
11.269317 9.743863 11.319889 11.545849 10.904777 11.831768 11.364601 11.300553
11.47041 11.331318 11.516721 11.6796665 11.554041 11.493901 11.778874 11.293308
10.231722 11.672442 9.545635 11.470265 11.415022 11.303128 11.49364 11.573549
11.570257 11.624459 11.360652 11.339242 10.647962 11.041015 11.823709 9.666983
11.3649235 10.021125 11.3542185 11.595338 10.890852 8.685294 11.437991 10.914591
11.38412 11.618499 10.979131 9.7577095 11.505391 11.342097 11.671889 11.118892
11.455835 11.106299 11.652971 11.267356 10.328095 11.428527 9.948785 11.507488
10.828536 11.012042 11.300089 11.52852 10.604576 11.602773 11.227253 10.827301
11.367115 11.4002 11.567972 11.431962 11.000885 10.652509 10.199314 10.404404
11.498743 10.969818 11.452535 11.533698 11.404402 11.547086 11.501315 10.581119
11.1155205 11.173124 9.756105 11.380494 11.375812 11.034954 11.648715 11.34497

fc1.bias f4 [256]
00000000: 7942 3e41 5653 3a41 0b0e 3c41 b847 3e41
00000010: 38fe 3d41 abf5 3941 1696 3d41 fc69 3b41
00000020: f2b2 3b41 3bf5 3c41 257e 3d41 dc40 3d41
00000030: 1dae 3d41 6c73 3841 bebe 3a41 f2f4 3c41
00000040: e65b 3c41 5fb5 3b41 4b60 3d41 94dc 3a41
00000050: e901 3e41 113a 3941 3c87 3a41 bcf8 3e41
00000060: f9e2 3c41 69ae 3f41 4799 3e41 15e9 3a41
00000070: 5094 3e41 f0e7 3d41 05a7 3a41 f4a4 3e41
00000080: 0d75 3d41 57b0 3c41 c65b 3e41 1e1f 3d41
00000090: e802 3b41 5ccf 3c41 1c4c 3b41 c875 3b41
000000a0: 8723 3f41 1a02 3e41 6e3b 3c41 d8f2 3d41
000000b0: 32ad 3b41 0a7b 3d41 fd9e 3c41 8f08 3c41
000000c0: dd5a 3c41 aeb2 3d41 8b8f 3d41 ec89 3d41
000000d0: 1668 3c41 3f05 3e41 d04a 3b41 acef 3b41
000000e0: a1cf 3d41 f824 3b41 ab54 3b41 dc3c 3b41
000000f0: 3e1b 3a41 8517 3c41 50b8 3a41 e5c7 3d41
00000100: b281 3b41 1b79 3b41 a12f 3e41 adbf 3b41
00000110: 5b7d 3a41 f9bb 3d41 23fb 3d41 a9e7 3d41
00000120: d981 3b41 6789 3841 334a 3d41 ed4b 3d41
00000130: 5672 3a41 c013 3f41 c49c 3d41 044a 3c41
00000140: 5da5 3d41 3e2c 3d41 e765 3d41 4661 3c41
00000150: 1a50 3b41 3ce4 3c41 e9f5 3a41 7f66 3e41
00000160: 7e8e 3d41 849f 3b41 003f 3d41 18b3 3d41
00000170: 3c61 3e41 deae 3c41 9d68 3b41 40c3 3d41
00000180: 64c8 3d41 573b 3c41 940c 3b41 b62a 3d41
00000190: 831f 3e41 5e10 3c41 583a 3d41 05a0 3d41
000001a0: 8db0 3a41 b4b9 3c41 3897 3a41 2675 3c41
000001b0: c27a 3c41 5db3 3a41 9a97 3c41 b285 3a41
000001c0: be5e 3d41 c140 3e41 4ead 3c41 50fe 3d41
000001d0: cfa3 3c41 9443 3e41 cc6f 3c41 a182 3b41
000001e0: bc79 3c41 eda8 3a41 8e53 3b41 e792 3b41
000001f0: 61a6 3d41 cbd6 3b41 f12e 3b41 5e0e 3e41
00000200: 6452 3b41 3fb7 3a41 60f2 3b41 34cc 3a41
00000210: 1240 3a41 a7e3 3b41 a675 3c41 39b4 3c41
00000220: e467 3e41 1a40 3a41 d7d5 3d41 df5a 3a41
00000230: fd37 3f41 8dc9 3c41 5888 3d41 bbf6 3b41
00000240: 9e14 3c41 3948 3b41 c249 3e41 8b6c 3d41
00000250: f44f 3d41 b1c2 3d41 d8e3 3a41 68ec 3b41
00000260: fbf1 3c41 bc31 3d41 b152 3c41 7dd3 3b41
00000270: dbc1 3d41 c67b 3b41 e435 3d41 e13b 3e41
00000280: 40de 3b41 1509 3e41 dd9c 3c41 2460 3d41
00000290: 8650 3a41 0852 3b41 a8d1 3a41 e0c3 3c41
000002a0: 9fbd 3a41 1444 3c41 7ac5 3b41 82ff 3b41
000002b0: 695f 3e41 59d0 3b41 c1b3 3b41 0052 3c41
000002c0: e5d8 3b41 9900 3d41 327c 3c41 ae5c 3b41
000002d0: 4e99 3e41 6264 3b41 7a07 3c41 24ca 3d41
000002e0: 31ea 3d41 4db6 3a41 4886 3d41 5d4e 3e41
000002f0: e859 3e41 0c89 3c41 85dd 3c41 e675 3b41
00000300: 8769 3d41 3cf5 3b41 c04c 3c41 7fc1 3c41
00000310: e277 3c41 34e6 3d41 2bf5 3c41 fbdc 3b41
00000320: 1d44 3d41 b2bb 3d41 a0da 3c41 6caf 3c41
00000330: 9279 3e41 b404 3e41 8cbc 3d41 c0b6 3c41
00000340: 0871 3e41 de03 3c41 067f 3c41 9cae 3c41
00000350: 883f 3a41 302b 3c41 919a 3e41 30b6 3c41
00000360: f55f 3b41 07bf 3941 67f7 3d41 66ad 3d41
00000370: 270f 3c41 371c 3b41 b6c0 3e41 c8d9 3e41
00000380: 041b 3c41 5349 3b41 1161 3b41 4f31 3e41
00000390: 123f 3b41 4c2e 3a41 8640 3e41 9c63 3a41
000003a0: c836 3b41 46cc 3b41 e251 3d41 3e0b 3d41
000003b0: 37d8 3c41 d1b6 3d41 e0eb 3a41 e924 3d41
000003c0: 471d 3c41 5e22 3d41 88e9 3d41 5682 3d41
000003d0: ab0d 3e41 fc18 3e41 e76a 3c41 ba81 3e41
000003e0: 7860 3b41 306f 3b41 4e39 3c41 f85d 3e41
000003f0: 7ef5 3d41 2e19 3b41 ba81 3b41 0ac3 3b41
11.891229 11.645346 11.753428 11.892509 11.874565 11.622478 11.849142 11.713375
11.731188 11.809871 11.843297 11.828335 11.855008 11.528179 11.671568 11.809801
11.772436 11.73178 11.836009 11.678852 11.875466 11.576676 11.658016 11.935726
11.805413 11.980081 11.912421 11.681905 11.911209 11.869125 11.665776 11.915272
11.841077 11.793052 11.897406 11.820097 11.68821 11.800625 11.706081 11.716255
11.946174 11.875513 11.764509 11.871788 11.729784 11.842539 11.7888155 11.7520895
11.772183 11.856123 11.847545 11.846172 11.775412 11.876281 11.705765 11.746014
11.863191 11.696526 11.708171 11.702358 11.631651 11.755742 11.669998 11.861302
11.719164 11.717067 11.886628 11.734296 11.655604 11.858392 11.873813 11.869058
11.719201 11.5335455 11.830615 11.831037 11.652914 11.942322 11.850773 11.76807
11.852872 11.823301 11.8373785 11.773748 11.707056 11.805721 11.685037 11.900023
11.847288 11.726444 11.827881 11.856224 11.898739 11.792692 11.71304 11.860168
11.8614235 11.764487 11.690571 11.822927 11.882693 11.753996 11.826744 11.851567
11.668103 11.795338 11.661919 11.778601 11.77997 11.66879 11.787012 11.65764
11.83563 11.890809 11.792311 11.874588 11.789992 11.891499 11.777294 11.719392
11.77972 11.666242 11.707899 11.723365 11.85312 11.73994 11.69896 11.878508
11.707615 11.669738 11.746674 11.674854 11.640642 11.743079 11.778723 11.794
11.900364 11.64065 11.864707 11.647185 11.951169 11.799207 11.845787 11.747737
11.7550335 11.7051325 11.893007 11.839 11.83202 11.860032 11.680626 11.745216
11.809077 11.824642 11.770188 11.739133 11.859828 11.717718 11.825657 11.889619
11.74176 11.877217 11.788297 11.835972 11.644659 11.707527 11.676186 11.797821
11.671294 11.766621 11.735712 11.74988 11.8982935 11.738366 11.731385 11.77002
11.740453 11.812646 11.780321 11.710127 11.912428 11.7120075 11.751825 11.861851
11.869676 11.669507 11.8452835 11.894132 11.89695 11.783459 11.804082 11.716284
11.8382635 11.747372 11.768738 11.79724 11.779268 11.868702 11.809855 11.74145
11.829129 11.858324 11.803375 11.792828 11.90468 11.876148 11.858532 11.794617
11.9025955 11.750944 11.781012 11.792629 11.640511 11.760544 11.912736 11.794479
11.710927 11.609138 11.872901 11.854834 11.753699 11.694388 11.922049 11.928169
11.756596 11.705401 11.711198 11.887038 11.702898 11.636303 11.890753 11.649319
11.700874 11.737371 11.832491 11.815245 11.802787 11.857133 11.682587 11.821511
11.757148 11.82089 11.869514 11.84432 11.878337 11.8811 11.776099 11.906672
11.711052 11.714645 11.76399 11.897942 11.872435 11.693647 11.719172 11.735117

fc2.weight f4 [81, 256]
00000000: 0d1f 5240 6b35 4b40 8eaf 4f40 2945 5040
00000010: 0014 4f40 d6e4 4c40 9266 4e40 9317 5240
00000020: f663 5240 afd8 4e40 2c2e 5040 ba03 5340
00000030: e4ef 4e40 8962 4e40 db08 5340 4250 5440
00000040: bb41 4c40 90e1 5340 513f 5040 efe4 5040
00000050: f517 5140 b18d 4e40 cfba 5340 92e6 5240
00000060: 0e04 4c40 1acb 5340 79aa 5140 189c 4c40
00000070: 191d 4f40 3851 5240 7113 4b40 d703 5040
00000080: 5293 4d40 7ac8 4c40 54f4 5040 00c7 4b40
00000090: 548a 5040 e02f 4d40 ca28 4f40 0bbb 4d40
000000a0: a520 4d40 005a 5340 959b 5040 9de2 4e40
000000b0: 96d9 5140 23a1 5140 497c 4d40 fc18 5140
000000c0: e617 4c40 8d75 5340 abee 4e40 f2a0 4e40
000000d0: e11c 5240 e031 5340 b6a8 5240 d4a5 5340
000000e0: 4d2c 5140 fafc 4c40 2d8f 5240 2507 4e40
000000f0: 5fea 4b40 a41d 5140 99f4 5040 06d3 5040
00000100: 5370 4f40 6e43 5240 3ba4 4e40 25ff 5240
00000110: 4fb9 4e40 458a 5240 3b42 5440 72e5 5440
00000120: eb5d 5040 907c 4740 9501 5440 81ce 5040
00000130: 711e 4d40 702a 4f40 9141 5240 f82f 5040
00000140: 2a8e 5240 caeb 5340 2795 5240 922c 4f40
00000150: 7ba0 5040 c3fe 4b40 cc74 5040 2e67 4e40
00000160: a479 5240 2da4 4d40 80b1 4e40 099c 5240
00000170: c31d 5040 055e 4e40 c277 4d40 6298 4f40
00000180: f4a6 5240 1915 5040 3183 4b40 6369 4d40
00000190: c1ce 5440 9d25 5340 a645 5240 85a5 5040
000001a0: 41ec 4f40 a31e 4f40 e058 5140 1591 5040
000001b0: 137a 4d40 f24d 4c40 3150 5340 0d0c 5440
000001c0: de78 4d40 685d 5340 dd01 5140 d500 5040
000001d0: 63ad 5340 cf2e 5140 d3ff 4f40 7d5e 4f40
000001e0: fff8 4a40 cb9b 5140 f6a9 5040 d6ff 4d40
000001f0: c580 5040 70b4 4a40 ca9e 5040 f3a8 5240
00000200: 3b6b 5240 97c2 4f40 0755 5340 d3d3 4f40
00000210: eb9c 5240 e021 4c40 540b 5240 0177 4e40
00000220: 8217 5340 f4f4 4b40 0578 5340 073d 5340
00000230: 7fe1 5440 f5d7 4940 0abf 4f40 4e6d 5240
00000240: d344 4f40 95a0 5040 c833 5340 6289 5240
00000250: f23d 5140 1291 4c40 6590 5040 352f 5440
00000260: 7a01 4e40 308a 5340 ed2c 4f40 2588 5040
00000270: c9bd 4d40 19b5 5040 156b 4d40 ca84 5240
00000280: 188f 4f40 1820 5040 bfe4 4d40 b6e7 5040
00000290: 1c83 4f40 0cc6 5440 f429 4f40 9704 5040
000002a0: 005e 5440 81bd 4e40 6618 5440 508d 4c40
000002b0: 296e 5240 07b2 4c40 df6b 5140 8458 5540
000002c0: 20cf 5140 019a 4d40 0660 4e40 3a5c 5440
000002d0: c013 5440 a26c 4c40 f25b 4e40 d976 5440
000002e0: 3598 5440 93c3 5040 a935 5540 dbe8 5040
000002f0: 61be 4c40 54da 4e40 9348 4e40 58de 5340
00000300: 7d30 4a40 007e 5040 c442 5340 92c7 5140
00000310: 258f 4f40 913a 4f40 6728 5040 69d1 5340
00000320: 11cc 5140 da3c 5040 be76 5140 8733 4f40
00000330: 3d6d 4d40 fbf2 4c40 c65f 4d40 4685 4f40
00000340: 76d2 4e40 4e17 5240 27e6 5440 8d08 5040
00000350: a4a6 4e40 ab7a 5240 5075 5540 a872 5340
00000360: 231e 5040 6d4d 5140 4533 4e40 5e23 4c40
00000370: b9f1 5040 fb63 4e40 45b5 4e40 fa55 5240
00000380: 36d2 5340 20ad 5140 108f 4c40 47b1 4e40
00000390: 45d9 5140 1e1b 4b40 ca60 4f40 1c2a 4f40
000003a0: dcf4 5040 1e44 5040 060b 4d40 fd4c 5340
000003b0: 34b6 4f40 1a92 4f40 22d3 4d40 c805 4c40
000003c0: 0abd 4c40 4526 5140 db8c 4c40 1b1e 5240
000003d0: f1b0 4f40 6215 4f40 f943 5040 78fa 4e40
000003e0: 84a5 5140 4d5a 4f40 e2c2 4d40 ca56 5140
000003f0: a8b6 5040 af93 5340 58d2 4c40 893b 4f40
3.2831452 3.1751354 3.24509 3.2542212 3.2355957 3.201467 3.2250104 3.2826889
3.2873511 3.2319753 3.252818 3.2971025 3.2333918 3.224764 3.2974155 3.3173985
3.1915119 3.3106422 3.2538645 3.263973 3.2670872 3.2273982 3.308277 3.295323
3.1877475 3.3092713 3.2760298 3.1970272 3.236151 3.2862072 3.1730616 3.2502344
3.2121167 3.199736 3.2649126 3.184021 3.2584429 3.206047 3.2368646 3.2145412
3.2051175 3.3023682 3.259496 3.2325814 3.2789054 3.27546 3.2107108 3.26715
3.1889586 3.3040497 3.2333171 3.2285733 3.2830126 3.2999191 3.2915473 3.3069963
3.268329 3.2029405 3.2899888 3.219186 3.1861799 3.2674341 3.264929 3.2628798
3.2412307 3.2853656 3.2287738 3.2968228 3.2300603 3.2896893 3.3165424 3.3265042
3.2557323 3.1169777 3.3125966 3.262604 3.204983 3.2369652 3.2852519 3.2529278
3.289927 3.3112664 3.2903535 3.2370954 3.259795 3.1874244 3.2571287 3.2250476
3.2886744 3.2131455 3.2295837 3.2907736 3.2518165 3.2244885 3.2104344 3.2436757
3.29144 3.2512877 3.1798823 3.2095573 3.3251193 3.2991707 3.285501 3.2601025
3.2487948 3.236245 3.2710495 3.258855 3.2105758 3.1922574 3.3017695 3.3132355
3.2105021 3.302576 3.2657387 3.2500508 3.3074577 3.268482 3.2499893 3.240142
3.1714475 3.2751338 3.2603736 3.21874 3.2578595 3.167263 3.2596917 3.2915618
3.2877948 3.2462518 3.3020647 3.2473037 3.2908275 3.1895676 3.2819414 3.2260134
3.2983098 3.1868258 3.3042004 3.3005998 3.3262632 3.153806 3.246035 3.2879214
3.2385757 3.2598011 3.3000355 3.2896352 3.2694058 3.1963544 3.2588131 3.3153813
3.2188401 3.3053093 3.237117 3.2583096 3.2147086 3.2610533 3.2096608 3.2893548
3.2431087 3.2519588 3.2170866 3.2641425 3.2423773 3.3245878 3.2369356 3.2502801
3.3182373 3.2303164 3.3139892 3.196125 3.2879736 3.198366 3.272209 3.3335276
3.278267 3.2125247 3.2246108 3.318129 3.3137054 3.1941304 3.224362 3.319754
3.32179 3.261937 3.3314002 3.2642124 3.1991198 3.2320757 3.2231796 3.3104458
3.1592095 3.2576904 3.30095 3.2778058 3.2431118 3.2379496 3.252466 3.3096564
3.2780802 3.253714 3.2728724 3.23752 3.2097924 3.2023304 3.2089705 3.2425094
3.2315955 3.2826724 3.3265474 3.250522 3.228921 3.288737 3.3352852 3.303873
3.2518394 3.2703507 3.2218792 3.1896586 3.2647536 3.2248523 3.2298138 3.2864976
3.3097053 3.2761917 3.1962318 3.2295702 3.278886 3.17353 3.2402825 3.2369452
3.264945 3.2541575 3.2037978 3.301574 3.2454958 3.2432923 3.2160115 3.1878529
3.199038 3.2679608 3.1960971 3.2830875 3.2451746 3.23568 3.2541487 3.2340374
3.2757273 3.2398865 3.2150197 3.2709222 3.2611485 3.305889 3.2003384 3.2380087

fc2.bias f4 [81]
00000000: e658 5c40 0d12 e340 ed49 7840 90a3 0041
00000010: d571 c940 4124 da40 0849 c840 64fd a340
00000020: bf38 9940 4d3b e440 665d c840 2a55 0e41
00000030: a45d ee40 4ac1 2540 2b6e dd40 d320 4c40
00000040: 16ca eb40 9d1a 0541 a811 1640 0555 aa40
00000050: 9b56 3e3f 00af d140 d1fb 8e40 ac53 0540
00000060: 232e 8840 9577 e440 fe69 e340 e4ae ba40
00000070: 705b e840 3bd7 ee40 8b6e 0041 b120 1b40
00000080: 2b6f cd40 ca8f db40 e62f b140 d4a6 d340
00000090: f227 0a41 07e2 af40 6716 ce40 442d 8740
000000a0: eaf6 cf40 d49c 9440 6676 8440 3c86 4140
000000b0: 8dc0 1a40 2e25 c740 335b 4440 d059 f140
000000c0: 57ab 5840 7ce2 9d40 6a01 e240 808e 8840
000000d0: 3e1b f340 ccc8 3d40 f783 8640 f57c 8140
000000e0: ce7c da40 ff82 8840 ed0f b140 ade5 d640
000000f0: d124 ba40 13a6 e040 0c71 b440 f919 6440
00000100: 0bfa 4440 ef1f 4f40 76d7 cf40 31da fa40
00000110: e641 9b40 0da9 5940 3095 ab40 89b3 e140
00000120: 3c62 e140 1a5d e640 0ae8 7b40 67d2 8040
00000130: e6c0 8840 1b07 6440 365b e740 161d a840
00000140: 4b0e e340
3.442926 7.0959535 3.879512 8.039932 6.2951455 6.8169255 6.258915 5.1246815
4.788177 7.132239 6.261401 8.895792 7.4489307 2.5899224 6.919698 3.1895034
7.3684187 8.318997 2.3448277 5.3228784 0.743509 6.5526123 4.4682393 2.083232
4.255632 7.1395974 7.1066885 5.833849 7.261162 7.4637733 8.026988 2.4238703
6.4198203 6.8613024 5.537097 6.6141148 8.634752 5.496341 6.4402347 4.2242756
6.498891 4.644144 4.139453 3.023818 2.4180024 6.2232885 3.0680664 7.5422134
3.3854578 4.933897 7.0626726 4.267395 7.5970755 2.9653807 4.203609 4.0465035
6.827735 4.2659907 5.533194 6.7155366 5.816994 7.0202727 5.6387997 3.5640852
3.0777614 3.236324 6.4950514 7.8391347 4.8517942 3.400943 5.3619614 7.053166
7.0432415 7.198865 3.9360375 4.025684 4.273547 3.5629337 7.229884 5.2535505
7.0954947
